LSTM/lstm_model.pth (torch, 2537 bytes, 5 tensors)

lstm.weight_ih_l0 f4 [16, 1]
-0.19186167 0.27555123 0.74154645 -0.28045693 -0.38502347 0.13314487 0.131534 -0.2373318
-0.25811753 0.33523196 -0.4361127 0.27429616 -0.2464448 0.45821267 0.10965302 0.28797668
00000000: 6377 44be 0d15 8d3e fdd5 3d3f 0d98 8fbe
00000010: cc21 c5be 2157 083e d9b0 063e 1b07 73be
00000020: fb27 84be 86a3 ab3e 2a4a dfbe 8c70 8c3e
00000030: 075c 7cbe da9a ea3e c391 e03d ae71 933e

lstm.weight_hh_l0 f4 [16, 4]
0.13123868 -0.82207 0.38109174 -0.1720613 -0.017368495 0.71393967 -0.0006632743 0.16524285
0.059778508 0.503585 -0.19983664 -0.2729048 0.020810448 -0.025812322 -0.28052127 0.29578
-0.38283378 -0.14181292 0.40279984 -0.25881165 0.2990443 0.35861734 -0.9423784 0.5194948
0.15202554 0.7728391 -0.15022443 0.07112626 -0.6783657 0.3360428 -0.14941803 0.025648333
0.47950643 0.07539569 -0.32929423 0.33144617 0.34172612 -0.36800897 -0.3454516 0.29554152
-0.0725027 -0.25559816 -0.31957927 -0.15818796 0.08227715 0.3742143 -0.16773938 0.49805954
0.39627546 -0.6227804 -0.020553365 -0.22310488 -0.6893238 0.5932795 -0.32652137 0.08248193
-0.26164684 0.5917326 -1.0466042 0.38639644 -0.58591074 -0.01067979 -0.08070406 0.26377168
00000000: 6f63 063e 2e73 52bf 751e c33e d630 30be
00000010: 6048 8ebc c0c4 363f 96df 2dba 6c35 293e
00000020: 4fda 743d f2ea 003f faa1 4cbe 2eba 8bbe
00000030: ac7a aa3c 5d74 d3bc 7ca0 8fbe 7a70 973e
00000040: ca02 c4be 6837 11be c83b ce3e f682 84be
00000050: 561c 993e b19c b73e b63f 71bf 9cfd 043f
00000060: 95ac 1b3e c9d8 453f 6fd4 19be a5aa 913d
00000070: 60a9 2dbf cd0d ac3e 0a01 19be 741c d23c
00000080: de81 f53e 0e69 9a3d 4199 a8be 50b3 a93e
00000090: baf6 ae3e ac6b bcbe 08df b0be 3851 973e
000000a0: 4c7c 94bd c3dd 82be e59f a3be 06fc 21be
000000b0: ec80 a83d 0499 bf3e dfc3 2bbe a901 ff3e
000000c0: 9ee4 ca3e 896e 1fbf 885f a8bc 9b75 64be
000000d0: 8677 30bf 2ae1 173f cf2d a7be 49ec a83d
000000e0: 93f6 85be ca7b 173f 20f7 85bf c1d5 c53e
000000f0: 3ffe 15bf 49fa 2ebc 2c48 a5bd 150d 873e

lstm.bias_ih_l0 f4 [16]
0.27592954 0.5872336 0.15909159 -0.1569166 0.42153564 0.25662836 0.54273576 0.2760972
-0.55581856 0.115813255 -0.20217605 0.46385342 0.32444417 0.44855884 0.30916196 0.8223153
00000000: a346 8d3e f154 163f e8e8 223e bfae 20be
00000010: 85d3 d73e cb64 833e bbf0 0a3f 9d5c 8d3e
00000020: 204a 0ebf 802f ed3d 3d07 4fbe 327e ed3e
00000030: 8c1d a63e 81a9 e53e 7a4a 9e3e 4183 523f

lstm.bias_hh_l0 f4 [16]
-0.5053829 0.4509424 0.004772727 0.630027 0.26697037 -0.22493832 -0.24262926 0.19548132
-0.50558794 -0.16525719 0.13488685 -0.14189193 0.0065444866 -0.0510823 0.34027156 0.07856248
00000000: c660 01bf ece1 e63e 8964 9c3b 7349 213f
00000010: 57b0 883e 3b56 66be ce73 78be 412c 483e
00000020: 366e 01bf 2e39 29be c71f 0a3e 1e4c 11be
00000030: 2273 d63b ac3b 51bd 1338 ae3e 5ee5 a03d

fc.weight f4 [1, 4]
0.43827376 0.45810324 -0.48072803 0.9278379
00000000: 6b65 e03e 828c ea3e fc21 f6be c986 6d3f
