LSTM/lstm_model.pth (torch, 2537 bytes, 5 tensors)

lstm.weight_ih_l0 f4 [16, 1]
00000000: 1d7c c7bd 1836 2abe 4614 a93e 3e87 90be
00000010: 010d eabd d35c e4be 9fc7 f6be 687c 85bd
00000020: db17 9cbe a3be f23e c4bd 023f 9bfe 10be
00000030: ca4f 5cbd 1382 e3be 6b82 9dbe 32a7 debd
-0.097404696 -0.16622198 0.3302328 -0.28228182 -0.114282615 -0.4460207 -0.48199174 -0.06517869
-0.3048695 0.4741107 0.5107081 -0.14159624 -0.05378703 -0.44435176 -0.30763564 -0.10871734

lstm.weight_hh_l0 f4 [16, 4]
00000000: 9a62 dcbe 8687 7a3e bff5 eb3c 4f8a c23d
00000010: f502 ecbe 8c61 a23e fecd 8e3d a61a 2e3e
00000020: 41c4 4ebf c31c 92be cfc7 c73d b884 4fbe
00000030: d633 e8bd 05dc 07bf fb74 f5be a28d cabc
00000040: 56a8 653e 7cde 8bbc e787 bebe 3134 71bc
00000050: 8f2f 26be a1ab f83d 1bbe 50be 8d1a ef3e
00000060: a2d0 55be 68fe 07bf 2bf9 df3e 3299 4e3e
00000070: 2f50 4cbd ed73 2abf 4b30 42be 788f 96be
00000080: f817 223f 3286 053e 8244 343e 0290 a33c
00000090: 9349 ddbe 5305 0d3e c721 b8bd c7b9 ca3d
000000a0: 2b26 3ebd 3c9f 8f3e fb36 2a3f 7c65 2c3f
000000b0: 72ce 6abe 594f 1e3e 91f7 34bf 9f99 f93d
000000c0: cdc7 d7be b08f f13d 0ce3 70be 63b3 d7be
000000d0: b43f 80be 63df e7be ebe7 8abd 9127 0b3f
000000e0: dc10 48bf 2a67 46be 9e7f 6bbe 64e5 c73e
000000f0: b562 133e 9271 4dbf a7dd 73bf 922d 213f
-0.43043977 0.2446576 0.028803704 0.094990365 -0.46096006 0.31715047 0.06972884 0.17002353
-0.8076821 -0.28537568 0.09754907 -0.20265472 -0.11338012 -0.530701 -0.47940812 -0.024725739
0.22427496 -0.017073862 -0.3721306 -0.014721916 -0.1622908 0.121421106 -0.2038502 0.46699944
-0.20880368 -0.5312257 0.43744788 0.20175627 -0.049881157 -0.6658314 -0.18963735 -0.29406333
0.63317823 0.13039473 0.17604259 0.01996613 -0.43220195 0.13771562 -0.089908175 0.098987155
-0.04642312 0.28051174 0.66490144 0.6734235 -0.22930315 0.15459956 -0.70690256 0.12187504
-0.42144623 0.11794984 -0.23524112 -0.4212905 -0.25048602 -0.45287618 -0.06782516 0.5435725
-0.78150725 -0.19375291 -0.22997901 0.390422 0.14393122 -0.8025142 -0.9526009 0.6296016

lstm.bias_ih_l0 f4 [16]
00000000: 0883 013f e99d 363f c814 423f 0127 c9be
00000010: d4ff f43d 0e83 aabb cf24 873e 2fd2 963d
00000020: a9d9 c3be e841 483c c7f7 33bb 3d15 ab3e
00000030: a63d ab3d 7118 123f ea05 4d3f 8a58 dbbe
0.5059056 0.713347 0.7581296 -0.3928757 0.11962858 -0.005203611 0.2639527 0.07364308
-0.38252 0.0122227445 -0.002746092 0.3341464 0.08361368 0.57068545 0.8008715 -0.42840987

lstm.bias_hh_l0 f4 [16]
00000000: 6cc3 94be f5d8 2d3e 6d74 d6bd d468 6fbd
00000010: 704d fe3e 8d00 b83e a9d1 363e 63a3 33be
00000020: 440e 05bf 5942 c8bb 6f7b b8be c36b e03a
00000030: 3545 87be 1994 3b3e 6b67 f93e c288 cd3d
-0.29055345 0.16977294 -0.10471425 -0.05844958 0.49668455 0.3593792 0.17853417 -0.17542796
-0.5197489 -0.006111425 -0.36031672 0.0017121959 -0.26419988 0.18318214 0.48711714 0.1003585

fc.weight f4 [1, 4]
00000000: 49e0 c2bd da55 023f 5851 493f d217 00bf
-0.09515435 0.5091225 0.78639746 -0.50036347
