LSTM/lstm_model.pth (torch, 2537 bytes, 5 tensors)

lstm.weight_ih_l0 f4 [16, 1]
000000 bf 3c 97 3d 2b 3d 49 3e 73 bb c7 be 41 9d ee be
       0.07384633 0.1965224 -0.390102 -0.4660435
000010 3c 9e 00 3e a6 01 ef 3e e2 c1 0d bf 24 3f cc be
       0.12560362 0.46680945 -0.55373967 -0.39891922
000020 b9 0e a2 3e 9d 6d 04 bf e7 e8 03 3f dd b5 df 3d
       0.31651857 -0.51729757 0.51527256 0.109233595
000030 f5 0d 01 3f 83 96 c1 bd 3d ec a3 be e1 ac 37 3d
       0.5041192 -0.09452536 -0.32016173 0.044842605

lstm.weight_hh_l0 f4 [16, 4]
000000 3c c5 83 bb fc 03 8b be 71 55 32 3e 88 f4 fa be
       -0.004021315 -0.27151477 0.17415406 -0.49014688
000010 74 ec a7 3e 9d bf 14 bd 8c 7d b6 be 1c 81 00 3d
       0.32797587 -0.03631555 -0.3564266 0.03137313
000020 f0 19 f7 be 77 2a 84 3e 34 02 9e 3e de 9d d6 3e
       -0.48261976 0.25813648 0.30861056 0.41917318
000030 3c c1 40 3f e3 3a a7 be fe 77 ac bc 53 cc d7 be
       0.7529485 -0.32662115 -0.02105331 -0.42148075
000040 d9 79 1f 3f ae 9a fc 3c 2a eb 35 bf 88 16 a3 3d
       0.622953 0.030835476 -0.71061957 0.07963282
000050 a0 e3 10 3f 20 ad a8 3d a2 9e a5 be 8b 4f ef be
       0.5659733 0.08236146 -0.3234759 -0.46740374
000060 82 65 4f be 3f 08 35 3f 0f 0b 06 3e 9b 05 ad 3d
       -0.20253566 0.7071571 0.13090156 0.08448335
000070 95 e5 85 be 85 e7 80 3e 2b 30 93 3e 36 a7 25 be
       -0.2615172 0.25176635 0.28747687 -0.16177067
000080 58 bc 38 3f ab a7 e0 be ef de 6c 3e 2f 0c dd be
       0.7216239 -0.4387792 0.23131917 -0.43173358
000090 5f 7a 81 be 95 ec 3a 3e 47 e7 a1 3d 93 d7 aa 3d
       -0.25288674 0.18254311 0.07905441 0.08341899
0000a0 e1 62 54 3e 6e 8a 87 3e 30 d7 a9 3e 94 e6 d9 bc
       0.20740844 0.264728 0.33171988 -0.026599206
0000b0 0b ec 03 3f f2 7e 85 bd d0 bf 3f be da 13 88 3e
       0.5153205 -0.065183535 -0.18725514 0.26577646
0000c0 2d a8 0f 3f 72 61 06 bf 7f a0 64 bd 36 52 cb be
       0.5611599 -0.5249244 -0.055817124 -0.3971116
0000d0 d8 47 59 3f 08 12 32 bf e7 c9 39 bf 52 46 be be
       0.8487525 -0.69558764 -0.72573704 -0.37163025
0000e0 eb 06 bd bd 70 ff 26 3f 32 f5 2e 3e 1b 2e e5 be
       -0.09229835 0.65233517 0.17085722 -0.44761738
0000f0 8f b5 cf bd fd 54 ba 3e e0 13 9a be b8 00 49 3d
       -0.101420514 0.36392966 -0.30093288 0.04907295

lstm.bias_ih_l0 f4 [16]
000000 51 7c 46 3d 29 87 aa 3e 4d 35 85 3d 7e b9 f0 3e
       0.0484584 0.33306244 0.06504307 0.4701652
000010 c6 44 03 3f bf 3e 97 3e d1 2d b9 be bd 81 fe 3d
       0.51276815 0.2954006 -0.36167768 0.12427089
000020 6c ca f7 3e 8b f3 5e be c3 95 07 be 98 5c 1f be
       0.48396623 -0.21772592 -0.13240723 -0.15562665
000030 6e 01 35 3f c5 89 9d 3d 7b 18 69 3e cf 21 f0 3e
       0.70705307 0.07692293 0.22763245 0.46900794

lstm.bias_hh_l0 f4 [16]
000000 e2 95 1f 3f 8d 58 9f bd e4 40 c7 3e 6a b6 bb 3d
       0.6233808 -0.077805616 0.38916695 0.09165652
000010 e5 9a 81 3e 13 20 e8 3d 6a 95 5d bb 4b e0 f2 3d
       0.25313488 0.11334243 -0.0033810982 0.11859187
000020 cb f9 18 bd 4d eb ea 3e 04 b2 65 be 32 fd 6b bd
       -0.037347596 0.45882645 -0.22431189 -0.057614513
000030 eb 35 a6 3e f2 0f 93 3e be ec 4b be 56 f4 80 3e
       0.3246301 0.28723103 -0.19914529 0.25186414

fc.weight f4 [1, 4]
000000 d7 84 19 3f 64 af 6c bf ad 36 5b 3e 0e 74 c5 3e
       0.5996832 -0.92455125 0.21407576 0.38565105
