LSTM/lstm_model.pth (torch, 2537 bytes, 5 tensors)

lstm.weight_ih_l0 f4 [16, 1]
000000 6a ea 22 3e 0f 2b cf be a5 04 0a be 49 d0 3a 3e
       0.15909734 -0.4046254 -0.13478334 0.18243517
000010 0e fd 0f be a1 88 9a be ab 10 c2 be 70 da c5 3d
       -0.14061376 -0.30182365 -0.37903342 0.09660804
000020 8b 2c 42 3f 1f cc a0 bd a6 d7 34 be 3e e5 80 bd
       0.7584922 -0.07851433 -0.17660388 -0.062937245
000030 0e f1 f0 bd 20 81 77 be ae 7f 25 bf ec 76 57 3f
       -0.117647275 -0.24170351 -0.6464795 0.84165835

lstm.weight_hh_l0 f4 [16, 4]
000000 34 93 83 be 24 91 19 3e d9 c9 59 be 9f d8 7f bf
       -0.25698245 0.14996773 -0.21268405 -0.9993991
000010 cf b1 1f bf a3 b8 0e 3d 76 a4 ff 3d 6a 0c a5 3e
       -0.6238069 0.034844052 0.1248254 0.32236034
000020 2f f2 53 bf bc ab a7 bd 20 04 d0 bd 88 70 a6 3e
       -0.8279142 -0.081870526 -0.10157037 0.3250773
000030 a6 8b 41 3e c9 9d f6 3e dc f8 46 3d 5f fd 44 be
       0.18900928 0.48167256 0.048577175 -0.19237278
000040 56 0b 26 be c7 c3 52 3e 0a b8 b4 3d 27 78 33 bf
       -0.16215262 0.20582496 0.08824165 -0.7010521
000050 77 ce 56 bf 0b 2b e0 3e e7 74 be 3d 45 b5 2b be
       -0.8390879 0.4378284 0.09299641 -0.16768368
000060 57 fb 0d bf 70 a9 be bd 8e 6d cf 3d f8 3e 05 be
       -0.5546164 -0.093096614 0.10128318 -0.13012302
000070 ca 99 e3 3e f9 4a e2 3e d6 02 82 3d 79 70 1d bf
       0.4445327 0.44197825 0.06348197 -0.61499745
000080 d9 a1 8c be 9d 3f 58 3f 69 80 e1 bd ca d6 fe bd
       -0.2746723 0.84472066 -0.110108204 -0.124433115
000090 e0 09 65 bf 18 29 e8 be 55 cd 87 be b7 37 43 3e
       -0.89468193 -0.45343852 -0.26523843 0.19064222
0000a0 38 5e f6 3e e7 63 d3 be 4b 9f 84 3d 36 e4 30 bd
       0.48118758 -0.41287157 0.06475695 -0.04318639
0000b0 e8 26 7b bf 12 6c b0 be 5b f7 8f be 7b 9e 35 bd
       -0.9810624 -0.3445745 -0.28118405 -0.044340592
0000c0 b5 ad a2 3e af d4 f2 3e 06 47 3e bf ac ea 0a bf
       0.31773153 0.4742789 -0.74327123 -0.5426433
0000d0 61 54 32 bf 86 41 28 3f ac 4c a9 be d2 2c 88 be
       -0.6966 0.6572498 -0.33066308 -0.26596695
0000e0 58 a3 26 bf ee d2 01 be e4 43 47 be c6 52 c9 3e
       -0.6509299 -0.1267812 -0.19459492 0.39320964
0000f0 b2 ba 68 3f ec 41 9c 3e b3 27 42 bd b5 10 96 be
       0.90909874 0.30519044 -0.04740114 -0.2930962

lstm.bias_ih_l0 f4 [16]
000000 d2 95 1b 3e 13 8e 04 3e db 1e c6 3e e0 95 cb 3e
       0.1519387 0.12944822 0.38695416 0.39762783
000010 f3 e4 56 3f b3 11 b9 be 57 9e 7a 3d 53 5c 0b 3e
       0.839431 -0.36146316 0.06118616 0.13609438
000020 de 07 60 be 97 80 a0 3e 4b 67 f9 be b2 e5 f2 be
       -0.21878001 0.31348106 -0.4871162 -0.4744087
000030 69 99 56 3f ae c7 05 be c4 b2 25 be 5a ed 85 be
       0.83827835 -0.13064453 -0.16181475 -0.26157647

lstm.bias_hh_l0 f4 [16]
000000 ea 40 2f 3f af 9f 1e be ad a0 e0 bd 65 a8 8e 3e
       0.68458426 -0.15490602 -0.109681465 0.2786285
000010 a7 f0 83 3e 1e 4d d8 3e 1f 58 63 3e e7 e4 1d bd
       0.2576954 0.42246336 0.22201584 -0.038548376
000020 c0 23 e6 3c aa 98 83 bd 23 ff 9e be c7 9d 87 be
       0.028093219 -0.06425603 -0.3105403 -0.26487562
000030 b8 16 99 3f dc aa e2 3e 71 e1 68 3e f0 3f b1 3e
       1.1960058 0.4427098 0.22742249 0.34619093

fc.weight f4 [1, 4]
000000 5f 47 17 3f 92 4e e2 be b2 88 8b 3d ea c1 54 bf
       0.5909328 -0.4420057 0.06813182 -0.8310839
