card_recognition/model.pth (torch, 281972 bytes, 16 tensors)

conv1.weight f4 [32, 3, 5, 5]
0	0xbe8bf898	-0.273381
1	0xbdacdc50	-0.08440459
2	0x3e25647d	0.16151614
3	0x3d7866cc	0.06064491
4	0x3df511b1	0.11966265
5	0xbe85deac	-0.26146448
6	0xbdd5316a	-0.104098156
7	0x3e0d721e	0.13813064
8	0x3e49e9f1	0.19718148
9	0x3e5a737a	0.21333113
10	0xbe78a245	-0.24280651
11	0xbe38342e	-0.17988655
12	0xbd05d408	-0.032672912
13	0x3d807f6a	0.06274302
14	0x3e817479	0.25284174
15	0xbd990ce8	-0.07473165
16	0xbe0390e1	-0.12848236
17	0xbe323bbc	-0.174056
18	0x3dd92e66	0.10604553
19	0x3e501656	0.2032102
20	0xbd6e28e9	-0.058144484
21	0x3d472cea	0.048626818
22	0xbd5fe6de	-0.05466353
23	0x3e182988	0.14859593
24	0x3e529fb6	0.20568737
25	0xbebb72ec	-0.36611116
26	0xbd72e22a	-0.059297718
27	0x3d64b8e0	0.055840373
28	0x3e03a27b	0.1285495
29	0x3e66d1e0	0.22540998
30	0xbed5737c	-0.4168967
31	0xbd56a73f	-0.052405592
32	0xbcc0ad64	-0.02352018
33	0x3e1855e0	0.14876509
34	0x3e758071	0.23974778
35	0xbe903cff	-0.28171536
36	0xbde21190	-0.11038506
37	0x3aedf2a9	0.0018153983
38	0x3e847f0c	0.2587818
39	0x3eb66239	0.35621813
40	0xbea389ba	-0.31941015
41	0xbe2883cc	-0.16456527
42	0xbd0e233d	-0.034701575
43	0x3dac39bd	0.0840945
44	0x3eaaece8	0.3338387
45	0xbe9ce801	-0.30645755
46	0xbe795575	-0.24349006
47	0x3cdb3130	0.026756853
48	0x3dfaa215	0.12237946
49	0x3e88cb0e	0.26717418
50	0xbe88a6ff	-0.26689908
51	0x3bec46d9	0.007210594
52	0x3e03b863	0.12863307
53	0x3e8f533f	0.279932
54	0x3e665438	0.22493064
55	0xbea5aefa	-0.3236006
56	0xbe06a425	-0.13148554
57	0x3cbd7c52	0.02313057
58	0x3d59609d	0.053070653
59	0x3e50e46a	0.20399633
60	0xbe885c6c	-0.26633012
61	0xbda36024	-0.07977322
62	0xbd68c132	-0.05682487
63	0x3d8ad94b	0.067797266
64	0x3e2f6687	0.17128955
65	0xbe8d5b02	-0.27608496
66	0xbd558b89	-0.052135024
67	0x3d063fd4	0.032775715
68	0x3df96b57	0.121786766
69	0x3e77f6e6	0.24215278
70	0xbe981251	-0.29701474
71	0xbd711042	-0.058853395
72	0x3d1f2aec	0.038859293
73	0x3ca9a073	0.020706391
74	0x3e39d329	0.18146957
75	0x3e9f9941	0.3117161
76	0x3e28af2f	0.16473077
77	0x3e8fb89a	0.28070527
78	0x3dfdb3b8	0.12387794
79	0xbe712e14	-0.23552734
80	0x3e30491f	0.17215393
81	0x3e06363f	0.1310663
82	0xbd08545c	-0.033283576
83	0xbe238b1d	-0.15971036
84	0xbe0485f6	-0.12941727
85	0xbc5167d4	-0.012781102
86	0x3d461ebe	0.04836916
87	0xbdcccf32	-0.10000457
88	0xbcceeefd	-0.025260443
89	0xbe7b03a1	-0.24513103
90	0x3e270e90	0.16314149
91	0xbc716229	-0.014732876
92	0xbd71508f	-0.058914717
93	0xbe2ff763	-0.17184214
94	0xbe2c27f8	-0.16812122
95	0x3e1648d1	0.14676215
96	0x3d6491e5	0.0558032
97	0x3e12e8ec	0.14346665
98	0x3dfed44a	0.12442835
99	0xbe3ba8c9	-0.18326105
100	0x3e9894ef	0.29801127
101	0x3e63fe7e	0.2226505
102	0x3de7dd8c	0.113215536
103	0xbd32ce45	-0.043653745
104	0xbee7e1e8	-0.4528954
105	0x3e61a4cc	0.22035521
106	0x3df010ad	0.11721931
107	0x3d5e78d7	0.05431446
108	0xbdbb8d1b	-0.09157773
109	0xbebee45b	-0.37283596
110	0x3e80ff48	0.25194764
111	0x3df00fcb	0.11721762
112	0xbe0cbf68	-0.1374489
113	0xbe04ddb7	-0.12975203
114	0xbe995ce8	-0.29953694
115	0x3e1fef79	0.15618695
116	0x3e080500	0.13283157
117	0x3d1f6786	0.038917087
118	0xbda2f976	-0.07957737
119	0xbea56240	-0.3230152
120	0x3e7fb352	0.24970749
121	0x3e6a4f4a	0.22881809
122	0x3d337721	0.043814782
123	0xbe255bee	-0.1614835
124	0xbec7b17a	-0.3900259
125	0x3eb1d01b	0.34729084
126	0x3e7475a9	0.23873009
127	0x3de10291	0.10986818
128	0x3c6ae8b4	0.014337707
129	0xbeb97184	-0.36219418
130	0x3e313e85	0.17309006
131	0x3d2aa5eb	0.041662138
132	0xbd3d6af5	-0.04624458
133	0xbe267fcb	-0.16259687
134	0xbec325ac	-0.3811468
135	0x3e70565f	0.23470448
136	0x3ccb7c5e	0.024839576
137	0xbc68fa37	-0.014219812
138	0xbe51b69c	-0.20479816
139	0xbe894988	-0.26813912
140	0x3e10b7ab	0.14132564
141	0x3ce67721	0.028132977
142	0xbcc3cb93	-0.023900783
143	0xbd429d67	-0.04751339
144	0xbe863303	-0.26210794
145	0x3d913cda	0.07091685
146	0x3d513d39	0.051083777
147	0x3da655d5	0.0812184
148	0xbccc6188	-0.02494885
149	0xbe6cb75d	-0.23116823
150	0x3f020173	0.5078346
151	0x3e8c87e3	0.27447423
152	0x3e49f99e	0.19724128
153	0x3e124b1f	0.14286469
154	0x3d8d1a6e	0.06889807
155	0x3e9452da	0.2896946
156	0x3e5bc915	0.21463425
157	0x3d735bdd	0.05941378
158	0x3c89b7cc	0.016811274
159	0xbda30996	-0.07960813
160	0x3e50078f	0.20315383
161	0x3e4453d8	0.19172609
162	0xbd14680b	-0.036232036
163	0xbd327f18	-0.043578237
164	0x3d216891	0.039406363
165	0x3ca473a7	0.020074679
166	0x3d29e0a8	0.041474015
167	0xbe09a2a7	-0.13440953
168	0xbe1f2ee8	-0.15545237
169	0xbe4450cc	-0.19171447
170	0x3e19be9f	0.15014122
171	0xbd03b344	-0.032153383
172	0xbe0680e9	-0.13135113
173	0xbe4f7c43	-0.20262246
174	0xbe6820ad	-0.22668715
175	0x3e9df9bc	0.30854595
176	0x3e3f39b5	0.18674357
177	0x3e1d7a9a	0.153788
178	0xbe4c506e	-0.19952556
179	0xbe8cbb65	-0.2748672
180	0x3e472e8a	0.19451347
181	0x3e41bb90	0.18919206
182	0xbda7289a	-0.08162041
183	0xbe7965c8	-0.24355233
184	0xbe49ba35	-0.19699939
185	0x3ed59acf	0.41719672
186	0x3df195ce	0.11796151
187	0xbdcf2ebe	-0.10116337
188	0xbe9e15f0	-0.30876112
189	0xbe33ea38	-0.17569816
190	0x3e7cfb22	0.24705175
191	0x3dad16e0	0.08451629
192	0xbd9832ea	-0.07431586
193	0xbd469919	-0.04848585
194	0xbe9f4f81	-0.31115344
195	0x3e42b22a	0.19013277
196	0xbda18ea1	-0.078885324
197	0x3dbe9474	0.09305659
198	0xbe5b5c42	-0.21421912
199	0xbed1b9f0	-0.40962172
200	0x3ea69682	0.32536703
201	0xbce364c3	-0.027758008
202	0x3c10e9b0	0.008844778
203	0xbe03880c	-0.12844867
204	0xbe7db92d	-0.2477767
205	0x3e966262	0.29371935
206	0x3e5a4f6a	0.21319357
207	0xbe7e1127	-0.2481123
208	0xbe30abd6	-0.1725305
209	0xbe853c8c	-0.26022756
210	0x3e5924b2	0.21205404
211	0x3d96f09f	0.073701136
212	0xbe89b83e	-0.26898378
213	0xbe66f38b	-0.22553842
214	0xbe8f2b84	-0.27962887
215	0x3e2b5987	0.1673337
216	0x3c9d0d71	0.019171448
217	0xbda462a2	-0.08026625
218	0xbe6867d2	-0.22695854
219	0xbdcd35a1	-0.100199945
220	0x3db5fefe	0.088865265
221	0x3dc355b9	0.09537835
222	0xbc41d9ae	-0.011831684
223	0xbe0a9568	-0.13533556
224	0xbe4fb977	-0.20285593
225	0xbdb29c01	-0.08721162
226	0xbd7e9788	-0.06215623
227	0xbd9cb00e	-0.07650767
228	0xbcab5f14	-0.02091936
229	0xbe270a03	-0.16312413
230	0x3dbd966e	0.09257208
231	0xbd15ecba	-0.036602713
232	0x3e01e302	0.12684253
233	0x3d829eba	0.06377931
234	0x3cc39434	0.02387438
235	0x3cfb27f6	0.030658703
236	0x3e000f29	0.12505783
237	0x3e569bd1	0.20957877
238	0x3e16065e	0.14650866
239	0xbd7f83b7	-0.062381472
240	0xba62a921	-0.0008646418
241	0x3dc9e0aa	0.098573044
242	0x3dc6abe4	0.09700754
243	0x3d968396	0.07349317
244	0xbcdc9284	-0.026925333
245	0xbd2d6e98	-0.0423418
246	0x3c8fa033	0.017532444
247	0x3d61ce35	0.055128295
248	0x3cf24142	0.029572133
249	0xbcfb0fd5	-0.030647198
250	0x3e5cbcad	0.21556349
251	0x3e5cc275	0.21558554
252	0x3e5a8d21	0.21342899
253	0x3e89c700	0.26909637
254	0x3e862cb8	0.26205993
255	0x3dba8305	0.09107021

conv1.bias f4 [32]
0	0xbd7f9ba3	-0.062404286
1	0x3e82b6cf	0.25530097
2	0xbe104f7e	-0.14092824
3	0x3cdfe3ed	0.027330363
4	0x3e60dd1a	0.21959344
5	0xbdfc0a65	-0.1230667
6	0x3d23fc5d	0.040035594
7	0x3dcafb45	0.09911207
8	0xbe0a2e30	-0.13494182
9	0x3c1810ee	0.00928138
10	0x3d8ff7f8	0.07029718
11	0xbdb11de6	-0.08648281
12	0xbd2c7eaa	-0.042112984
13	0x3e80b2ed	0.2513651
14	0x3d999210	0.07498562
15	0xbc96b107	-0.01839496
16	0xbc17009a	-0.009216452
17	0x3e232ed1	0.15935828
18	0xbdf47cd5	-0.11937872
19	0xbdd58664	-0.104260236
20	0xbb5a2d6a	-0.003329123
21	0x3e041e38	0.12902153
22	0x3ced829c	0.028992943
23	0xbe2c2bfa	-0.1681365
24	0xbd5d5c3f	-0.05404305
25	0x3df03384	0.11728576
26	0x3e3c02f0	0.18360496
27	0xbd77dc0f	-0.0605126
28	0xbe1d34a6	-0.15352115
29	0x3e2cf992	0.16892079
30	0x3c8292ec	0.015939198
31	0x3ce29555	0.027659098

bn1.weight f4 [32]
0	0x3f9537e3	1.165768
1	0x3f888b76	1.066756
2	0x3f2c6b4c	0.6735122
3	0x3f1e22c2	0.61771786
4	0x3eb364d7	0.35037872
5	0x3f114bb1	0.5675612
6	0x3f487667	0.7830567
7	0x3f221ff0	0.6332998
8	0x3f16b8a4	0.5887549
9	0x3f955e0a	1.1669323
10	0x3f81690b	1.0110182
11	0x3fa4a78e	1.2863634
12	0x3f305a5b	0.6888787
13	0x3f79e54d	0.9761551
14	0x3f7b2867	0.98108524
15	0x3f5d5fb8	0.8647418
16	0x3fa4465f	1.2833976
17	0x3f783385	0.9695361
18	0x3f89a774	1.0754228
19	0x3f06d0a7	0.5266213
20	0x3f83483a	1.0256417
21	0x3e888afd	0.2666854
22	0x3ee1d0b2	0.44104534
23	0x3f8fb541	1.1227189
24	0x3f58035a	0.84380114
25	0x3f14a1a2	0.5805913
26	0x3f88a915	1.06766
27	0x3f5afde3	0.8554365
28	0x3eec81dd	0.46192828
29	0x3f1948de	0.5987681
30	0x3f0bb214	0.545686
31	0x3f0ceccc	0.55048823

bn1.bias f4 [32]
0	0xbed327d0	-0.41241312
1	0xbf2862e6	-0.6577591
2	0xbf7c2ac6	-0.9850277
3	0xbf74b0d6	-0.9558233
4	0x3e240a1d	0.16019483
5	0xbf71624a	-0.942906
6	0xbefd9708	-0.4952929
7	0xbf7617e0	-0.9613018
8	0xbf021d12	-0.5082561
9	0xbe93b687	-0.28850195
10	0xbefa0503	-0.4883195
11	0xbeb933a2	-0.36172205
12	0xbeb9492e	-0.36188644
13	0xbf7ea834	-0.9947541
14	0xbef4f2e6	-0.47841567
15	0xbf260308	-0.64848375
16	0xbf05bfb7	-0.5224566
17	0xbfbda6fa	-1.4816582
18	0xbf0d16f8	-0.5511317
19	0xbf3ca47d	-0.7368849
20	0xbf8ee1e8	-1.1162691
21	0xbf16a61c	-0.5884721
22	0xbe0abc19	-0.13548316
23	0xbedb8f54	-0.42882788
24	0xbec41c48	-0.38302827
25	0xbeed0db1	-0.46299508
26	0xbe9e8f45	-0.3096868
27	0xbf216cb3	-0.63056487
28	0xbf3a91f2	-0.72878945
29	0xbf5a3b9a	-0.85247195
30	0xbf3bba58	-0.73331213
31	0xbeebbbb6	-0.4604165

bn1.running_mean f4 [32]
0	0x3daec02d	0.08532748
1	0xbd8d0721	-0.06886125
2	0xbed972f7	-0.42470524
3	0xbf720876	-0.9454416
4	0x400d6372	2.2091947
5	0x3de0bf5c	0.10973999
6	0xbdf8fcb7	-0.121575765
7	0xbf4b05f7	-0.79305977
8	0xbf29c533	-0.6631653
9	0x3e9667fd	0.29376212
10	0xbdd8ca12	-0.10585417
11	0x3d994410	0.07483685
12	0xbfa63e4d	-1.2987763
13	0x3e0bd423	0.13655142
14	0x3e9f0726	0.3106014
15	0x3c8866c5	0.016650567
16	0xbda4aacc	-0.080403894
17	0xbed2f132	-0.41199642
18	0x3daa94c6	0.083291575
19	0xbe513ba0	-0.20432901
20	0xbea8945f	-0.32925698
21	0x3f052298	0.5200591
22	0x3feb0ed8	1.8363905
23	0x3c35a642	0.011087002
24	0xbea0d0cf	-0.31409308
25	0x3f959c50	1.1688328
26	0x3eb09a63	0.34492788
27	0x3d643bce	0.055721097
28	0x407f1ffe	3.9863276
29	0xbd75e956	-0.06003698
30	0xbfb582be	-1.4180524
31	0xc0b989e8	-5.7980843

bn1.running_var f4 [32]
0	0x3f148184	0.58010125
1	0x3f0bd439	0.546207
2	0x3f1ca1b3	0.61184233
3	0x3f237124	0.63844514
4	0x3f9d87ec	1.2307105
5	0x3e8dce41	0.27696422
6	0x3eb3dac0	0.3512783
7	0x3f29b8ce	0.66297615
8	0x3f159c08	0.5844121
9	0x3f09ed8f	0.5387811
10	0x3ed38896	0.41315144
11	0x3ebb4d5a	0.36582452
12	0x3f198ed4	0.59983563
13	0x3e1491f9	0.14508809
14	0x3ea52d9b	0.32261357
15	0x3f0a8280	0.5410538
16	0x3e7de2c1	0.24793531
17	0x3ed855ea	0.42253047
18	0x3e519104	0.20465475
19	0x3e593f2c	0.21215504
20	0x3dd3f0ed	0.10348687
21	0x3e569336	0.20954594
22	0x3f19c2ab	0.60062665
23	0x3ee803a5	0.4531528
24	0x3eb2ba8b	0.34907946
25	0x3f0b28d8	0.543592
26	0x3e9690b0	0.29407263
27	0x3dfc0ddb	0.1230733
28	0x40227c83	2.5388496
29	0x3e2f8377	0.17139994
30	0x3f468ef9	0.7756191
31	0x40dda667	6.926563

conv2.weight f4 [64, 32, 5, 5]
0	0xbe57356c	-0.21016473
1	0xbd62d42b	-0.05537812
2	0x3ca667c8	0.020313159
3	0xbda49f6f	-0.08038222
4	0x3e09d3ec	0.13459748
5	0xbe89472b	-0.2681211
6	0xbe893704	-0.26799786
7	0xbdb0e466	-0.086373135
8	0xbd8aa6fe	-0.067701325
9	0x3e38cb01	0.1804619
10	0xbea03309	-0.31288937
11	0xbeae7263	-0.34071645
12	0xbe402ffc	-0.18768305
13	0xbdad6dcd	-0.084682085
14	0x3e62ba5f	0.22141407
15	0xbe83e757	-0.25762436
16	0xbe62a873	-0.22134571
17	0xbe21769d	-0.15767904
18	0xbd9abbe8	-0.075553715
19	0x3e6effad	0.2333972
20	0xbe100e51	-0.14067961
21	0xbe10d106	-0.14142236
22	0xbdc2107c	-0.094758004
23	0xbde99fc4	-0.11407426
24	0x3d6819dd	0.05666529
25	0x3e0b89e4	0.1362682
26	0xbdcc11e6	-0.09964351
27	0xbe6447dd	-0.22293039
28	0xbe4989f3	-0.1968153
29	0xbd6ea426	-0.058262013
30	0x3e8b7cf6	0.27243775
31	0xbd4b2792	-0.049598284
32	0xbe560491	-0.2090018
33	0xbe2b0be2	-0.16703752
34	0xbd794245	-0.060854215
35	0x3e9fe77c	0.31231296
36	0xbd3ea06b	-0.046539705
37	0xbe8cb59c	-0.27482307
38	0xbe747b2f	-0.23875116
39	0xbe138415	-0.14405854
40	0x3e78102c	0.24224919
41	0xbd718ea9	-0.058973942
42	0xbe26c4a8	-0.16285956
43	0xbdf87d67	-0.121332936
44	0xbe112700	-0.14175034
45	0x3e36c579	0.17848767
46	0xbb12495e	-0.0022321562
47	0xbdc40684	-0.09571555
48	0xbdd93585	-0.10605911
49	0xbe9a4fb7	-0.30138943
50	0x3e2575ac	0.1615817
51	0x3d7bb26e	0.06144946
52	0xbe83b6a7	-0.2572529
53	0xbe6aeb08	-0.2294122
54	0x3ea28a3a	0.31746083
55	0x3ea387a8	0.31939435
56	0x3d9e0555	0.07715861
57	0xbeafa2d9	-0.3430393
58	0xbe841208	-0.25795007
59	0x3e920a28	0.28523374
60	0x3ec15e8f	0.37767455
61	0x3da42369	0.080145665
62	0xbedb6a31	-0.42854455
63	0xbe94d45f	-0.29068276
64	0x3e901bc0	0.28146172
65	0x3eb39748	0.35076356
66	0x3d9b9f05	0.0759869
67	0xbe4beeaf	-0.1991527
68	0xbdffa3d8	-0.124824226
69	0x3ea7482a	0.32672244
70	0x3e98c651	0.29838803
71	0x3e0dc923	0.13846259
72	0x3d67d01d	0.056594957
73	0x3e26fa1c	0.16306347
74	0x3ee71c70	0.45138884
75	0x3cb80eb5	0.02246795
76	0xba5231f4	-0.0008018308
77	0xbd43b4e7	-0.047779944
78	0xba10079d	-0.00054942985
79	0x3cdcf6ec	0.02697321
80	0xbcfd2c24	-0.030904837
81	0xbcd2519f	-0.025673686
82	0xbd0dbc9d	-0.034603704
83	0xbcc4987e	-0.023998495
84	0x3bca2e5b	0.006170077
85	0xbd5ac177	-0.05340716
86	0xbd8feab0	-0.07027185
87	0xbd82e9b3	-0.06392231
88	0xbd8e294c	-0.069414705
89	0xbbffa6ac	-0.0078018513
90	0x3ab67824	0.0013921303
91	0xbd8653a9	-0.06558926
92	0xbd8f75e0	-0.07004905
93	0xbd7e5133	-0.062089156
94	0xbd19ce31	-0.037550155
95	0x3c4ed5cd	0.012624216
96	0xbd6a9391	-0.057269637
97	0xbd198484	-0.037479892
98	0xbb3f0cdc	-0.0029151952
99	0xbc96cb4d	-0.018407488
100	0xbdb07db7	-0.08617728
101	0xbdf3dff5	-0.11907951
102	0xbd61002a	-0.054931797
103	0xbddd2507	-0.10798078
104	0xbcccb80b	-0.024990102
105	0xbd5c1460	-0.05373037
106	0xbdeb0449	-0.11475427
107	0xbd874d83	-0.06606581
108	0xbd5e0db5	-0.05421229
109	0xbd574c10	-0.052562773
110	0xbd466bf9	-0.048442814
111	0xbdebda87	-0.1151629
112	0xbd81bc2c	-0.06334719
113	0xbd6c8c9e	-0.05775129
114	0xbd4a750f	-0.049428042
115	0xbde02978	-0.109454095
116	0xbe052b53	-0.13004808
117	0xbddda49a	-0.10822411
118	0xbd55ef2a	-0.052230038
119	0xbd052b8e	-0.03251224
120	0xbdc4c01e	-0.09606956
121	0xbe048e2a	-0.12944856
122	0xbe01c1b3	-0.12671547
123	0xbda2eafc	-0.07954976
124	0xbdbab92a	-0.091173485
125	0x3e249160	0.16071081
126	0xbd268759	-0.04065642
127	0xbe453116	-0.19257006
128	0xbdd8b36e	-0.105810985
129	0x3e615565	0.22005232
130	0xbd16f783	-0.03685714
131	0xbe99088c	-0.29889333
132	0xbf0af659	-0.54282147
133	0xbe8a1743	-0.26970872
134	0x3e80f744	0.2518865
135	0xbe19f860	-0.15036154
136	0xbec24710	-0.3794484
137	0xbf4b7ed9	-0.7949043
138	0xbe90139a	-0.28139955
139	0x3e852de8	0.26011586
140	0xbdeb37c8	-0.11485249
141	0xbea4c379	-0.32180384
142	0xbf326e04	-0.6969912
143	0xbe8c244b	-0.2737144
144	0x3e31d4bd	0.1736631
145	0x3d7cbe51	0.061704937
146	0xbd140d01	-0.036145214
147	0xbeae2ffb	-0.3402098
148	0xbe0a13f9	-0.13484181
149	0x3c5565d7	0.013024769
150	0xbec26414	-0.3796698
151	0xbe9e1e91	-0.30882695
152	0xbe95553b	-0.29166588
153	0xbe8245c5	-0.25443855
154	0xbebf752a	-0.37394077
155	0xbdfb8460	-0.12281108
156	0xbe02599b	-0.12729494
157	0xbc909248	-0.017647877
158	0xbdb650cd	-0.0890213
159	0xbdbb8c2b	-0.09157594
160	0xbe822eb9	-0.25426272
161	0xbe6dcc06	-0.2322236
162	0xbe50ac98	-0.2037834
163	0xbdf6f48f	-0.120583646
164	0xbdb2e1ab	-0.08734449
165	0xbcbdff51	-0.023193033
166	0xbd73b329	-0.059497032
167	0xbc13c64c	-0.009019446
168	0xbc1df377	-0.009640566
169	0x3d824776	0.06361286
170	0xbcc237d5	-0.023708263
171	0x3c4fc1d8	0.012680493
172	0x3c1ddbca	0.009634921
173	0x3adc54c0	0.0016809925
174	0x3dbbe878	0.09175199
175	0x3d5678d3	0.05236132
176	0x3dd7e83a	0.105423406
177	0x3e288094	0.16455299
178	0x3e2ef5ee	0.17086002
179	0x3df9a559	0.12189741
180	0x3e3fa163	0.18713908
181	0x3e643b7d	0.22288318
182	0x3e67b08a	0.22625938
183	0x3e648032	0.22314528
184	0x3e1cf7ef	0.15328954
185	0x3e40e526	0.18837413
186	0x3e0db099	0.13836898
187	0x3e0deefc	0.13860697
188	0x3e5a241b	0.21302836
189	0x3e1f95dc	0.1558451
190	0x3e480d38	0.19536293
191	0x3e23a01b	0.15979044
192	0x3e3f0370	0.18653655
193	0x3e73815a	0.23779812
194	0x3e5724da	0.21010152
195	0x3e377c81	0.17918588
196	0x3e0e00c2	0.13867477
197	0x3e17aa4d	0.14811058
198	0x3e2bb241	0.16767217
199	0x3e234436	0.15943989
200	0xbcd1e814	-0.025623359
201	0xbcb6e8fd	-0.022327894
202	0xbda16200	-0.0788002
203	0xbda8af7f	-0.08236598
204	0x3af733a6	0.0018859997
205	0xbdac69e5	-0.08418635
206	0xbd8919e3	-0.066943906
207	0xbd6afec1	-0.05737186
208	0xbda1eb48	-0.079062045
209	0xbdbdf4cf	-0.09275209
210	0xbdb8d9ec	-0.0902594
211	0xbd84836c	-0.06470379
212	0xbda0bbe4	-0.07848337
213	0xbde25772	-0.11051835
214	0xbd54217d	-0.05178975
215	0xbd71584c	-0.058922097
216	0xbd6f20a8	-0.058380753
217	0xbdbf2e08	-0.09334952
218	0xbdd05e9a	-0.10174294
219	0xbd9cb44a	-0.07651575
220	0xbd320f8a	-0.04347185
221	0xbdc46113	-0.09588828
222	0xbdba5b68	-0.090994656
223	0xbcf3309c	-0.029686265
224	0xba410d51	-0.000736435
225	0xbd9c7f7f	-0.076415055
226	0xbc98bb9c	-0.018644147
227	0x3cd7cbc6	0.026342284
228	0xbdfdc038	-0.123901784
229	0xbdc43d7d	-0.095820405
230	0xbdbba9d5	-0.09163252
231	0xbdafdaa4	-0.08586624
232	0xbc8de375	-0.017320374
233	0xbd7a601f	-0.061126824
234	0x3d884fc6	0.066558406
235	0xbe2649e3	-0.16239123
236	0xbe106b62	-0.14103463
237	0xbe382bfc	-0.17985529
238	0xbde6e8cf	-0.112748735
239	0x3df02be5	0.11727122
240	0x3e097fa8	0.13427603
241	0x3d4f4b6a	0.05060903
242	0x3d0c06c1	0.03418613
243	0xbc386fb0	-0.011257097
244	0x3e818930	0.25299978
245	0x3e1cf707	0.15328608
246	0x3e5539af	0.20822786
247	0x3dfe3fa3	0.124144815
248	0x3d9c9523	0.07645633
249	0x3e77eefe	0.24212262
250	0xbcfbe97a	-0.030750979
251	0xbdfb61b0	-0.12274492
252	0xbdeeec04	-0.1166611
253	0xbdfffa71	-0.1249894
254	0xbe30e03d	-0.1727304
255	0x3d1499e2	0.036279567

conv2.bias f4 [64]
0	0xbbe07a80	-0.0068505406
1	0x3cb77d42	0.022398595
2	0xbce5f449	-0.028070586
3	0x3c01138e	0.007878197
4	0xbd3d287c	-0.046181187
5	0x3c6e2967	0.014536238
6	0x3d19cb49	0.037547383
7	0xbe02abb6	-0.12760815
8	0xbcc0313d	-0.023460979
9	0xbbe7aba4	-0.0070700217
10	0xbcd24c25	-0.025671074
11	0xba1b47ec	-0.0005923498
12	0xbcd8eabc	-0.026479118
13	0xbb77c645	-0.0037807387
14	0xbc932727	-0.017963005
15	0x3c316cef	0.010829194
16	0x3c3675c9	0.011136481
17	0xbbece872	-0.007229858
18	0x3ca38995	0.019963065
19	0xbde4b9b8	-0.111682355
20	0xbd95c80d	-0.07313547
21	0x3c6e1d21	0.014533312
22	0xbd22c775	-0.039741
23	0xbd7ec8cc	-0.062203214
24	0xbdce964f	-0.10087263
25	0x3d6d6384	0.057956234
26	0xbd0a20f4	-0.033722833
27	0xbcc80707	-0.024417413
28	0xbbab98a8	-0.005236704
29	0x3d418a6b	0.047251146
30	0xbdb69768	-0.08915597
31	0xbdcd1049	-0.10012872
32	0x3c743d86	0.014907246
33	0xbd0ef150	-0.034898102
34	0xbd131266	-0.035906218
35	0xbd58e1b0	-0.052949607
36	0xbb9e5ecd	-0.0048330785
37	0xbce4da3b	-0.027936092
38	0xbe7b4ced	-0.24541064
39	0x3cb775ae	0.022394981
40	0xbceaaec3	-0.028647786
41	0xbd8188a6	-0.06324892
42	0xbd4c47db	-0.049873214
43	0xbd985e54	-0.07439867
44	0xbd7e1a3e	-0.062036745
45	0xbd06775e	-0.03282868
46	0xbd13b1d4	-0.036058262
47	0xbdbc4c07	-0.091941886
48	0xbd0c8e59	-0.03431544
49	0xbb97fd71	-0.004638367
50	0xbd9d2b4c	-0.07674274
51	0xbcab15f6	-0.020884495
52	0xbd691cc7	-0.05691221
53	0xbe193f92	-0.14965656
54	0xbbe669b4	-0.0070316438
55	0xbd63d2d5	-0.055620987
56	0xbd8ccb0b	-0.06874665
57	0xbdec808b	-0.11547955
58	0x3caae924	0.020863123
59	0xbdf0aa41	-0.11751223
60	0xbd7841be	-0.06060957
61	0xbd75c8e9	-0.060006056
62	0xbd09a7b7	-0.03360721
63	0xbdf19ce5	-0.117975034

bn2.weight f4 [64]
0	0x3f52d9d4	0.8236363
1	0x3f55ed3d	0.8356512
2	0x3fbd9191	1.4810048
3	0x3f67c8d2	0.905408
4	0x3f22fbdf	0.63665575
5	0x3fc1a9a2	1.5129893
6	0x3f566d32	0.8376037
7	0x3fb9e2e4	1.4522367
8	0x3f48bbb0	0.7841139
9	0x3f190aac	0.5978191
10	0x3fc0c1b6	1.5059116
11	0x3f5aa33c	0.85405326
12	0x3f905728	1.1276598
13	0x3f813b81	1.0096284
14	0x3fbb4035	1.462897
15	0x3f9dcbed	1.2327858
16	0x3f908103	1.1289371
17	0x3f8e4517	1.1114835
18	0x3f26c799	0.6514831
19	0x3fdea0a7	1.7392777
20	0x3fd7ac0b	1.6849378
21	0x3fa93f14	1.3222375
22	0x3fa08090	1.2539234
23	0x3f9e615a	1.2373459
24	0x3fe727ec	1.8059058
25	0x3fa83738	1.3141851
26	0x3f500199	0.8125244
27	0x3f9ad589	1.2096416
28	0x3fb7d70e	1.4362504
29	0x3f47f87d	0.7811354
30	0x3fc5889d	1.5432316
31	0x3fd629d4	1.6731515
32	0x3f92c016	1.146487
33	0x3f17530a	0.5911108
34	0x3f9427e9	1.157468
35	0x3f99fdac	1.203054
36	0x3fa84bcb	1.314813
37	0x3f9832b2	1.1890471
38	0x3ff46e5c	1.9096179
39	0x3f8e2dda	1.1107743
40	0x3fa537d0	1.2907658
41	0x3fba3048	1.4545984
42	0x3fa0ed70	1.257246
43	0x3fbba738	1.4660406
44	0x3fb35dde	1.4013021
45	0x3f504054	0.81348157
46	0x3f8a0589	1.0782939
47	0x3f40a1a4	0.75246644
48	0x3fb0e5e3	1.3820156
49	0x3f863f5c	1.0488086
50	0x3f9678bd	1.1755596
51	0x3f4ef514	0.8084271
52	0x3f8d323f	1.1030959
53	0x3fc6878f	1.5510119
54	0x3f4c2b82	0.7975389
55	0x3f9b579c	1.2136111
56	0x3fd30229	1.6485034
57	0x3fd58650	1.6681614
58	0x3f1a6e6f	0.6032476
59	0x3fc6f2fa	1.55429
60	0x3fb0fa44	1.3826375
61	0x3fa9e9cb	1.3274473
62	0x3f2c0b64	0.6720488
63	0x3fe0e8ae	1.7571008

bn2.bias f4 [64]
0	0xbec22f0e	-0.37926525
1	0xbdf22dc3	-0.118251346
2	0xbf82f9cd	-1.0232483
3	0xbd1d7725	-0.038443703
4	0xbed68f6d	-0.419063
5	0xbe989470	-0.2980075
6	0x3c87c4f0	0.0165734
7	0xbf48b001	-0.7839356
8	0xbd5bc8d5	-0.053658325
9	0xbe0dffed	-0.13867159
10	0xbf29b85e	-0.66296947
11	0xbda1fc3d	-0.07909439
12	0xbd7dda14	-0.061975554
13	0xbe8fc232	-0.28077847
14	0xbf11c2c2	-0.569378
15	0xbf544cbd	-0.82929593
16	0xbedb1e5a	-0.42796594
17	0xbef98778	-0.48736167
18	0xbd869902	-0.06572153
19	0xbf8be4d5	-1.0929209
20	0xbf643c68	-0.8915467
21	0xbf359680	-0.7093277
22	0xbf1fee8b	-0.6247336
23	0xbe54e721	-0.20791294
24	0xbf286606	-0.65780675
25	0xbf0577ca	-0.5213591
26	0x3dab3af9	0.083608575
27	0xbee33702	-0.44377905
28	0xbf87299f	-1.0559577
29	0xbe5766ae	-0.21035263
30	0xbf74a78c	-0.95568156
31	0xbf564e91	-0.8371363
32	0xbdf2d4de	-0.118570074
33	0xbd86b901	-0.065782554
34	0xbf23b47d	-0.6394728
35	0xbf1b3076	-0.6062082
36	0xbefb9bf9	-0.49142435
37	0xbf7b4a41	-0.9816018
38	0xbf977ed8	-1.1835585
39	0xbf076ec4	-0.5290339
40	0xbf0bb324	-0.5457022
41	0xbf82c052	-1.0214942
42	0xbed95bfb	-0.42452988
43	0xbf8767fd	-1.057861
44	0xbf66d53b	-0.90169114
45	0xbdb089c6	-0.08620028
46	0xbecccd8a	-0.40000564
47	0xbdb1b2ac	-0.08676657
48	0xbf7ed907	-0.9954991
49	0xbe998eb2	-0.2999168
50	0xbf006b7f	-0.50164026
51	0xbd4b4412	-0.049625464
52	0xbf1dc74c	-0.6163223
53	0xbf688d59	-0.9084068
54	0xbd2a5d64	-0.04159297
55	0xbed21acd	-0.41036072
56	0xbea91fd4	-0.33032095
57	0xbf640748	-0.8907361
58	0xbe65522c	-0.22394627
59	0xbf253507	-0.6453404
60	0xbf637ec5	-0.8886531
61	0xbf6d6181	-0.92726904
62	0xbd806b5d	-0.06270478
63	0xbf8cc051	-1.099619

bn2.running_mean f4 [64]
0	0xc03decd8	-2.9675808
1	0xbff052e8	-1.8775301
2	0xc0099408	-2.14966
3	0xc0b6b1fc	-5.7092266
4	0xc09e4fe6	-4.947253
5	0xbf710478	-0.94147444
6	0xc056b3dd	-3.354728
7	0xc023c455	-2.5588582
8	0xc0c47219	-6.138928
9	0xc0c03f7d	-6.00775
10	0xc0202d91	-2.5027812
11	0xc086aec7	-4.208835
12	0x3f8ae93b	1.0852426
13	0xc06c0e8f	-3.6883886
14	0xbec36f3f	-0.38170812
15	0x4015763f	2.3353422
16	0xc054b929	-3.3238013
17	0x3e95f8ee	0.2929148
18	0xc0e26b93	-7.0756316
19	0xc01470b9	-2.31938
20	0xc01dd46c	-2.4660902
21	0x3fb3dfc0	1.4052658
22	0xc006621d	-2.0997384
23	0xbf235d65	-0.63814384
24	0xbfd05c55	-1.6278177
25	0xbeed6636	-0.46367043
26	0xc085c63a	-4.1804476
27	0x3da14e18	0.07876223
28	0xc00343da	-2.0510163
29	0xbf9d00a4	-1.226582
30	0xc011ea07	-2.279909
31	0xc02351c9	-2.5518668
32	0xbf9d044b	-1.2266935
33	0xc1071b8e	-8.444227
34	0x3fc60bd2	1.5472357
35	0xc0438afa	-3.0553575
36	0xc02697f3	-2.6030242
37	0xbd6855ba	-0.05672238
38	0xc01b657b	-2.4280689
39	0xc03dac37	-2.9636362
40	0xbfe59d8c	-1.7938704
41	0xc04396e9	-3.0560858
42	0x3e5e74ea	0.21724287
43	0xc040895e	-3.0083842
44	0xc00fa485	-2.2444165
45	0xc0abfb6a	-5.37444
46	0xbffebb6d	-1.9900948
47	0xbff5bd8b	-1.9198469
48	0xc040927c	-3.0089407
49	0x3e0ec103	0.13940816
50	0xc00b8f4c	-2.1806211
51	0xc123e21f	-10.242705
52	0xbf99115c	-1.1958423
53	0xc032c00e	-2.792972
54	0xc0d698f6	-6.706172
55	0xc07dcf88	-3.9657917
56	0xbf37d8e7	-0.7181534
57	0xc0472ec5	-3.1122296
58	0xc0f1bfab	-7.554647
59	0xbf8f4d22	-1.1195414
60	0xc0664b11	-3.5983317
61	0x3edcf426	0.4315502
62	0xc0dddcf0	-6.93322
63	0xc009c7f2	-2.1528287

bn2.running_var f4 [64]
0	0x42843b0d	66.11533
1	0x424d9117	51.39169
2	0x42195ebd	38.342518
3	0x42b2337a	89.10054
4	0x42948ccc	74.274994
5	0x4201da94	32.463455
6	0x42ba8a73	93.27041
7	0x41fde3ec	31.73629
8	0x42bd7604	94.7305
9	0x429c83da	78.25752
10	0x422bd52c	42.958176
11	0x42a8749c	84.22775
12	0x42231dda	40.779152
13	0x42934636	73.63713
14	0x41c40830	24.503998
15	0x425b150f	54.770565
16	0x42a62d56	83.08855
17	0x4205c43d	33.44164
18	0x431bb545	155.70808
19	0x41fe8da9	31.81917
20	0x41fc6cb6	31.553082
21	0x41fd20bc	31.640984
22	0x421203ff	36.503902
23	0x42913989	72.61237
24	0x422bcd61	42.950565
25	0x42081a78	34.02585
26	0x42a152ac	80.66147
27	0x41973ce5	18.904734
28	0x4208dc0a	34.21488
29	0x42b6a908	91.33014
30	0x42076a92	33.854073
31	0x4200094e	32.009087
32	0x41d07cd6	26.060955
33	0x433985f2	185.52322
34	0x41ba9a63	23.325384
35	0x4245d8fb	49.461895
36	0x428417cb	66.04647
37	0x4207b5d1	33.927555
38	0x41d346f6	26.409649
39	0x426a7f70	58.62445
40	0x42546c06	53.10549
41	0x420e1391	35.519108
42	0x41916d46	18.178356
43	0x422106f2	40.256783
44	0x41d84ff5	27.039042
45	0x42b2bb93	89.366356
46	0x419ae571	19.362032
47	0x42782699	62.037693
48	0x421b3fb6	38.812218
49	0x42372046	45.781517
50	0x4243eaea	48.97941
51	0x434a7472	202.45486
52	0x418e3b59	17.778978
53	0x4221ef88	40.483917
54	0x42ed6170	118.69031
55	0x42c91e42	100.5591
56	0x420e3709	35.553745
57	0x4228db57	42.2142
58	0x434fb3ea	207.70279
59	0x41e07293	28.055944
60	0x422e2fb1	43.546574
61	0x420dd801	35.46094
62	0x43066326	134.3873
63	0x41aba5ad	21.455896

fc1.weight f4 [128, 64]
0	0xbe6aa818	-0.22915685
1	0x3d724ae3	0.05915345
2	0x3e7cbbf7	0.24681078
3	0x3ec47157	0.3836772
4	0xbd9e244b	-0.07721766
5	0xbd9e16ac	-0.07719168
6	0xbb1b3ca7	-0.0023687275
7	0x3f0a2590	0.53963566
8	0x3e6f0add	0.23343988
9	0x3b53e6e5	0.0032333669
10	0x3e0ec745	0.13943203
11	0x3e0d4685	0.13796432
12	0xbd2ed618	-0.042684644
13	0xbeb4b737	-0.35296032
14	0xbe3b4a88	-0.1829015
15	0x3d03f371	0.032214586
16	0xbc0eff3a	-0.008727843
17	0x3da15082	0.07876684
18	0xbb86e918	-0.0041171424
19	0xbeee6f07	-0.46569082
20	0xbf7ebbf5	-0.9950555
21	0x3c83438d	0.016023422
22	0xbee02f52	-0.43786103
23	0xbddca932	-0.10774459
24	0xbe7373b4	-0.23774606
25	0xbec6d0a0	-0.38831043
26	0x3d85ba54	0.0652968
27	0x3d9c79eb	0.076404415
28	0x3eaae0eb	0.33374724
29	0x3dd759ab	0.1051515
30	0x3e1de790	0.15420365
31	0x3ec2d7d0	0.38055277
32	0xbd9bd43a	-0.076088384
33	0x3d32aab3	0.043619823
34	0x3ed8e176	0.42359513
35	0xbea62c7d	-0.32455817
36	0xbb1e7854	-0.0024180608
37	0x3ebc5561	0.3678389
38	0xbeb25672	-0.34831578
39	0x3b40e0c1	0.0029430839
40	0x3d4c3df5	0.049863774
41	0x3e96963e	0.294115
42	0xbe3a2ec5	-0.18181904
43	0x3e7732e9	0.24140514
44	0x3e65d516	0.22444567
45	0x3e1dd284	0.15412337
46	0xbd11a18e	-0.03555446
47	0x3d91ac8e	0.0711299
48	0x3dceae1a	0.10091801
49	0x3ebda476	0.37039536
50	0x3dd40416	0.10352342
51	0x3e134aea	0.14384046
52	0x3e9a183c	0.30096614
53	0x3e469182	0.19391444
54	0x3e9a4457	0.30130264
55	0x3d94e125	0.072695054
56	0xbe36ffeb	-0.17871062
57	0x3efc5752	0.4928537
58	0x3de4cf51	0.11172355
59	0xbef4034a	-0.4765876
60	0x3e99821b	0.29982075
61	0x3e0a372c	0.13497609
62	0x3e02a6f6	0.12759003
63	0xbd07acaa	-0.03312365
64	0xbdf5cdb4	-0.120021254
65	0x3dd4af05	0.10384945
66	0xbdbfd068	-0.09365922
67	0x3d2457ff	0.040122982
68	0x3d16d143	0.03682066
69	0xbc8406d2	-0.016116533
70	0xbdf79074	-0.12088099
71	0xba210975	-0.0006143072
72	0x3d86f40b	0.06589516
73	0xbe0ffe7d	-0.14061923
74	0xbca8e6a2	-0.020617787
75	0xbd17500f	-0.036941584
76	0x3db3c45d	0.08777688
77	0x3d14c368	0.036319166
78	0xbdf6cdc0	-0.120509624
79	0xbd18f7b9	-0.03734562
80	0xbdf00bea	-0.117210224
81	0xbd5ae605	-0.05344202
82	0xbdbec8a4	-0.09315613
83	0xbd153e96	-0.03643664
84	0xbd7e0846	-0.06201961
85	0xbe03a3f1	-0.12855507
86	0xbd0b4919	-0.03400526
87	0x3d433805	0.047660846
88	0xbe124c59	-0.14286937
89	0xbd60a014	-0.054840162
90	0x3d1818bd	0.037132967
91	0xbdfdc502	-0.12391092
92	0xbb6cf5d7	-0.0036157274
93	0xbd7a8dc0	-0.06117034
94	0x3d1683ac	0.036746666
95	0x3d81d1dd	0.06338856
96	0xbd47472f	-0.04865187
97	0xbc2845d2	-0.010270553
98	0x3cc2f4c7	0.02379836
99	0x3ce2ab11	0.027669461
100	0x3d71402b	0.058899086
101	0xbe02b692	-0.12764958
102	0x3d6642a9	0.056215916
103	0xbdc43147	-0.095797114
104	0x3c89584a	0.016765732
105	0x3cbb3629	0.022852974
106	0x3c0930b7	0.008373431
107	0x3dbbb81e	0.09165977
108	0x3cd8e470	0.026476115
109	0xbd7e298c	-0.06205134
110	0xbdd12476	-0.102120325
111	0xbdc7b71e	-0.09751724
112	0xbdf86cdc	-0.12130138
113	0xbc800240	-0.015626073
114	0xbd20bc9c	-0.039242372
115	0xbe0e91eb	-0.13922851
116	0xbc9bd445	-0.019022116
117	0xbd99a071	-0.07501305
118	0xbde39d3a	-0.11113973
119	0xbe0b32e3	-0.1359363
120	0x3daa41f8	0.08313364
121	0x3d938492	0.0720302
122	0xbd881adc	-0.06645748
123	0xbdf79ea3	-0.120908044
124	0xbddcdeed	-0.10784707
125	0xbd7deee0	-0.061995387
126	0xbdebbe21	-0.115108736
127	0x3db6079d	0.08888171
128	0xbd619b34	-0.055079654
129	0xbd1d5974	-0.038415387
130	0xbe119b18	-0.1421932
131	0x3d06e18d	0.032929946
132	0x3dd4ea89	0.103962965
133	0xbda039d8	-0.07823533
134	0xbe0fa1f1	-0.1402662
135	0x3c8259d9	0.015911983
136	0xbda57c37	-0.08080333
137	0xbd5695c3	-0.052388918
138	0x3dbbccfb	0.09169956
139	0xbdbe682e	-0.092972144
140	0xbe03b114	-0.12860519
141	0xbd7aeacb	-0.061259072
142	0x3ddb59ca	0.10710485
143	0x3ca30bc1	0.019903066
144	0x3d814f6c	0.06313977
145	0xbd4c042d	-0.04980867
146	0x3c012bf0	0.007884011
147	0x3d806c58	0.06270665
148	0xbdf5259f	-0.11970066
149	0x3d695ae1	0.056971435
150	0xbde53afc	-0.11192891
151	0x3dde5e29	0.108578034
152	0x3d859224	0.06522015
153	0xbc6bc27f	-0.014389633
154	0x3bae4f4b	0.005319511
155	0xbdb9dac3	-0.090749286
156	0xbd80f3b5	-0.062964834
157	0x3dbc31fa	0.0918922
158	0xbd7c7ffa	-0.061645485
159	0xbca63979	-0.020291077
160	0xbd91e7f6	-0.07124321
161	0xbaa9ca13	-0.00129539
162	0x3d424ca3	0.047436368
163	0x3d74e0df	0.059784766
164	0x3c58ee1e	0.013240365
165	0xbc9446f3	-0.018100237
166	0xbd54ee76	-0.051985227
167	0xbe083670	-0.13302016
168	0xbdfcc06c	-0.12341389
169	0x3c8ccc3d	0.017187232
170	0xbdbf9b6c	-0.09355816
171	0x3bb5ca0a	0.0055477666
172	0x3d01678e	0.031592898
173	0x3d63b4ac	0.055592224
174	0xbdeb5a64	-0.1149185
175	0x3dcd522a	0.10025437
176	0x3da43991	0.080187924
177	0x3d69415b	0.056947093
178	0x3d0dc757	0.034613933
179	0xbc9a3ff7	-0.018829329
180	0xbdd25b7b	-0.10271355
181	0xbdb51fd7	-0.088439636
182	0x3c2f13a3	0.010685834
183	0xbdb530eb	-0.08847221
184	0x3c84bc58	0.01620309
185	0xbb309999	-0.002694702
186	0x3d244712	0.04010684
187	0x3d24880a	0.0401688
188	0x3ca5320c	0.020165466
189	0xbdfc5be6	-0.12322216
190	0xbde4ca7c	-0.11171433
191	0xbcde6a00	-0.027150154
192	0xbcff7edc	-0.031188421
193	0x3ba4ba87	0.0050271186
194	0x3d6f7a24	0.05846609
195	0xbdcb9525	-0.099405564
196	0x3cc2912c	0.023750864
197	0x3bdccfd3	0.0067386418
198	0xbd9bc301	-0.076055534
199	0xbc95e25a	-0.01829641
200	0xbaf7d1e9	-0.0018907163
201	0xbc09b5d8	-0.008405171
202	0xbe0d09e1	-0.137733
203	0x3cc1a258	0.023636982
204	0x3c601c59	0.013678634
205	0x3d957d85	0.072993316
206	0x3d5d42aa	0.054018654
207	0x3c26f682	0.010190608
208	0xbd31866c	-0.043341085
209	0x3d5ea3d6	0.054355465
210	0xbe06670a	-0.13125244
211	0xbdaa028e	-0.083012685
212	0xbe038f2a	-0.12847582
213	0xbcdfd5b5	-0.027323583
214	0xbdab6aff	-0.08370017
215	0x3d17f778	0.03710124
216	0xbe047feb	-0.12939422
217	0x3d4fb43a	0.050708987
218	0xbd6ef1c5	-0.05833604
219	0x3da6d78e	0.081465825
220	0xbadfdfa9	-0.0017080206
221	0x3d5bed99	0.053693388
222	0xbd63cf2a	-0.05561749
223	0xbe0ceeb8	-0.13762939
224	0xbc148b2a	-0.009066382
225	0x3d464abb	0.048411112
226	0xbde5ef51	-0.112272866
227	0xbdba8758	-0.09107846
228	0xb99923d3	-0.00029209125
229	0xbd0c8e73	-0.034315538
230	0xbded4f7e	-0.115874276
231	0xbc71d20c	-0.014759552
232	0xbdb554ef	-0.088540904
233	0xbd682fd6	-0.056686245
234	0xbd057c8e	-0.032589488
235	0x3d8afd28	0.06786567
236	0x3dc23b77	0.09483998
237	0xbdf01217	-0.117222
238	0x3d2a0e68	0.041517645
239	0xbd043a6b	-0.032282274
240	0xbdc320bc	-0.09527728
241	0xbdf34e54	-0.11880174
242	0xbd958070	-0.07299888
243	0x3c7a8f87	0.015293009
244	0xbc266f29	-0.010158339
245	0xbd81fe09	-0.063472815
246	0xbd7dd359	-0.061969135
247	0x3d074dcd	0.03303318
248	0xbe0b3bfe	-0.13597104
249	0xbe007469	-0.12544407
250	0x3e038616	0.12844118
251	0x3d5f9feb	0.05459587
252	0x3d803ba9	0.06261379
253	0xbd8d3b1c	-0.0689604
254	0xbdc93f8d	-0.098265745
255	0xbd72d689	-0.059286628

fc1.bias f4 [128]
0	0xbe52bf00	-0.20580673
1	0xbd5c2337	-0.05374452
2	0xbdc493b1	-0.095984824
3	0xbd98592d	-0.07438884
4	0x3d8305e3	0.06397607
5	0x3e2e94f6	0.17049012
6	0xbd585089	-0.05281118
7	0xbd7177b4	-0.05895205
8	0xbc028153	-0.007965404
9	0x3d31dd29	0.043423805
10	0xbe1937cd	-0.14962693
11	0x3ccdeb16	0.025136512
12	0xbe6cbf08	-0.23119748
13	0xbc5f77b2	-0.013639377
14	0x3d7772a8	0.06041208
15	0x3e0b1fe0	0.13586378
16	0x3db89338	0.09012455
17	0x3a8c318c	0.0010695918
18	0xbe2af3ef	-0.16694616
19	0x3dce69ff	0.10078811
20	0xbd529dab	-0.051419895
21	0x3e31d15a	0.17365018
22	0x3d65d6e9	0.056113157
23	0xbd7ac5fe	-0.061223976
24	0x3e3dfeaa	0.18554178
25	0x3cdb1799	0.02674465
26	0x3e305351	0.17219283
27	0xbe00a132	-0.12561491
28	0xbd882c12	-0.06649031
29	0x3d1897a7	0.037254002
30	0x3e98fd64	0.29880822
31	0xbd850de7	-0.06496792
32	0x3c6b119a	0.014347458
33	0xbc4dd90a	-0.012563953
34	0xbe24e16e	-0.1610162
35	0x3e659b02	0.22422412
36	0xbbbaf970	-0.005706005
37	0xbe02a315	-0.12757523
38	0x3df21511	0.11820424
39	0xbe0f3fda	-0.13989201
40	0x3d96ed87	0.073695235
41	0x3db67b56	0.08910243
42	0xbe7cdaa1	-0.24692775
43	0x3e84a40d	0.2590641
44	0xbbe5b7e3	-0.0070104464
45	0x3e3ccf35	0.18438418
46	0xbe08e0a0	-0.13366938
47	0xbdcf0d14	-0.10109916
48	0x3e531d8e	0.20616743
49	0x3d3a2e33	0.045454215
50	0xbe3c7c72	-0.18406847
51	0xbe421741	-0.18954183
52	0xbd68ae16	-0.056806646
53	0x3b172cf0	0.0023067556
54	0xbd84c59f	-0.06483006
55	0xbc2f39a5	-0.010694896
56	0xbd939018	-0.07205218
57	0xbb10b964	-0.0022083158
58	0x3cbe5f72	0.023238871
59	0xbcb3245f	-0.021867929
60	0x3dbf9520	0.09354615
61	0x3e5a05c5	0.21291263
62	0x3d1080be	0.035279028
63	0xbd766268	-0.06015244
64	0xbe09b96d	-0.1344964
65	0xbbdf5204	-0.006815197
66	0xbcc2ce23	-0.023779934
67	0x3d7603f4	0.060062364
68	0x3e2a1b1d	0.16611905
69	0xbde2bc2b	-0.110710464
70	0x3e325943	0.17416863
71	0x3e51664c	0.2044918
72	0xbd96b7de	-0.07359289
73	0xbcdbfe83	-0.02685476
74	0x3d207b82	0.039180286
75	0x3e53dfad	0.20690794
76	0x3dc27e4e	0.09496747
77	0x3c8051cb	0.015664002
78	0xbc2ddd6d	-0.010611874
79	0x3e997ea7	0.2997944
80	0x3e30ba66	0.17258605
81	0xbdad044b	-0.084480844
82	0xbd893ed0	-0.06701434
83	0xbe1478df	-0.14499234
84	0xbdb3d8a5	-0.08781556
85	0x3d126b18	0.035746664
86	0xbd32a21d	-0.043611635
87	0x3e1b966a	0.15194097
88	0x3e330cc4	0.17485338
89	0xbdbbc838	-0.09169048
90	0x3e0c335e	0.1369147
91	0xbe1c6fdf	-0.1527705
92	0x3cb72e63	0.022360986
93	0xbdf7276f	-0.12068068
94	0xbe0ac266	-0.1355072
95	0xbd24db60	-0.040248275
96	0xbdb9be87	-0.09069543
97	0x3d8e394d	0.06944523
98	0xbd9f908d	-0.07791243
99	0x3e5fe985	0.21866424
100	0xbdb742f4	-0.08948317
101	0xbe1008b1	-0.14065816
102	0xbe19bda6	-0.15013751
103	0x3e864888	0.26227212
104	0x3dbe9713	0.09306159
105	0xbd2f8ece	-0.0428608
106	0xbd3a4e6a	-0.045484938
107	0x3d084422	0.0332681
108	0xbe176dca	-0.14787975
109	0xbe229ca1	-0.15880062
110	0xbd7c89f3	-0.061654996
111	0xbe55a8ac	-0.20865124
112	0xbe74911e	-0.23883483
113	0x3e58030b	0.21094911
114	0xbda7ce0d	-0.08193598
115	0x3db2ff84	0.08740142
116	0xbde26296	-0.1105396
117	0xbe0cd440	-0.13752842
118	0x3dc464d8	0.09589547
119	0xbe11b2f4	-0.14228421
120	0x3d0005ba	0.03125546
121	0xbdcda713	-0.100416325
122	0xbd72538e	-0.059161715
123	0x3dc1efb3	0.09469547
124	0xbdd70348	-0.10498673
125	0xbd2b3514	-0.041798666
126	0xbe2128ae	-0.15738174
127	0x3a4345c9	0.00074490585

fc2.weight f4 [53, 128]
0	0x3dd04d41	0.10170985
1	0xbd3405be	-0.04395079
2	0xbe19cc63	-0.15019374
3	0xbdf763c7	-0.12079578
4	0xbebe1c51	-0.3713098
5	0x3e2416e3	0.16024356
6	0xbf1b981a	-0.60778964
7	0xbf2c5bba	-0.67327464
8	0xbe657da8	-0.22411215
9	0xbe66dd84	-0.22545439
10	0xbc0caddc	-0.008586373
11	0xbff290a7	-1.8950394
12	0xbf3751f6	-0.7160944
13	0x3e900a01	0.28132632
14	0xbe14dc7b	-0.14537232
15	0x3dd6d9b4	0.10490742
16	0xbfa902cb	-1.3203977
17	0x3c984488	0.018587366
18	0xbf08a6ba	-0.53379405
19	0xbfc24fab	-1.5180563
20	0xbda1c7a7	-0.07899409
21	0x3e5a2418	0.21302831
22	0xbd941e6d	-0.07232366
23	0xbd24ad76	-0.040204488
24	0x3c7644e4	0.015031073
25	0x3dcc23d2	0.0996777
26	0xbe39e1f7	-0.18152605
27	0xbd695b18	-0.05697164
28	0xbcd8bcb2	-0.026457164
29	0xbd83feb0	-0.06445062
30	0x3ea05a57	0.31318924
31	0x3c96ceb4	0.01840911
32	0xbe48fc6b	-0.1962754
33	0x3e07b698	0.13253248
34	0xbc9f854b	-0.019472739
35	0xbd9a667a	-0.07539077
36	0x3e796698	0.24355543
37	0x3c2707ad	0.010194701
38	0x3e57692e	0.21036217
39	0x3bc50176	0.006012137
40	0xbfbfefbc	-1.4995036
41	0xbf1a6115	-0.60304385
42	0xbf4f8248	-0.8105817
43	0xbf004dd8	-0.5011878
44	0xbd94c2c8	-0.07263714
45	0x3e200904	0.15628439
46	0xbb499d4a	-0.0030763918
47	0xbde4293d	-0.11140678
48	0x3e4389dc	0.19095558
49	0xbf5281fa	-0.8222958
50	0xbf67cdbd	-0.90548307
51	0xbc0e0fd6	-0.008670768
52	0x3d64f02f	0.05589312
53	0xbfdcc641	-1.7248002
54	0x3ebb599d	0.36591807
55	0x3e33986f	0.17538618
56	0x3a7efea9	0.00097272784
57	0xbe5e8f1b	-0.21734278
58	0x3cd6c1a8	0.02621539
59	0x3e1f7311	0.15571238
60	0xbfb2ca65	-1.3968016
61	0xbfd067ef	-1.6281718
62	0xbdb75b81	-0.08953
63	0xbdfd2268	-0.12360078
64	0xbd5953e1	-0.05305851
65	0xbe8d0124	-0.27539933
66	0x3cef7885	0.029232273
67	0xbf6e31f3	-0.93044966
68	0xbfda0cb5	-1.7035128
69	0xbe0c4ca8	-0.13701117
70	0xbfc6b644	-1.5524373
71	0x3e6b2c4f	0.22966121
72	0xbfb22763	-1.391827
73	0xbef8d138	-0.4859712
74	0xbc30b038	-0.010784201
75	0x3e03b92a	0.12863603
76	0xbfda6e6e	-1.706495
77	0xbd581ed0	-0.05276376
78	0xbec58366	-0.38576812
79	0xbcbced44	-0.023062356
80	0x3e3ccdd8	0.18437898
81	0xbd0fe4f8	-0.03513047
82	0x3d8bbffe	0.06823729
83	0xbeb5d4e0	-0.35513973
84	0x3e9ac5c3	0.30229005
85	0xbfb5d640	-1.4206009
86	0x3c88903c	0.016670339
87	0x3e8851f0	0.26625013
88	0xbe921eee	-0.28539222
89	0xbc93fff9	-0.018066393
90	0xbf8b61f1	-1.0889264
91	0x3d64f7a9	0.05590025
92	0xc000b255	-2.0108845
93	0xbe104fa3	-0.14092879
94	0xbf3b6bb3	-0.7321121
95	0xbbf80385	-0.007568779
96	0xbc809be6	-0.015699338
97	0xbc98ee9f	-0.01866847
98	0xbd04abb4	-0.03239031
99	0x3e4c1d89	0.19933142
100	0xbd8e480e	-0.06947337
101	0xbd775d64	-0.0603918
102	0x3c5e3577	0.013562552
103	0xbe75759e	-0.23970649
104	0xbf19b9f2	-0.60049355
105	0xbeafa88b	-0.34308276
106	0x3d1917fb	0.037376385
107	0xbf9128b0	-1.1340542
108	0xbfc8b310	-1.5679646
109	0xbd68055b	-0.056645732
110	0xbfcf6aac	-1.6204429
111	0xbf1ab20d	-0.60427934
112	0xbf43dd64	-0.7650969
113	0xbd0755b6	-0.033040725
114	0xbc6e32bb	-0.014538462
115	0xbfa626a1	-1.2980539
116	0xbd8dafb8	-0.06918281
117	0xbdb60243	-0.0888715
118	0xbfac2737	-1.3449467
119	0xbf6c4112	-0.9228679
120	0x3dec870c	0.11549196
121	0xbe2b1450	-0.16706967
122	0xbfc9e229	-1.5772144
123	0x3ea542fe	0.32277673
124	0xbf3921f7	-0.7231745
125	0xbdb28a51	-0.08717788
126	0xbe0f6781	-0.14004327
127	0xbec9f900	-0.39447784
128	0xbe4ee626	-0.20204982
129	0xbd8b2316	-0.067938015
130	0xbb4af897	-0.0030970925
131	0xbde5a68e	-0.112134084
132	0xbfacfcbe	-1.3514631
133	0x3d30a78a	0.043128528
134	0xbe13ca55	-0.14432652
135	0xbf5828dd	-0.8443735
136	0xbe5add08	-0.21373379
137	0xbdb9ee49	-0.090786524
138	0xbded4054	-0.11584535
139	0xc00aa391	-2.1662333
140	0xbe9d6a1b	-0.30745015
141	0x3e871ea4	0.26390564
142	0xbdf554e0	-0.11979079
143	0x3e02bb7b	0.1276683
144	0x3de02c11	0.10945905
145	0x3d18348e	0.037159495
146	0xbf8075a5	-1.0035902
147	0xbd902af8	-0.07039446
148	0xbdd3246d	-0.10309682
149	0x3e0dc8aa	0.13846079
150	0xbe2b1dec	-0.16710633
151	0xbd31437e	-0.043277256
152	0xbf7f617c	-0.99758124
153	0xbf564da9	-0.8371225
154	0x3e06111d	0.13092466
155	0xbd3fb7ba	-0.046806075
156	0xbf587f49	-0.8456922
157	0xbe0a1a20	-0.13486528
158	0x3da47af6	0.080312654
159	0xbd84f42b	-0.06491884
160	0xbf8ed756	-1.1159465
161	0x3e94fae9	0.2909768
162	0x3d6465a3	0.05576099
163	0x3e6ffde5	0.23436697
164	0xbe35944a	-0.17732349
165	0xbdf6be34	-0.12047997
166	0x3dcac0c9	0.09900052
167	0xbdeac6b1	-0.11463679
168	0x3c228825	0.009920155
169	0x3cb26e7d	0.0217812
170	0xbf4dc074	-0.80371785
171	0xbe4f6cdb	-0.20256369
172	0xbd4d5ba8	-0.05013624
173	0x3d6cd9c8	0.05782488
174	0xbe43f9d2	-0.19138268
175	0xbd9c77cd	-0.07640038
176	0x3e3c962a	0.18416658
177	0xbefdc4c3	-0.4956418
178	0xbfad6c19	-1.3548614
179	0xbda4fbe9	-0.080558605
180	0x3cce04ff	0.025148867
181	0x3c90115c	0.017586403
182	0x3e544753	0.20730333
183	0xbe43b629	-0.19112457
184	0x3c42b766	0.011884546
185	0xbdb1aacd	-0.08675156
186	0x3e1ac8ad	0.15115614
187	0xbe5fa52a	-0.21840349
188	0xbd642b7c	-0.055705532
189	0xbcf5b8e2	-0.029995386
190	0xbd8192dd	-0.0632684
191	0x3b9d5fe6	0.0048026918
192	0xbe0df94f	-0.13864635
193	0xbff75f1e	-1.9325902
194	0xbda26d01	-0.07930947
195	0xbf15d40a	-0.5852667
196	0xbe0019a9	-0.12509789
197	0xbdb2dd8f	-0.08733665
198	0xbde73ce6	-0.11290912
199	0x3cd4e77a	0.025989283
200	0x3dee27c5	0.11628679
201	0x3c15aec4	0.009135906
202	0xbdb06ae3	-0.08614137
203	0x3dadc2eb	0.08484443
204	0xbe90be81	-0.28270343
205	0x3c9cb99b	0.019131472
206	0xbe88ea0e	-0.2674107
207	0x3d3a3271	0.04545826
208	0x3e92f21e	0.28700346
209	0x3d015297	0.031572904
210	0x3d85e912	0.06538595
211	0x3d881d6c	0.06646237
212	0xbf5ad3c1	-0.8547936
213	0xbe88b91f	-0.26703736
214	0xbc2c17a4	-0.010503683
215	0xbd617d4a	-0.055051126
216	0xbe7f4129	-0.249272
217	0xbfa8c967	-1.3186463
218	0xbeccc3d2	-0.3999315
219	0xbe4529b5	-0.19254191
220	0xbf9a1390	-1.203722
221	0xbd644cba	-0.055737235
222	0xbf67e674	-0.9058602
223	0xbdbb7031	-0.09152258
224	0xbe6e6a12	-0.2328265
225	0x3d824483	0.06360724
226	0x3a73825b	0.0009289139
227	0x3dd5f8ed	0.104478694
228	0xbd5baacd	-0.053629685
229	0xbf7c78fa	-0.98622096
230	0xbdd77379	-0.105200715
231	0xbdb2352d	-0.08701549
232	0xbe96815b	-0.29395565
233	0xbdd914a5	-0.10599641
234	0xbccf3ae9	-0.025296645
235	0xbf7f77cc	-0.9979217
236	0xbf953b5b	-1.1658739
237	0xbf829adc	-1.0203509
238	0xbf6f68ee	-0.93519485
239	0xbf25fd4c	-0.64839625
240	0xbf981f0f	-1.1884478
241	0xbf32974c	-0.6976211
242	0xbbcd39c0	-0.006262988
243	0xbde8537a	-0.11344047
244	0xbe012d2f	-0.12614892
245	0xbe466f18	-0.19378316
246	0x3cbd8120	0.02313286
247	0xbeab033f	-0.33400914
248	0xbdf580e1	-0.11987472
249	0x3d0d74d1	0.034535233
250	0x3d832c5e	0.06404947
251	0x3e47c39a	0.1950821
252	0xbe644217	-0.22290836
253	0xbd898ef4	-0.06716719
254	0xbe40821b	-0.18799631
255	0xbd1ac8ae	-0.03778904

fc2.bias f4 [53]
0	0xbe4fb2ef	-0.20283101
1	0xbef62e31	-0.48082116
2	0x3e10e657	0.14150368
3	0x3f1ecffe	0.6203612
4	0xbe9e31df	-0.30897424
5	0xbdda9809	-0.1067353
6	0x3e8523d6	0.26003903
7	0x3e95ecf7	0.29282352
8	0xbd2f5d14	-0.042813376
9	0xbe99faf0	-0.30074263
10	0x3e0258fd	0.12729259
11	0x3ed725b0	0.4202094
12	0x3e3f3a01	0.1867447
13	0xbf1464f9	-0.5796657
14	0x3d327ec0	0.04357791
15	0x3dd31c8e	0.10308181
16	0xbe6bda27	-0.23032437
17	0x3e104f82	0.1409283
18	0x3ddc7ee6	0.107663915
19	0x3ecf1d9c	0.40452278
20	0x3f1d36fe	0.61412036
21	0xbd843361	-0.06455112
22	0xbec2752f	-0.3798003
23	0xbe8ca8d2	-0.2747255
24	0xbd8298fa	-0.06376834
25	0xbec80984	-0.3906976
26	0xbe6b87fd	-0.23001094
27	0xbeb19f43	-0.3469182
28	0x3ec8faee	0.39253944
29	0x3e9c2b0a	0.30501586
30	0x3e045aa9	0.12925209
31	0xbdce37c6	-0.10069232
32	0x3eb781d9	0.35841253
33	0xbe918f8b	-0.28429827
34	0xbf00767c	-0.5018079
35	0x3cd672f9	0.02617787
36	0x3e764ea8	0.24053442
37	0x3dc1c4ed	0.09461389
38	0xbcb8d182	-0.022560839
39	0xbda45786	-0.08024506
40	0x3e4125b6	0.18862042
41	0xbeed33aa	-0.4632848
42	0xbf029b2e	-0.51018035
43	0xbf241788	-0.64098406
44	0x3c81c6dd	0.015841896
45	0xbd573b91	-0.05254704
46	0xbd289ec1	-0.041167025
47	0xbe1b7747	-0.1518222
48	0x3d95f16e	0.0732144
49	0xbdde5800	-0.108566284
50	0xbedc397a	-0.430126
51	0xbdb5f4a0	-0.08884549
52	0x3d2f1e69	0.04275361
