card_recognition/model.pth (torch, 326826 bytes, 18 tensors)

conv1.weight f4 [32, 3, 5, 5]
-0.102703385 -0.07633348 -0.0752293 -0.017339787 -0.17182769 -0.105392724 -0.26758748 -0.12901527
-0.229733 -0.0102424165 -0.06344735 0.20800787 -0.21937655 0.07599084 -0.015134602 -0.17884211
-0.3785857 -0.16251661 -0.13019781 -0.37215638 -0.07052711 0.12729222 -0.022893025 -0.11766289
-0.077392295 0.12675668 -0.024296809 -0.15192941 -0.12823558 0.06850066 -0.21657464 -0.10517366
0.0009929534 -0.119006366 -0.035134323 0.03485138 0.17394333 -0.1428312 0.24621204 0.15792759
-0.18892007 -0.29638764 -0.033936586 0.09259075 -0.16850835 0.10414715 0.20540664 0.14916514
-0.10182101 0.1132224 -0.06265777 -0.060914587 -0.09913352 -0.11205142 -0.06457167 -0.15342817
-0.23900802 -0.016867409 -0.22288717 0.042231 -0.0200586 0.2577748 -0.09478206 0.17523052
0.22191024 -0.12922083 -0.2696409 0.18042943 0.05600918 -0.2871312 0.053488865 0.24064101
0.093230076 0.023753222 0.11119672 0.22327493 -0.3158926 0.16142371 0.037765652 -0.09239672
0.10623955 -0.25358054 0.07418009 0.029464597 -0.036625814 0.030522792 0.12861761 -0.13623977
-0.025690235 -0.086665735 -0.24881 0.06499099 -0.31550667 -0.06997506 0.021169726 -0.16718787
0.13895297 -0.044168495 -0.16208275 -0.01962453 0.10256991 -0.30697605 0.083866544 -0.06278108
-0.21552394 0.07740466 -0.25256658 0.14285278 -0.1190311 -0.066322476 -0.05583718 0.10230028
-0.056465413 -0.099779524 -0.2071078 -0.22455752 0.27008897 -0.24459879 -0.15378067 -0.093284875
-0.13306978 0.16478267 0.0049868184 -0.21245082 -0.12099611 0.17479917 -0.26303074 0.06484387
-0.12150956 -0.17484702 0.1949178 -0.17607208 0.07379463 -0.014308019 -0.008705432 0.09103883
0.09125909 0.050266966 0.018083813 -0.13878752 -0.23750257 0.25253034 -0.14659545 -0.1852429
-0.03377793 -0.042796157 0.24426249 0.05695818 -0.10784027 -0.085340835 -0.050054096 -0.1095878
-0.052417796 -0.015314176 -0.03028471 -0.18689974 -0.25842983 -0.14601038 -0.152676 -0.058458686
-0.19366728 -0.19775374 -0.28104305 -0.055269334 -0.07155091 -0.22585902 -0.23659791 -0.17899182
-0.24602719 -0.10332997 -0.18451242 -0.24580954 -0.22690463 -0.24110018 -0.23187567 -0.068547875
0.00683272 -0.18187971 0.005479455 -0.05008547 0.027823376 0.014346118 0.07307344 -0.0077471584
-0.018652912 0.20111498 0.21415423 0.24575832 -0.12414109 0.025942663 0.062559165 0.1973966
0.21716146 0.12451214 0.075290516 0.112976685 0.12668279 0.23962277 0.20817819 0.06148
0.10812863 0.09603155 0.22798441 0.0032899275 0.066137284 0.15569645 0.2394139 0.0736447
0.15581617 0.066942506 -0.008033119 -0.015011476 0.040511742 0.18107231 0.039789096 0.1617135
0.03906389 -0.033634774 0.123317 0.027539706 0.0633323 0.11471066 -0.014176669 0.029645907
0.16339053 -0.14568955 -0.06756376 -0.06851549 -0.08166162 -0.19530864 0.06143662 -0.07669296
-0.23079796 -0.030081907 -0.31593233 0.10138895 -0.23936328 -0.22770548 -0.043484807 -0.28329587
-0.16919214 0.018508455 -0.13769475 -0.17988798 -0.2682671 0.170383 -0.31812567 -0.0879421
0.016779698 -0.20398034 -9.220456e-05 0.036914717 -0.01072805 0.017632192 -0.13405323 0.14960729
00000000: 2756 d2bd ba54 9cbd d211 9abd 2b0c 8ebc
00000010: 99f3 2fbe 24d8 d7bd 3a01 89be 941c 04be
00000020: 213f 6bbe cfcf 27bc aff0 81bd 0400 553e
00000030: 3fa4 60be 16a1 9b3d 1ff7 77bc 6322 37be
00000040: fcd5 c1be c16a 26be 9352 05be 488b bebe
00000050: 8470 90bd e458 023e 278a bbbc 3ef9 f0bd
00000060: da7f 9ebd 81cc 013e 1a0a c7bc 6293 1bbe
00000070: 3050 03be 134a 8c3d bec5 5dbe 4a65 d7bd
00000080: fd25 823a 9cb9 f3bd 02e9 0fbd 52c0 0e3d
00000090: 331e 323e 5842 12be 021f 7c3e c5b7 213e
000000a0: 4374 41be 1fc0 97be 1701 0bbd 38a0 bd3d
000000b0: 748d 2cbe 1a4b d53d 1e56 523e bfbe 183e
000000c0: 8987 d0bd 25e1 e73d b852 80bd 9381 79bd
000000d0: 8406 cbbd 377b e5bd 273e 84bd 461c 1dbe
000000e0: 85be 74be 852d 8abc 893c 64be 6afa 2c3d
000000f0: ef51 a4bc 0ffb 833e 191d c2bd a16f 333e
00000100: 703c 633e 7752 04be 5f0e 8abe 7ec2 383e
00000110: e269 653d dc02 93be 2417 5b3d 996a 763e
00000120: 69ef be3d 1e96 c23c 1bbb e33d 2fa2 643e
00000130: adbc a1be 424c 253e 28b0 1a3d 7e3a bdbd
00000140: 1f94 d93d 4fd5 81be bbeb 973d bd5f f13c
00000150: f304 16bd ef0a fa3c 56b4 033e 7082 0bbe
00000160: 5474 d2bc ce7d b1bd 0cc8 7ebe ff19 853d
00000170: 178a a1be 164f 8fbd 226c ad3c 4c33 2bbe
00000180: b049 0e3e 06ea 34bd 05f9 25be 9fc3 a0bc
00000190: 2c10 d23d f72b 9dbe 39c2 ab3d 5e93 80bd
000001a0: 4fb2 5cbe 5686 9e3d 6850 81be 0048 123e
000001b0: 94c6 f3bd 14d4 87bd 87b5 64bd cf82 d13d
000001c0: 4748 67bd 3559 ccbd 1114 54be 68f2 65be
000001d0: 1a49 8a3e 1b78 7abe ae78 1dbe 240c bfbd
000001e0: 7243 08be cabc 283e 7768 a33b b58c 59be
000001f0: cfcc f7bd 8efe 323e f7ab 86be ddcc 843d
00000200: 01da f8bd 190b 33be 8898 473e 3d4c 34be
00000210: a421 973d 2e6c 6abc 3aa1 0ebc 9172 ba3d
00000220: 0ce6 ba3d bce4 4d3d 8124 943c 511e 0ebe
00000230: e033 73be a84b 813e 1e1d 16be 51b0 3dbe
00000240: ba5a 0abd 064b 2fbd f21f 7a3e fb4c 693d
00000250: 5cdb dcbd 2dc7 aebd 8605 4dbd 926f e0bd
00000260: 0bb4 56bd 4fe8 7abc a417 f8bc a562 3fbe
00000270: ea50 84be bf83 15be 1957 1cbe 6072 6fbd
00000280: b750 46be f57f 4abe e0e4 8fbe 1962 62bd
00000290: 4989 92bd 9647 67be b946 72be a249 37be
000002a0: 8dee 7bbe aa9e d3bd d3f0 3cbe 7fb5 7bbe
000002b0: b059 68be f7e2 76be d170 6dbe d462 8cbd
000002c0: 02e5 df3b ad3e 3abe 008d b33b 6c26 4dbd
000002d0: d9ed e33c fb0b 6b3c 87a7 953d e0db fdbb
000002e0: fecd 98bc 16f1 4d3e 3f4b 5b3e 12a8 7b3e
000002f0: af3d febd b585 d43c 051f 803d 5622 4a3e
00000300: 935f 5e3e 3900 ff3d ea31 9a3d 5260 e73d
00000310: 22b9 013e ac5f 753e aa2c 553e 74d2 7b3d
00000320: 8b72 dd3d 30ac c43d bf74 693e d39b 573b
00000330: fc72 873d e46e 1f3e eb28 753e 08d3 963d
00000340: 468e 1f3e 2719 893d 589d 03bc b2f2 75bc
00000350: a4ef 253d 056b 393e e4f9 223d 3998 253e
00000360: 7501 203d 9ec4 09bd a08d fc3d f39a e13c
00000370: 5db4 813d 6ced ea3d 4245 68bc f9db f23c
00000380: d94f 273e a42f 15be de5e 8abd d951 8cbd
00000390: 353e a7bd fdfe 47be f7a4 7b3d 3311 9dbd
000003a0: 4d56 6cbe 556e f6bc e2c1 a1be 03a5 cf3d
000003b0: a61b 75be a02b 69be 201d 32bd 280c 91be
000003c0: b440 2dbe 0b9f 973c daff 0cbe 8e34 38be
000003d0: 4e5a 89be e278 2e3e 5ee1 a2be fd1a b4bd
000003e0: 9475 893c 39e0 50be f25d c1b8 e333 173d
000003f0: b4c4 2fbc 6371 903c 4045 09be a732 193e

conv1.bias f4 [32]
0.0006573904 -3.561782e-05 -0.0051966314 0.0008427992 -0.00033566303 -0.0004239499 -0.0004845103 0.0007667944
0.0004575481 -0.002387462 -0.00070107164 0.00028845939 -0.0014918464 0.001190095 -0.0041343733 -0.0012068118
-6.15746e-05 0.0007550925 0.00019364318 -0.0010720801 0.0010585806 -0.00025970006 -0.0004082454 9.982035e-05
-0.0011772214 0.0003649103 -0.00072587887 0.00022216374 -0.0013209863 -0.00068936887 -0.0005656228 -0.00010588154
00000000: b954 2c3a 5864 15b8 8148 aabb 4cef 5c3a
00000010: eefb afb9 9845 deb9 df05 feb9 b302 493a
00000020: 11e3 ef39 f776 1cbb 1fc8 37ba 5d3c 9739
00000030: 0f8a c3ba f6fc 9b3a a379 87bb e22d 9eba
00000040: 9d21 81b8 66f1 453a b20c 4b39 0a85 8cba
00000050: 12c0 8a3a 5a28 88b9 c509 d6b9 a456 d138
00000060: ff4c 9aba 6e51 bf39 e848 3eba a0f4 6839
00000070: f224 adba c3b6 34ba 4e46 14ba b80c deb8

bn1.weight f4 [32]
0.92401326 0.906976 0.5985977 0.9230472 1.1388875 1.3033692 0.9029101 0.70081294
1.061793 1.1040127 0.58738524 0.87492675 1.0379986 0.5122095 1.2646807 0.8124027
0.889746 0.8462272 1.1184869 0.9055607 1.2496188 1.363176 0.9621876 1.0342393
1.0739172 0.8539137 1.2898542 0.7376113 1.1051508 0.9337753 0.81705034 1.1211814
00000000: 228c 6c3f 942f 683f b33d 193f d24c 6c3f
00000010: 11c7 913f cdd4 a63f 1e25 673f 7a68 333f
00000020: d5e8 873f 4a50 8d3f e15e 163f 33fb 5f3f
00000030: 23dd 843f 2920 033f 0fe1 a13f a0f9 4f3f
00000040: 65c6 633f 59a2 583f 942a 8f3f d3d2 673f
00000050: 82f3 9f3f 8d7c ae3f ed51 763f f461 843f
00000060: 1e76 893f 179a 5a3f f119 a53f 18d4 3c3f
00000070: 9575 8d3f e60b 6f3f 362a 513f df82 8f3f

bn1.bias f4 [32]
-0.031865764 -0.21332304 -0.10148437 -0.1317263 -0.29378462 -0.05653101 -0.007104681 -0.33826712
0.07709571 -0.3249845 -0.3660455 -0.11164238 -0.12580292 -0.16781978 -0.23146805 -0.14886397
0.250348 0.0871204 -0.12572435 -0.16177276 -0.08730047 -0.05928256 -0.4411199 -0.18826093
-0.019083863 -0.5817006 -0.27787867 0.105007745 -0.24216536 -0.18224058 -0.0063769333 -0.06135162
00000000: ad85 02bd 5b71 5abe 0ad7 cfbd 42e3 06be
00000010: f06a 96be 0f8d 67bd 62ce e8bb 5931 adbe
00000020: 5be4 9d3d 5e64 a6be 516a bbbe c3a4 e4bd
00000030: 7bd2 00be f3d8 2bbe f605 6dbe cc6f 18be
00000040: 9d2d 803e 2e6c b23d e2bd 00be c2a7 25be
00000050: 97ca b2bd 45d2 72bd 78da e1be 79c7 40be
00000060: c355 9cbc 55ea 14bf 1d46 8ebe 4d0e d73d
00000070: 32fa 77be 469d 3abe 98f5 d0bb d64b 7bbd

bn1.running_mean f4 [32]
-0.28824988 -0.28954566 -0.009418323 -0.2779783 -0.32674196 -0.3218868 -0.296548 -0.3199154
-0.27780417 -0.34644386 0.05536788 -0.29426578 -0.2610294 -0.07064157 -0.36511725 -0.24952306
-0.23200263 -0.23689479 -0.31007865 -0.533753 -0.2850211 -0.30826688 -0.35708964 -0.316349
-0.2793625 -0.20141621 -0.37182334 -0.2254462 -0.37762707 -0.29494435 -0.28813758 -0.30681834
00000000: 7d95 93be 543f 94be 4f4f 1abc 2c53 8ebe
00000010: b94a a7be 59ce a4be 24d5 97be f4cb a3be
00000020: 593c 8ebe 1761 b1be 6ec9 623d 01aa 96be
00000030: a5a5 85be 87ac 90bd a6f0 babe f982 7fbe
00000040: 1992 6dbe 8c94 72be a1c2 9ebe 09a4 08bf
00000050: 49ee 91be 28d5 9dbe 74d4 b6be 7ff8 a1be
00000060: 9a08 8fbe 0d40 4ebe a15f bebe 5edb 66be
00000070: 5658 c1be f202 97be c586 93be 4b17 9dbe

bn1.running_var f4 [32]
0.2883015 0.25009283 0.0051573194 0.25989723 0.3947009 0.34577504 0.41266286 0.2735157
0.31267685 0.37606716 0.18475921 0.41890612 0.24116533 0.023448428 0.45040646 0.2318418
0.21989664 0.20910488 0.39447233 0.652286 0.2701692 0.40647307 0.40986052 0.34977126
0.27643538 0.26455125 0.47772703 0.18086572 0.5214471 0.28171322 0.28688145 0.2910619
00000000: 419c 933e 2b0c 803e bbfe a83b 4011 853e
00000010: 3d16 ca3e 6d09 b13e 8c48 d33e 400a 8c3e
00000020: 2e17 a03e e08b c03e 8531 3d3e dd7a d63e
00000030: 0bf4 763e eb16 c03c ad9b e63e f067 6d3e
00000040: 962c 613e 971f 563e 47f8 c93e 37fc 263f
00000050: 9e53 8a3e 3d1d d03e 3dd9 d13e 3815 b33e
00000060: f088 8d3e 4373 873e a398 f43e dd34 393e
00000070: 8f7d 053f b73c 903e 20e2 923e 1106 953e

conv2.weight f4 [64, 32, 5, 5]
0.116980344 -0.006064141 -0.012514133 0.0066302344 -0.03428713 -1.6813885e-05 -0.110718705 -0.12984398
-0.1573947 -0.17093316 -0.12588203 -0.13393371 -0.14278571 -0.11505138 -0.08884578 -0.11346014
-0.11406131 -0.09594205 -0.075346164 -0.12888014 -0.00072642084 0.00074286596 -0.04657657 -0.061925128
-0.09448314 -0.20694672 -0.24637477 -0.20936583 -0.1819754 -0.123569384 -0.16641591 -0.14942323
-0.054476924 -0.0049715517 0.016558534 -0.22390416 -0.09845486 -0.054569084 -0.077935696 -0.06116691
-0.105531216 -0.05058377 -0.20340562 -0.22733118 -0.08590201 -0.21850684 -0.18213621 -0.17992729
-0.14416902 -0.06776087 0.026379483 0.040603872 0.010236259 -0.010749412 0.009494205 0.049187988
0.050187368 0.07309043 0.027020328 0.025740044 0.09422903 0.07490071 0.079925016 0.07359888
0.013308918 0.030929396 -0.037665397 -0.029055184 -0.0102118375 0.041523356 -0.025049005 -0.075508304
-0.058021836 -0.09100722 -0.019086013 0.053110957 0.14579912 0.13229495 0.08052978 0.10307865
-0.08008607 0.09266321 0.08703861 0.012629378 0.06879725 -0.096379906 -0.06230054 -0.029789552
0.04083422 0.18148696 0.114324056 0.14280201 0.09431328 0.12356414 0.20968647 0.061836686
0.08709794 0.09497382 0.04220061 0.055341087 -0.0892739 -0.18832763 -0.21251641 -0.18984261
-0.16945794 0.06225367 0.04384053 0.054482926 0.0668149 0.07803877 -0.0031450447 0.05284181
0.10700892 0.11451979 0.015715895 -0.042828318 -0.07188544 -0.13733846 -0.16742624 -0.13510129
-0.031254128 -0.06936072 -0.029157761 -0.018143522 -0.14442186 0.122423984 0.013012085 -0.060996756
0.023139663 0.011579793 0.20610191 0.26948923 0.24960648 0.117917106 0.013976216 0.19733305
0.17739241 0.12762998 0.08051114 0.058435358 -0.11563287 -0.073784895 0.031463306 0.17413664
0.17781574 0.048954863 0.15821038 0.15287095 0.08918001 0.081686504 -0.023446789 -0.12094182
-0.023472045 0.046469145 0.119707614 0.048617207 -0.01776673 -0.05753012 -0.059349984 -0.06439757
0.09564203 0.07042033 -0.14764076 -0.17760451 -0.049229372 -0.012288889 -0.087106876 -0.062963046
-0.022597158 0.02737057 -0.10687915 -0.10288387 -0.055522583 0.006042413 0.05089672 -0.18395714
-0.1071598 -0.06301087 -0.06817091 -0.11058782 -0.11200421 -0.09126167 -0.07814353 -0.104152426
-0.10883852 -0.14581355 -0.18161555 -0.16948962 -0.13427368 -0.13470541 -0.14666617 -0.07748172
-0.050170887 -0.07188285 -0.09821835 -0.102886796 -0.118728384 -0.08313118 -0.039357174 -0.08124649
-0.061355036 -0.06293316 -0.12086406 -0.21276124 -0.2722888 -0.1331339 -0.21587662 -0.10834789
-0.043293092 -0.053140182 -0.061061252 -0.007857948 -0.04033516 -0.10286256 -0.044398393 -0.0045119817
-0.0051561315 -0.034195237 -0.06936785 -0.15106653 -0.046006262 -0.1316797 -0.075405456 -0.0017122418
-0.12224106 -0.12802213 -0.11238052 0.011322988 0.07265694 0.017722504 -0.033773202 0.09870973
0.065284744 0.026569072 -0.0342254 0.005272134 0.12000613 0.17613445 0.15202773 -0.015773654
-0.024306776 -0.07409712 -0.055186383 0.028247833 0.05704972 -0.014378344 0.05365765 0.06325161
-0.016985191 -0.09793295 0.013898346 0.022383409 0.06459173 0.034692578 -0.004168061 -0.021441722
00000000: 6493 ef3d b4b5 c6bb 1408 4dbc 7042 d93b
00000010: a970 0cbd 8b0b 8db7 7dc0 e2bd d2f5 04be
00000020: 142c 21be 1a09 2fbe 38e7 00be eb25 09be
00000030: 6b36 12be 0fa0 ebbd c7f4 b5bd ca5d e8bd
00000040: fa98 e9bd 447d c4bd 174f 9abd 28f9 03be
00000050: 476d 3eba e4bc 423a 13c7 3ebd 34a5 7dbd
00000060: 6080 c1bd d7e9 53be ab49 7cbe ff63 56be
00000070: c257 3abe f211 fdbd ef68 2abe 6702 19be
00000080: 3223 5fbd 66e8 a2bb c3a5 873c 2247 65be
00000090: b4a2 c9bd d583 5fbd c09c 9fbd 278a 7abd
000000a0: c020 d8bd ed30 4fbd 9049 50be 81c9 68be
000000b0: 65ed afbd 42c0 5fbe ea81 3abe dc3e 38be
000000c0: 0ba1 13be 36c6 8abd c919 d83c 3f50 263d
000000d0: fbb5 273c 4d1e 30bc 958d 1b3c 5879 493d
000000e0: 4591 4d3d 6fb0 953d bc59 dd3c c9dc d23c
000000f0: 26fb c03d 8b65 993d baaf a33d 02bb 963d
00000100: a60d 5a3c a55f fd3c 0847 1abd 2305 eebc
00000110: 8d4f 27bc 6514 2a3d 9233 cdbc 19a4 9abd
00000120: 4ea8 6dbd fe61 babd 455a 9cbc e08a 593d
00000130: 5d4c 153e 5478 073e ccec a43d e61a d33d
00000140: 2a04 a4bd 36c6 bd3d 4c41 b23d 73eb 4e3c
00000150: 93e5 8c3d d462 c5bd da2e 7fbd 3809 f4bc
00000160: c841 273d b8d7 393e bb22 ea3d b13a 123e
00000170: 5227 c13d 320f fd3d 0db8 563e 7748 7d3d
00000180: 6860 b23d a281 c23d 8cda 2c3d 56ad 623d
00000190: 3cd5 b6bd f5d8 40be e79d 59be 1a66 42be
000001a0: 6286 2dbe b4fd 7e3d 2192 333d 7d29 5f3d
000001b0: 40d6 883d cad2 9f3d 181d 4ebb a770 583d
000001c0: 7e27 db3d 5a89 ea3d 9fbe 803c bf6c 2fbd
000001d0: ac38 93bd 74a2 0cbe c971 2bbe fe57 0abe
000001e0: 5404 00bd fe0c 8ebd 42dc eebc b9a1 94bc
000001f0: 53e3 13be 6db9 fa3d a430 553c bcd7 79bd
00000200: 648f bd3c 2cb9 3d3c 610c 533e 7efa 893e
00000210: d798 7f3e 867e f13d 80fc 643c ad11 4a3e
00000220: 5ba6 353e 6fb1 023e 06e3 a43d ea59 6f3d
00000230: edd0 ecbd 891c 97bd abdf 003d e050 323e
00000240: 5415 363e e584 483d e701 223e 348a 1c3e
00000250: 02a4 b63d 414b a73d 7b13 c0bc 58b0 f7bd
00000260: 7248 c0bc 6e56 3e3d 4429 f53d d622 473d
00000270: 898b 91bc b4a4 6bbd f818 73bd e0e2 83bd
00000280: f8df c33d 8938 903d 242f 17be f5dd 35be
00000290: bda4 49bd 5657 49bc 1765 b2bd c5f2 80bd
000002a0: ad1d b9bc 3f38 e03c 75e3 dabd c7b4 d2bd
000002b0: a66b 63bd 6fff c53b 1479 503d 435f 3cbe
000002c0: 9976 dbbd d80b 81bd 319d 8bbd de7b e2bd
000002d0: 7762 e5bd 66e7 babd b709 a0bd de4d d5bd
000002e0: bbe6 debd 2650 15be 6df9 39be b08e 2dbe
000002f0: 0a7f 09be 37f0 09be a82f 16be bcae 9ebd
00000300: fd7f 4dbd 5137 93bd b426 c9bd 50b6 d2bd
00000310: de27 f3bd ae40 aabd fd34 21bd 8f64 a6bd
00000320: 6b4f 7bbd 1ae3 80bd 9487 f7bd 15de 59be
00000330: 7069 8bbe 4154 08be c30e 5dbe 80e5 ddbd
00000340: 1954 31bd 85a9 59bd 5d1b 7abd 9fbe 00bc
00000350: 7b36 25bd 9ba9 d2bd 17db 35bd 3fd9 93bb
00000360: c4f4 a8bb 4e10 0cbd bb10 8ebd 2fb1 1abe
00000370: 1071 3cbd 0bd7 06be 2d6e 9abd 4d6d e0ba
00000380: 8559 fabd 3c18 03be c227 e6bd 0e84 393c
00000390: 29cd 943d c92e 913c c555 0abd 5428 ca3d
000003a0: 02b4 853d 62a7 d93c ef2f 0cbd dec1 ac3b
000003b0: c6c5 f53d 975c 343e 28ad 1b3e c037 81bc
000003c0: 011f c7bc 3bc0 97bd 1e0b 62bd 0068 e73c
000003d0: f8ac 693d 2593 6bbc 20c8 5b3d 0f8a 813d
000003e0: 8724 8bbc 1291 c8bd e3b5 633c 695d b73c
000003f0: ab48 843d ce19 0e3d 3b94 88bb 8da6 afbc

conv2.bias f4 [64]
-0.00010784645 -0.00015023827 -0.00018880957 -0.0002329642 9.462917e-05 -7.451554e-05 0.00011469214 7.84651e-06
0.00013622684 -2.5059167e-05 3.793094e-05 5.9874637e-05 6.66213e-06 -0.00012945112 3.1660693e-05 -5.287225e-05
-4.973585e-05 -6.1815095e-05 -8.565e-05 0.0002470291 6.637764e-05 2.8871705e-06 0.000106809115 -0.0001037841
-4.9221308e-05 1.647948e-05 -1.6267573e-05 -0.0005108357 -6.0940583e-05 -9.145651e-06 9.432528e-05 2.761065e-05
-0.00016112662 6.784885e-05 0.0002550722 -0.00022178919 -2.6964772e-05 0.00032047293 -0.00023239189 -0.00017490317
-0.00013496637 0.00017561088 -8.014923e-06 0.00011396526 -6.898189e-05 0.0002666867 2.337811e-05 -0.0001023503
-0.00013377065 0.00012113698 0.00019396191 -0.00011075485 5.9316644e-05 -0.00012385425 1.0842289e-05 -4.7222828e-05
-6.782037e-05 -1.28354e-05 0.00010540863 0.0002351738 0.00014546701 -0.00012959895 -3.0084826e-05 0.00021902981
00000000: 9f2b e2b8 4789 1db9 2ffb 45b9 da47 74b9
00000010: a673 c638 3a45 9cb8 e086 f038 81a4 0337
00000020: 1dd8 0e39 2736 d2b7 0918 1f38 e721 7b38
00000030: 438b df36 45bd 07b9 69cb 0438 25c3 5db8
00000040: 769b 50b8 baa2 81b8 fe9e b3b8 af83 8139
00000050: 3934 8b38 36c1 4136 b5fe df38 aaa6 d9b8
00000060: fa72 4eb8 6a3d 8a37 5976 88b7 9be9 05ba
00000070: 749a 7fb8 4670 19b7 80d0 c538 6b9d e737
00000080: 19f4 28b9 134a 8e38 36bb 8539 1590 68b9
00000090: 6832 e2b7 2605 a839 39ae 73b9 3666 37b9
000000a0: c285 0db9 3024 3839 d577 06b7 a200 ef38
000000b0: 5faa 90b8 15d2 8b39 1c1c c437 e6a4 d6b8
000000c0: c944 0cb9 ec0a fe38 4162 4b39 0f45 e8b8
000000d0: c3ca 7838 dfde 01b9 47e7 3537 2011 46b8
000000e0: c93a 8eb8 a057 57b7 d40e dd38 fc98 7639
000000f0: 8188 1839 f4e4 07b9 ac5e fcb7 5eab 6539

bn2.weight f4 [64]
1.1591578 0.80378664 1.0560507 1.0441545 0.7280752 1.1508572 1.2808325 0.9313284
1.1859308 1.0984637 0.77611995 1.1256433 1.0965414 1.0282735 1.3260964 1.0909839
0.97261804 1.0834816 1.2803105 1.1452217 0.6744364 1.1415256 0.8112479 1.1659579
0.90429777 1.1808707 0.8051985 1.1518263 1.1851763 0.9838873 1.0018219 1.0392145
1.0190259 1.2470472 1.0647948 0.7482059 0.9408353 0.88358814 1.0476855 0.86235315
1.246268 1.1527687 0.4961536 1.0203716 1.1283802 1.1873001 0.51444197 0.95271236
1.1009512 0.88614446 0.8257538 1.1929015 1.1448544 1.2393275 1.2470707 1.1596916
1.221919 1.2143234 1.1017531 1.1714859 0.7030591 0.67966485 0.8757261 0.792671
00000000: 485f 943f f6c4 4d3f ab2c 873f dba6 853f
00000010: 2363 3a3f 4a4f 933f 52f2 a33f 8a6b 6e3f
00000020: 95cc 973f 759a 8c3f ccaf 463f 1415 903f
00000030: 785b 8c3f 779e 833f 87bd a93f 5ca5 8b3f
00000040: 7ffd 783f 86af 8a3f 37e1 a33f a096 923f
00000050: dda7 2c3f 831d 923f f1ad 4f3f 1c3e 953f
00000060: 0f80 673f c526 973f 7d21 4e3f 0b6f 933f
00000070: dbb3 973f 0ae0 7b3f b33b 803f fb04 853f
00000080: 716f 823f 3e9f 9f3f 324b 883f 6c8a 3f3f
00000090: 95da 703f d532 623f 8f1a 863f 2dc3 5c3f
000000a0: b685 9f3f ed8d 933f d807 fe3e 899b 823f
000000b0: c36e 903f 73f9 973f 78b2 033f f5e4 733f
000000c0: f8eb 8c3f 5dda 623f 9a64 533f ffb0 983f
000000d0: 978a 923f 49a2 9e3f 03a0 9f3f c670 943f
000000e0: d767 9c3f f36e 9b3f 3f06 8d3f 40f3 953f
000000f0: aefb 333f 84fe 2d3f 962f 603f 7dec 4a3f

bn2.bias f4 [64]
-0.40032774 -0.41537347 -0.49021056 -0.43947324 -0.0965348 -0.6678009 -0.7081904 -0.35277858
-0.6931757 -0.43497854 -0.08119482 -0.6959524 -0.4041396 -0.55505174 -0.7367774 -0.28046563
-0.16671303 -0.51395965 -0.35061833 -0.36574903 -0.26253507 -0.33372378 -0.37427047 -0.4768067
-0.009737927 -0.4857694 -0.24499433 -0.5108925 -0.700853 -0.42432615 -0.54697275 -0.5449912
-0.4710177 -0.9092232 -0.4249046 -0.30855033 -0.3528305 -0.022535045 -0.33778858 -0.085326254
-0.54598534 -0.78655714 -0.33172894 -0.4436476 -0.60715866 -0.44621333 -0.25661212 -0.311429
-0.54082215 -0.119213186 -0.389636 -0.77888083 -0.51420194 -0.69873863 -0.37593684 -0.47520548
-0.72054875 -0.40981594 -0.58995456 -0.5033184 -0.07593163 -0.32854688 -0.39823052 -0.03002462
00000000: c2f7 ccbe d5ab d4be e1fc fabe a302 e1be
00000010: 0ab4 c5bd 00f5 2abf f74b 35bf 659f b4be
00000020: f673 31bf 82b5 debe 7849 a6bd f029 32bf
00000030: 63eb cebe df17 0ebf 729d 3cbf 3199 8fbe
00000040: d2b6 2abe dc92 03bf 3f84 b3be 7543 bbbe
00000050: ff6a 86be d8dd aabe 61a0 bfbe 0220 f4be
00000060: d38b 1fbc c4b6 f8be cbdf 7abe dac9 02bf
00000070: 1a6b 33bf 4741 d9be 6806 0cbf 8b84 0bbf
00000080: 3b29 f1be dac2 68bf 198d d9be 4ffa 9dbe
00000090: 33a6 b4be 6a9b b8bc a0f2 acbe 88bf aebd
000000a0: b2c5 0bbf cf5b 49bf 60d8 a9be c725 e3be
000000b0: c06e 1bbf 1376 e4be aa62 83be 9f73 9fbe
000000c0: 5273 0abf 0b26 f4bd 5f7e c7be bc64 47bf
000000d0: bda2 03bf 89e0 32bf cb7a c0be 224e f3be
000000e0: e275 38bf 65d3 d1be 4307 17bf 7ad9 00bf
000000f0: 0b82 9bbd 4c37 a8be dfe4 cbbe 31f6 f5bc

bn2.running_mean f4 [64]
-0.85158354 -0.5315105 1.0795926 -1.0282996 -0.24755481 0.00202385 -2.0661876 1.5746793
-1.8518269 2.1836839 -5.5426817 2.2826226 -1.8935217 -0.97357893 -2.3517005 2.6674526
3.61201 -3.2432816 -0.9022138 -2.1852245 -2.9935935 -1.9521033 -0.29178303 -1.5842526
-1.2530665 0.024494063 2.6201706 -0.8690707 -1.0529256 -1.607393 -1.8873188 -2.0899775
-1.2698879 -2.3138363 -3.9347458 -2.8605883 -1.4852154 -2.9484882 -2.0850782 0.27865362
-1.1133624 -1.6124686 -2.1482213 -5.606648 -1.2511119 -2.9678931 1.2770603 -1.861689
-1.690718 -1.4414133 0.24753603 -0.9059164 3.408395 -1.4299989 -1.226571 -1.2778758
-0.90773374 -1.0394608 -3.0877712 0.36712712 -1.7908766 -0.106171645 -1.3001553 3.2902865
00000000: 6101 5abf 1211 08bf 1730 8a3f 529f 83bf
00000010: 027f 7dbe 92a2 043b 6b3c 04c0 178f c93f
00000020: aa08 edbf 7ac1 0b40 a65d b1c0 7d16 1240
00000030: eb5e f2bf 783c 79bf 4382 16c0 8bb7 2a40
00000040: 2c2b 6740 ed91 4fc0 7cf7 66bf b8da 0bc0
00000050: 0997 3fc0 85de f9bf 9664 95be cac8 cabf
00000060: 7c64 a0bf c6a7 c83c e0b0 2740 6b7b 5ebf
00000070: 44c6 86bf 0ebf cdbf aa93 f1bf 31c2 05c0
00000080: b08b a2bf e515 14c0 e0d2 7bc0 e113 37c0
00000090: 8a1b bebf 08b4 3cc0 ec71 05c0 b0ab 8e3e
000000a0: a982 8ebf 5f65 cebf 757c 09c0 a969 b3c0
000000b0: 6f24 a0bf f6f1 3dc0 b676 a33f d34b eebf
000000c0: 7369 d8bf 3b80 b8bf 167a 7d3e 23ea 67bf
000000d0: 2523 5a40 340a b7bf 4700 9dbf 6f91 a3bf
000000e0: 3d61 68bf 0d0d 85bf 0b9e 45c0 16f8 bb3e
000000f0: 723b e5bf 8570 d9bd 7d6b a6bf 0e94 5240

bn2.running_var f4 [64]
7.220318 3.0772014 6.4122314 9.935745 6.4234138 4.6570044 6.3957224 7.302333
5.932376 6.8077626 12.551437 7.7155967 7.2151666 8.683709 9.572495 6.5993624
5.7627335 6.3621626 8.00181 9.260056 5.54174 7.0369906 6.4638386 7.6814933
12.761405 7.7447686 7.5675106 6.6122155 5.610109 6.649564 5.1104193 7.4892273
5.244567 6.682038 5.2779565 6.347473 9.710688 11.9688835 8.357262 5.2731767
5.329216 6.071122 4.917281 11.046621 6.4430695 3.864925 3.7874765 8.597391
5.3126526 10.499585 6.7027917 7.6320457 10.34595 9.410155 7.806528 4.6663456
5.074585 4.321363 6.7981815 6.4319687 7.425643 4.1588683 9.112758 6.6576524
00000000: d80c e740 def0 4440 0031 cd40 d0f8 1e41
00000010: 9b8c cd40 2e06 9540 c2a9 cc40 b6ac e940
00000020: 06d6 bd40 31d9 d940 b0d2 4841 2be6 f640
00000030: a5e2 e640 79f0 0a41 f128 1941 fa2d d340
00000040: 5068 b840 d696 cb40 6a07 0041 3029 1441
00000050: ef55 b140 072f e140 c4d7 ce40 cbce f540
00000060: b72e 4c41 25d5 f740 0c29 f240 4597 d340
00000070: 0386 b340 3ac9 d440 8e88 a340 c0a7 ef40
00000080: 7ed3 a740 41d3 d540 05e5 a840 801e cb40
00000090: fa5e 1b41 8c80 3f41 58b7 0541 ddbd a840
000000a0: f088 aa40 a246 c240 5e5a 9d40 f6be 3041
000000b0: a02d ce40 ee5a 7740 0466 7240 ea8e 0941
000000c0: 4001 aa40 4dfe 2741 457d d640 b839 f440
000000d0: 0389 2541 ff8f 1641 14cf f940 b452 9540
000000e0: 0063 a240 9b48 8a40 b48a d940 b0d2 cd40
000000f0: de9e ed40 7315 8540 dbcd 1141 7d0b d540

fc1.weight f4 [100, 64]
0.1076387 0.09930973 0.17391495 -0.3117113 -0.0128930975 -0.7099794 -0.066012606 -0.093256354
0.04758016 0.07031463 -0.128039 -0.2643157 0.26834378 -0.21127678 0.058156304 0.18541288
0.1648555 -0.21942833 0.16758688 0.2488031 0.035444338 0.00719379 0.15866408 0.050940182
-0.02509068 0.31289926 0.07350865 -0.010509839 0.14759418 0.32088917 0.06657976 0.22915263
0.22344582 0.06848834 -0.29413646 0.08363529 -0.09327113 0.17013983 0.2042333 -0.030080754
-0.100555465 -0.7922173 -0.008093637 -0.19361132 -0.28692237 -0.18560053 0.051772304 0.029040843
0.00097409467 -0.040691357 0.09420827 0.15492082 -0.38304064 0.1931951 0.15721448 -0.33226126
-0.60721195 0.2658688 -0.13385783 0.2951042 0.022843093 -0.056367584 -0.0031914865 0.04189315
-0.093947455 0.026598083 -0.02909156 0.02588094 0.053907502 -0.13005406 -0.8681387 -0.0066482113
-0.7134519 -0.1722563 0.20726062 0.06323254 0.08008848 -0.009661712 0.36435375 0.27800846
0.19295245 -0.16170898 0.043979876 0.32978374 -0.032389812 0.2974009 -0.021356924 -0.31640506
0.06712725 0.018326035 0.02335427 -0.4492941 -0.62967825 0.032390095 0.035371747 0.339967
-0.14796588 0.46579158 -0.18053724 0.033948958 -0.0515037 0.10818472 0.100827105 0.10666687
-0.47763896 0.042185526 -0.013865032 0.13399844 -0.30920073 -0.0068267225 -0.025076086 0.23408717
0.06510027 0.10654353 -0.017296176 0.36974823 -0.0022182218 0.23768571 0.092422344 0.03791375
-0.113298364 0.28001708 -0.14867409 -0.64085096 0.0857687 -0.013157044 0.1825223 0.02424486
-0.28320628 0.092172995 0.070608504 -0.6448385 -0.035533506 -0.41271392 0.06332368 0.078439966
0.22204237 0.22639841 0.2929874 0.17558469 0.1542067 0.022293761 0.0022738352 0.003087663
0.15927468 -0.14979798 0.10250468 0.16663578 0.12879181 0.19861089 -0.009226935 -0.027006688
0.06759837 0.3163534 -0.014804254 -0.40528208 0.15790494 0.19055386 0.1054883 0.19484021
-0.2480401 0.2144298 -0.18317974 -0.05756253 0.045372035 0.08498788 0.18779325 0.040362954
-0.16832797 -0.5114234 0.02735559 -0.2309944 -0.47759962 -0.1523082 0.031211717 -0.0940299
-0.4153938 0.025652742 -0.11815194 0.10531589 -0.09758411 0.12371507 0.1097494 -0.2199548
-0.54068553 -0.12699722 -0.26454562 0.1912577 0.103864454 0.015288284 0.040634234 0.098193675
-0.02651135 -0.034359213 -0.03318496 -0.042717345 -0.057533722 -0.0020168882 -0.026612967 -0.06987864
-0.017488476 0.003965278 -0.024062475 0.015192508 -0.016928734 -0.044092827 -0.039461903 -0.008002615
-0.015186082 0.0034730954 -0.07500005 -0.0120231435 -0.055799115 -0.0033880991 -0.023511553 -0.03761546
-0.058607113 -0.024560992 -0.03464181 -0.028984759 -0.010884908 0.0006303064 -0.051810212 0.004146536
-0.025380239 -0.03580263 -0.03054981 -0.018751547 -0.01778189 -0.040742368 -0.032800358 -0.052716155
-0.015491443 0.00082347944 -0.028069252 -0.026987307 -0.023896672 -0.015895741 -0.053300552 0.000301406
-0.035737693 -0.054191466 -0.05158571 -0.04540691 -0.019912105 -0.044562977 -0.0008388476 -0.046849012
-0.0320841 -0.02900197 -0.015872408 -0.018200673 -0.06781614 -0.02929454 -0.026118904 -0.07462393
00000000: ae71 dc3d e662 cb3d c316 323e a098 9fbe
00000010: 923d 53bc 36c1 35bf 9e31 87bd 30fd bebd
00000020: 6ae3 423d 1e01 903d a81c 03be 6354 87be
00000030: 5b64 893e f158 58be 4e35 6e3d e0dc 3d3e
00000040: e1cf 283e d2b1 60be e59b 2b3e 3dc6 7e3e
00000050: 152e 113d e2b9 eb3b d678 223e a7a6 503d
00000060: f88a cdbc 5534 a03e b48b 963d 7631 2cbc
00000070: ee22 173e 964b a43e f85a 883d fda6 6a3e
00000080: fbce 643e 9d43 8c3d 0e99 96be fb48 ab3d
00000090: ef04 bfbd 2339 2e3e 8922 513e ea6b f6bc
000000a0: 06f0 cdbd c1ce 4abf 2d9b 04bc 0c42 46be
000000b0: 7de7 92be 110e 3ebe 320f 543d 10e7 ed3c
000000c0: 635a 7f3a fbab 26bd 44f0 c03d 90a3 1e3e
000000d0: e71d c4be f0d4 453e d5fc 203e 261e aabe
000000e0: 3e72 1bbf f51f 883e 0712 09be e617 973e
000000f0: 7021 bb3c b2e1 66bd 4228 51bb 2798 2b3d
00000100: 8667 c0bd 39e4 d93c 6c51 eebc 4404 d43c
00000110: 1dce 5c3d e42c 05be 563e 5ebf 3dd9 d9bb
00000120: c9a4 36bf f563 30be 213c 543e 1080 813d
00000130: 6e05 a43d 284c 1ebc 938c ba3e 2057 8e3e
00000140: 5495 453e 0a97 25be 3e24 343d 6ad9 a83e
00000150: 2eab 04bd ee44 983e b7f4 aebc d8ff a1be
00000160: 037a 893d 7b20 963c 7451 bf3c e009 e6be
00000170: 9832 21bf 7aab 043d f7e1 103d 2810 ae3e
00000180: 5e84 17be 3c7c ee3e c1de 38be 100e 0b3d
00000190: 8bf5 52bd f38f dd3d 717e ce3d 2974 da3d
000001a0: 188d f4be bbca 2c3d 292a 63bc e336 093e
000001b0: 8f4f 9ebe b3b2 dfbb 5d6c cdbc 8cb4 6f3e
000001c0: 4a53 853d 7f33 da3d b6b0 8dbc a44f bd3e
000001d0: 965f 11bb e263 733e ed47 bd3d 734b 1b3d
000001e0: f908 e8bd 665e 8f3e 053e 18be cf0e 24bf
000001f0: 80a7 af3d a490 57bc 20e7 3a3e 289d c63c
00000200: 6a00 91be 32c5 bc3d 319b 903d 2314 25bf
00000210: 958b 11bd 3d4f d3be d8af 813d 22a5 a03d
00000220: 135f 633e fcd4 673e 7202 963e 79cc 333e
00000230: 5ce8 1d3e 68a1 b63c a004 153b 645a 4a3b
00000240: e718 233e a464 19be f9ed d13d 92a2 2a3e
00000250: 00e2 033e a760 4b3e 922c 17bc 213d ddbc
00000260: 0471 8a3d 13f9 a13e 8b8d 72bc 2281 cfbe
00000270: d5b1 213e 8d20 433e 400a d83d 3184 473e
00000280: 39fe 7dbe 7c93 5b3e 7893 3bbe b0c6 6bbd
00000290: 07d8 393d 200e ae3d e04c 403e a053 253d
000002a0: 2b5e 2cbe a5ec 02bf d518 e03c cc89 6cbe
000002b0: f087 f4be aef6 1bbe b7af ff3c c092 c0bd
000002c0: 7fae d4be b325 d23c a5f9 f1bd dbaf d73d
000002d0: 2eda c7bd 545e fd3d 4bc4 e03d d53b 61be
000002e0: 5e6a 0abf 8f0b 02be 8672 87be 0fd9 433e
000002f0: e3b6 d43d b67b 7a3c 1570 263d c419 c93d
00000300: 552e d9bc 3fbc 0cbd f4ec 07bd 62f8 2ebd
00000310: 7ba8 6bbd c52d 04bb 7003 dabc 881c 8fbd
00000320: fe43 8fbc 2aef 813b ab1e c5bc ffe9 783c
00000330: 21ae 8abc ae9a 34bd cea2 21bd 661d 03bc
00000340: 0bcf 78bc df9c 633b a099 99bd b8fc 44bc
00000350: 9d8d 64bd df0a 5ebb 4d9b c0bc ab12 1abd
00000360: 030e 70bd 2234 c9bc 92e4 0dbd 7271 edbc
00000370: 9d56 32bc 253b 253a f236 54bd aadf 873b
00000380: 38ea cfbc c7a5 12bd 9843 fabc d89c 99bc
00000390: 54ab 91bc 78e1 26bd ab59 06bd e5ec 57bd
000003a0: d2cf 7dbc c5de 573a 7df1 e5bc 7c14 ddbc
000003b0: f4c2 c3bc c937 82bc ae51 5abd 0706 9e39
000003c0: b061 12bd dff7 5dbd 8a4b 53bd 99fc 39bd
000003d0: b61e a3bc ab87 36bd 1ce6 5bba c0e4 3fbd
000003e0: 9e6a 03bd 8a95 edbc da06 82bc 9419 95bc
000003f0: 30e3 8abd 1afb efbc 50f7 d5bc 6ed4 98bd

fc1.bias f4 [100]
0.15304598 0.11782294 0.17526577 -0.060404208 0.014726718 0.0046004523 0.028593224 -2.6537163e-07
0.071545504 -0.18998463 0.17274527 -0.00813049 -0.022422118 0.043002434 -0.03401542 0.12886164
-0.016086504 -0.0200393 -0.03451079 -0.0039734025 -0.006621804 -4.8125866e-16 -0.03372589 -2.4230534e-29
-0.10962952 0.16555762 0.20030554 0.045258556 0.049864016 -1.0896774e-06 0.022372223 -0.09104423
0.029273033 0.117271595 0.10821302 0.20184253 -0.008394852 0.039150562 0.024322312 0.08276591
-4.3536728e-14 -0.049947802 0.064615905 0.050905287 0.00881416 -0.051569756 -0.05604408 -0.13295916
0.015949927 -0.007076963 -0.24574472 -3.3192008e-25 -0.049277928 0.013249193 0.06644749 0.035284504
-0.09743275 0.020895807 0.13668253 0.19719012 -0.02495093 -0.028988982 0.16648534 -2.6206803e-10
-0.0025886314 -0.21625306 -0.0008343293 0.19439745 0.003719321 -0.031363443 0.03465013 -0.06385634
0.06431172 -2.1563341e-12 -0.11626081 0.012934995 -0.009992281 0.13654451 -0.022433082 -0.14955492
-0.015592922 -0.13259734 -0.025976492 -0.16005309 -0.08596934 -5.7458856e-06 -0.041929103 -0.00034624414
0.08375193 -0.06722547 0.061829727 -0.18485717 -0.12589166 -6.18136e-08 0.100391656 -0.18852553
0.11747754 0.14846869 -0.087423876 -0.35476017
00000000: 16b8 1c3e 274d f13d df78 333e 676a 77bd
00000010: 5548 713c 64bf 963b 563c ea3c 6678 8eb4
00000020: 7386 923d 558b 42be 23e4 303e bf35 05bc
00000030: 97ae b7bc 5223 303d c153 0bbd 4ef4 033e
00000040: d8c7 83bc 7529 a4bc 305b 0dbd 5133 82bb
00000050: b8fb d8bb 9fb6 0aa6 2924 0abd 10ba f58f
00000060: 7185 e0bd f087 293e e51c 4d3e 0961 393d
00000070: 363e 4c3d 0841 92b5 f445 b73c 6675 babd
00000080: 00ce ef3c 172c f03d ca9e dd3d cfaf 4e3e
00000090: 908a 09bc 575c 203d 963f c73c 2c81 a93d
000000a0: 6e12 44a9 1196 4cbd 5855 843d 1082 503d
000000b0: 4469 103c cf3a 53bd 7a8e 65bd 7226 08be
000000c0: 6ca9 823c dee5 e7bb 81a4 7bbe d672 cd96
000000d0: a7d7 49bd 2513 593c 9f15 883d 7c86 103d
000000e0: d28a c7bd af2d ab3c 81f6 0b3e 35ec 493e
000000f0: e565 ccbc 4d7a edbc 227b 2a3e cc12 90af
00000100: 07a6 29bb 7171 5dbe e4b6 5aba 2010 473e
00000110: dabf 733b f476 00bd 4bed 0d3d 1dc7 82bd
00000120: ddb5 833d 10bd 17ac 261a eebd 4ded 533c
00000130: aab6 23bc 53d2 0b3e 95c5 b7bc ed24 19be
00000140: 7579 7fbc 99c7 07be a7cc d4bc f5e4 23be
00000150: b110 b0bd c8cc c0b6 dabd 2bbd 1a88 b5b9
00000160: 2286 ab3d 82ad 89bd 2b41 7d3d 334b 3dbe
00000170: bee9 00be 63be 84b3 249a cd3d d60c 41be
00000180: 1198 f03d 2d08 183e 4a0b b3bd 20a3 b5be

fc2.weight f4 [128, 100]
0.3380297 -0.58015704 -0.019013336 0.047597572 -0.07171324 -0.01895552 -0.3004987 2.4795598e-16
-0.08176478 -0.102476425 0.046186507 -6.298062e-05 0.3540382 0.25979307 -0.023864713 -0.032855865
-0.00047278017 -0.06750452 -0.0046333135 -3.893094e-05 0.003953778 -8.215635e-38 0.0022902603 4.9312e-41
0.38667777 -0.062759526 -0.19043876 0.16742812 -0.040443752 2.9365423e-14 0.062123463 -0.1935991
0.19252189 0.077248015 -0.25643793 0.115347706 0.6388119 -0.023345672 0.15833081 0.203967
1.4700145e-29 -0.13027136 -0.12605073 0.054070786 -0.22106685 -0.07456189 -0.1530657 -0.1550063
0.10034057 0.24859487 0.06897038 9.363492e-26 0.019793546 -0.13588077 -0.4162017 -0.0082035465
-0.1354565 0.49141967 0.07580411 -0.65354663 0.14095157 0.646897 0.33570132 -1.8231399e-38
4.0959606e-18 0.1701677 -1.284049e-05 0.17311761 -0.07347815 0.010996336 0.41489488 -0.16121982
0.093008205 -4.9078e-41 -0.2685787 -0.102253385 -0.002738627 -0.36913195 -0.10195183 0.23466557
0.017934235 -0.23145826 -0.002754594 0.27086812 -0.22165301 -5.0633e-41 0.027176933 4.4632853e-07
0.29337475 0.34658396 -0.26607493 0.24803837 0.38195735 8.3219754e-13 -0.11435616 -0.31012166
0.064640634 -0.13343476 0.17769448 0.69313663 -0.063607685 0.20985723 0.30592528 -0.043312076
0.32697242 -0.10248506 0.03116468 -4.661788e-12 0.27447915 0.052883327 -0.053168334 -0.013447768
-0.43705422 -0.2929272 -0.0073812497 0.13139276 -0.33058822 0.045743797 -0.003378454 -9.9291596e-05
-0.010014993 2.2285627e-35 0.015685894 -4.9141e-41 -0.10196258 -0.64792305 0.3090891 -0.20917782
0.12495818 -8.698841e-11 0.017794892 0.09762944 -0.18932535 0.0075231367 0.13106163 0.29519546
0.016191896 -0.013420021 -0.013610166 0.1913224 -3.68293e-40 -0.06290724 -0.034720533 -0.17747656
-0.24874802 0.020824915 -0.0030739433 0.053981505 -0.20583333 -0.10418002 -0.11695789 2.1164406e-25
0.0030879085 0.16677727 -0.42558154 0.14840384 -0.018007966 0.13338105 0.24371032 0.35355365
-0.14348036 -0.64730096 0.08871893 -6.92723e-40 0.0007680392 -0.067165375 3.0354997e-06 0.042293865
0.5172607 0.013579595 0.18999313 -0.05136462 -0.19421932 -4.9128e-41 0.13996255 0.3864942
-0.00046802915 -0.2927368 0.14136638 -0.48566112 -0.34272683 -0.027498955 0.016294366 -0.3747956
0.49874386 4.9343e-41 0.19125436 -5.570227e-14 -0.019107973 0.2940406 -0.05637151 0.21561822
-0.020035442 -8.277624e-10 -0.15924592 -0.027278025 0.15014775 0.06491335 -0.11623421 0.09322794
-0.3351422 -0.5350164 -0.054415125 0.021092013 -0.1817241 0.15262341 0.08170553 4.3768546e-19
-0.18892735 0.18383591 -0.09966933 0.046823714 -0.21091907 0.38027254 0.02773884 -0.06883715
0.2057411 0.13954145 -0.001984702 1.5645065e-07 0.004205556 -4.2608954e-27 -0.007408075 3.9047e-41
0.14240582 -0.27324945 -0.17995769 -0.06865599 0.19899106 6.053016e-17 -0.10577289 -0.011418675
0.05124969 0.045863707 -0.13721523 -0.035014145 0.19743897 0.003646561 0.3220269 -0.054421917
1.381851e-32 0.0009543767 -0.012122539 0.40281188 -0.20595211 -0.037478697 0.14792366 -0.060401123
0.0021139605 -0.12478278 -0.19087294 3.640368e-27 -0.030449508 -0.16542351 -0.24063653 -0.048499998
00000000: 3b12 ad3e 2c85 14bf dbc1 9bbc acf5 423d
00000010: 64de 92bd 9b48 9bbc f7da 99be d8ef 8e25
00000020: 4b74 a7bd 29df d1bd 102e 3d3d 7714 84b8
00000030: 7f44 b53e 9903 853e ee7f c3bc df93 06bd
00000040: 7bdf f7b9 cf3f 8abd 0dd3 97bb c749 23b8
00000050: b28e 813b 9fa6 df81 3118 163b 7689 0000
00000060: a1fa c53e 1188 80bd 6102 43be 4772 2b3e
00000070: 59a8 25bd 0740 0429 2c75 7e3d d83e 46be
00000080: 7524 453e 3534 9e3d d54b 83be 6b3b ec3d
00000090: 2d89 233f 6c3f bfbc 7921 223e badc 503e
000000a0: c213 950f db65 05be 7113 01be 5479 5d3d
000000b0: 595f 62be e7b3 98bd 41bd 1cbe f9b9 1ebe
000000c0: 5b7f cd3d a78f 7e3e 5840 8d3d 2ed4 e715
000000d0: 1326 a23c 5424 0bbe 6418 d5be 2b68 06bc
000000e0: 1cb5 0abe 5c9b fb3e 2f3f 9b3d d54e 27bf
000000f0: 9c55 103e 0b9b 253f 0be1 ab3e b985 c680
00000100: 411d 9722 7140 2e3e 7c6d 57b7 be45 313e
00000110: b67b 96bd fa29 343c 1a6d d43e cf16 25be
00000120: 167b be3d cf88 0080 2683 89be 396a d1bd
00000130: 897a 33bb ddfe bcbe 1fcc d0bd 2c4c 703e
00000140: d1ea 923c 6503 6dbe 6b86 34bb 3aaf 8a3e
00000150: 02f9 62be 258d 0080 29a2 de3c ed9e ef34
00000160: 3735 963e 7473 b13e f93a 88be c5fd 7d3e
00000170: ea8f c33e 273e 6a2b 9033 eabd 44c8 9ebe
00000180: 4f62 843d 1fa3 08be 8bf5 353e 6771 313f
00000190: bf44 82bd d0e4 563e 3da2 9c3e 0168 31bd
000001a0: ee68 a73e b0e3 d1bd 124d ff3c a705 a4ac
000001b0: 8888 8c3e 309c 583d 0ac7 59bd 0754 5cbc
000001c0: 92c5 dfbe 8efa 95be 69de f1bb d38b 063e
000001d0: dc42 a9be d95d 3b3d 0d69 5dbb c53a d0b8
000001e0: ed15 24bc 3ffb ec05 b47f 803c fc88 0080
000001f0: c2d1 d0bd 49de 25bf ed40 9e3e b632 56be
00000200: 13ea ff3d 1f4a bfae 98c6 913c f2f1 c73d
00000210: 81de 41be a584 f63b 0535 063e dc23 973e
00000220: dea4 843c a6df 5bbc 2cfd 5ebc 05ea 433e
00000230: a702 0480 83d5 80bd 1e37 0ebd 6abc 35be
00000240: cdb7 7ebe 0399 aa3c 3674 49bb b61b 5d3d
00000250: f9c5 52be 565c d5bd 9e87 efbd 5700 8316
00000260: 825e 4a3b a9c7 2a3e d3e5 d9be 2df7 173e
00000270: 7185 93bc 0b95 083e 338f 793e fc04 b53e
00000280: 84ec 12be 84b5 25bf 45b2 b53d 088b 0780
00000290: 3d56 493a 008e 89bd 7db5 4b36 553c 2d3d
000002a0: 326b 043f f37c 5e3c 8f8d 423e b563 52bd
000002b0: 6ee1 46be f388 0080 5852 0f3e 91e2 c53e
000002c0: cf61 f5b9 99e1 95be 59c2 103e 93a8 f8be
000002d0: e479 afbe 7d45 e1bc c37b 853c 35e5 bfbe
000002e0: 5b5b ff3e 8c89 0000 2fd8 433e 58dc 7aa9
000002f0: 5388 9cbc 7d8c 963e d0e5 66bd 06cb 5c3e
00000300: 5e21 a4bc 9a88 63b0 5d11 23be 2a76 dfbc
00000310: 55c0 193e 4af1 843d 340c eebd 4aee be3d
00000320: c297 abbe d6f6 08bf 65e2 5ebd 28c9 ac3c
00000330: e215 3abe 5049 1c3e 3b55 a73d 942e 0121
00000340: 2c76 41be 7b3f 3c3e 6f1f ccbd 39ca 3f3d
00000350: 2bfb 57be 15b3 c23e 903c e33c 7efa 8cbd
00000360: cbad 523e f4e3 0e3e c611 02bb d4fc 2734
00000370: c3ce 893b 9dca a893 70bf f2bb d96c 0000
00000380: d5d2 113e 5ae7 8bbe d446 38be 839b 8cbd
00000390: 50c4 4b3e b392 8b24 759f d8bd 6515 3bbc
000003a0: 32eb 513d 95db 3b3d 2682 0cbe fe6a 0fbd
000003b0: 712d 4a3e 24fb 6e3b b6e0 a43e 84e9 5ebd
000003c0: e77f 8f0a 232f 7a3a 9d9d 46bc 5c3d ce3e
000003d0: 1ce5 52be 4383 19bd 4d79 173e 2b67 77bd
000003e0: 5f8a 0a3b 1d8e ffbd 3274 43be b835 9013
000003f0: 3f71 f9bc c864 29be 6c69 76be efa7 46bd

fc2.bias f4 [128]
-0.037810262 0.071841724 -0.092621244 0.004635259 0.0732296 -0.071297705 -0.026040904 0.106412165
-0.06103699 -0.06254899 -0.057313997 0.11904272 -0.054370873 -0.0843499 0.17778657 0.053920556
-0.091317095 0.10930594 -0.059129726 -0.08627892 0.022309193 -0.28445002 -0.19067092 -0.22727805
0.0039299475 -0.07033324 -0.072520174 -0.034052324 -0.10637529 -0.058447078 -0.11280831 0.10601313
-0.005971298 0.03683511 -0.08954915 -0.0032199079 -0.069822855 0.056703668 -0.016236816 0.024004918
-0.13613227 -0.08686247 0.21820639 0.051917396 -0.12106272 -0.029270014 -0.02657849 0.08859234
-0.042034794 0.14944266 0.11647879 -0.13224491 -0.1485395 -0.12896056 0.062080227 0.07369206
0.13077359 -0.0016645226 -0.091687456 -0.051712308 -0.12328188 -0.034523077 -0.025498446 -0.009404249
0.08273816 -0.13382629 0.14259085 0.021365518 0.044419874 -0.023458337 -0.0051507116 0.106842384
-0.092400275 -0.032222826 0.13117412 -0.012626659 0.01974619 -0.007687527 -0.2512868 0.025418099
0.04155398 -0.13994388 0.13466357 -0.23189835 0.19775215 -0.068221696 0.0798807 0.00046299995
0.048234448 -0.016231673 0.10663309 0.12789942 -0.110939465 0.062262494 0.08933971 -0.19848241
-0.11808733 0.1413737 -0.04667933 -0.071725935 -0.039148517 0.10891232 0.021155503 0.045081485
-0.09579904 -0.028414939 -9.671029e-05 0.09262238 -0.026221817 -0.031176295 -0.07893313 -0.11124242
0.08177923 0.0795268 -0.13014935 -0.07496693 -0.017991684 -0.014629478 -0.17440695 -0.11661223
0.102640286 0.18343385 0.08819008 0.03592741 0.033358417 -0.01663124 0.103395894 0.041016776
00000000: efde 1abd c121 933d 35b0 bdbd 5fe3 973b
00000010: 67f9 953d 8804 92bd bc53 d5bc 9fee d93d
00000020: ec01 7abd af19 80bd 15c2 6abd abcc f33d
00000030: feb3 5ebd a4bf acbd af0d 363e cddb 5c3d
00000040: 7504 bbbd cbdb df3d 0332 72bd 01b3 b0bd
00000050: c5c1 b63c 6fa3 91be 3d3f 43be 94bb 68be
00000060: cac6 803b e00a 90bd 7585 94bd 737a 0bbd
00000070: 4adb d9bd 3466 6fbd 0b08 e7bd 691d d93d
00000080: e1aa c3bb 6ae0 163d 8b65 b7bd 1705 53bb
00000090: 49ff 8ebd 1b42 683d 1203 85bc f6a5 c43c
000000a0: 4266 0bbe f3e4 b1bd 7f71 5f3e 56a7 543d
000000b0: bbef f7bd abc7 efbc 22bb d9bc e76f b53d
000000c0: ad2c 2cbd 7f07 193e 6f8c ee3d 366b 07be
000000d0: bd1a 18be 3d0e 04be d647 7e3d ddeb 963d
000000e0: 83e9 053e 1c2c daba a2c6 bbbd 49d0 53bd
000000f0: 367b fcbd 1268 0dbd 1ee2 d0bc 4714 1abc
00000100: a072 a93d c209 09be 5603 123e bd06 af3c
00000110: 9df1 353d b32b c0bc 4dc7 a8bb 2ed0 da3d
00000120: 5b3c bdbd 15fc 03bd 8252 063e 0ce0 4ebc
00000130: c3c2 a13c a7e7 fbbb aaa8 80be 9e39 d03c
00000140: 8234 2a3d 734d 0fbe 3fe5 093e c376 6dbe
00000150: 8a7f 4a3e d1b7 8bbd 7e98 a33d cdbe f239
00000160: 7c91 453d 49f8 84bc 7362 da3d 11f8 023e
00000170: 3b34 e3bd f506 7f3d bdf7 b63d f93e 4bbe
00000180: c5d7 f1bd 44c4 103e d332 3fbd 0ce5 92bd
00000190: 325a 20bd 6c0d df3d 4e4e ad3c 5da7 383d
000001a0: 4932 c4bd 72c6 e8bc f1d0 cab8 cdb0 bd3d
000001b0: 23cf d6bc 6e65 ffbc b1a7 a1bd 11d3 e3bd
000001c0: de7b a73d f2de a23d df45 05be 4388 99bd
000001d0: 4c63 93bc 7ab0 6fbc bc97 32be 65d2 eebd
000001e0: 1235 d23d 15d6 3b3e 009d b43d 9f28 133d
000001f0: d6a2 083d 3d3e 88bc 3ac1 d33d 3501 283d

fc3.weight f4 [53, 128]
0.15704201 -0.2765176 0.19952194 0.16126962 0.35211867 0.14432746 0.052770574 -0.33564064
-0.10384589 0.09109377 0.41170603 0.01977565 0.42296302 0.18168363 -0.08198623 0.14332502
-0.17600504 0.3810771 -0.3762335 -0.06420271 0.07472913 0.10199976 -0.066021144 -0.109153904
0.4919171 -0.34876463 -0.32567167 -0.23693645 0.30375278 -0.086594686 0.18971758 0.016828103
-0.64421004 0.03365668 0.4065895 0.365152 0.40212774 0.22692834 -0.9972822 -0.001824926
-0.33340338 0.02139304 -0.61972725 0.25608635 0.5306677 0.12152638 -0.3898438 0.34840298
-0.28237858 -0.5306746 0.45325395 0.25904366 -0.3844422 0.44307515 -0.389909 0.2977087
-0.08477787 0.12886828 0.1368223 -0.5663909 0.1556721 -0.15642625 -0.51538223 0.33461145
-0.03796849 0.16357517 0.4299853 0.037514206 0.077579744 -0.073738515 0.27575737 0.400717
0.27555478 -0.23709628 0.37888122 0.12065641 -0.06779369 0.44783673 -0.07531416 0.12460718
-0.494319 -0.06448471 0.043237768 -0.0028570155 -0.23441766 0.38707632 0.6492672 -0.13673154
-0.15760589 0.27193892 0.15939555 -0.43537274 0.44718936 -0.78230524 -0.21920396 -0.23215535
-0.07149222 0.5522655 0.30216026 -0.18042815 0.0063983393 0.04836836 -0.08396347 0.07844593
0.6481095 0.19286269 0.1638031 0.2806984 0.4521833 0.34225804 -0.23644666 0.2293481
-0.14556547 0.30258128 0.6509696 -0.07078145 -0.21194291 -0.18329422 -0.19446547 -0.10596688
-0.0086634355 0.08069395 -0.26885846 0.0015687104 -0.5198236 0.017995646 0.08764424 -0.5335226
-0.20374213 -0.05298556 -0.32799414 -0.15756698 -0.21424772 0.19714037 -0.132693 -0.21284015
-0.34103042 -0.24503107 0.53419244 0.08207024 0.4094284 0.04464257 -0.18944377 -0.29996696
-0.016204696 0.3472654 -0.21124642 0.12839659 0.14377637 -0.021871263 -0.24961518 -0.114235684
0.14353533 -0.3178399 0.086967096 0.20528738 0.05852962 -0.065591104 -0.17822485 0.31740087
-0.5346987 -0.38461557 -0.2452733 -0.12118082 -0.0465491 0.15733093 -0.5421718 0.33857644
-0.23014636 -0.5182071 -0.513097 -0.27140766 0.06489141 -0.28356615 -0.10886514 -0.04112385
0.116920725 -0.61885065 0.24928293 -0.17970747 -0.27487788 0.17131902 0.019782702 0.30043238
0.07147637 0.02317129 0.12001182 -0.4393607 0.41840747 -0.047098193 -0.03485564 -0.106353104
0.2154722 0.44875056 0.336622 0.30625954 0.24486394 -0.11355897 0.15661822 -0.020996714
0.33664405 -0.28506315 0.6046815 0.060694624 0.35594687 -0.14271925 0.18240854 -0.160986
0.07448367 -0.044609014 0.003919012 -0.03060151 -0.018177275 0.33033016 0.4800544 0.20802055
0.09042904 -0.006737454 0.09187454 0.050440777 -0.05241223 -0.7507196 -0.16614045 -0.11336765
0.057992086 0.5602306 -0.13634554 0.33532798 -0.18061823 0.048048764 0.20570888 -0.42940515
-0.04251073 -0.31086662 -0.16441542 -0.045393776 0.35381076 0.06399218 -0.051636674 0.10213317
0.18530193 -0.087820016 0.13076763 -0.37045586 -0.2707843 -0.18021849 -0.055358477 -0.22760004
0.054537456 -0.00986061 0.071563475 -0.22748533 -0.30207717 -0.467932 0.23559043 0.046346515
00000000: 9fcf 203e b793 8dbe 7b4f 4c3e dd23 253e
00000010: e648 b43e 94ca 133e f525 583d 17d9 abbe
00000020: 27ad d4bd 5f8f ba3d 22cb d23e 8b00 a23c
00000030: 9c8e d83e 460b 3a3e 66e8 a7bd cbc3 123e
00000040: aa3a 34be 8a1c c33e ada1 c0be b67c 83bd
00000050: 960b 993d 40e5 d03d 1836 87bd 158c dfbd
00000060: 8fdc fb3e 4791 b2be 70be a6be 789f 72be
00000070: 7c85 9b3e 8e58 b1bd 5345 423e 17db 893c
00000080: f3ea 24bf 96db 093d 802c d03e 34f5 ba3e
00000090: b0e3 cd3e e75f 683e e34d 7fbf 5b32 efba
000000a0: d9b3 aabe 7540 af3c 72a6 1ebf c01d 833e
000000b0: d7d9 073f d3e2 f83d 9b99 c7be e061 b23e
000000c0: ed93 90be 4ada 07bf e710 e83e 5fa1 843e
000000d0: 9cd5 c4be bfda e23e 27a2 c7be 466d 983e
000000e0: 05a0 adbd 0cf6 033e 251b 0c3e fefe 10bf
000000f0: 8268 1f3e 342e 20be 17f0 03bf 3152 ab3e
00000100: d984 1bbd 4080 273e 0927 dc3e 7fa8 193d
00000110: 21e2 9e3d 3804 97bd 1230 8d3e c72a cd3e
00000120: 8415 8d3e 5ec9 72be b8fc c13e b51a f73d
00000130: 6bd7 8abd db4a e53e 4f3e 9abd 0d32 ff3d
00000140: 6117 fdbe 8f10 84bd 161a 313d c43c 3bbb
00000150: 2f0b 70be de2e c63e 6036 263f 5a03 0cbe
00000160: 7063 21be 943b 8b3e 9638 233e 2de9 debe
00000170: 01f6 e43e 2845 48bf 0177 60be 22ba 6dbe
00000180: 836a 92bd 4661 0d3f c0b4 9a3e 28c2 38be
00000190: 29a9 d13b e71d 463d 0af5 abbd 42a8 a03d
000001a0: 81ea 253f cc7d 453e 00bc 273e b3b7 8f3e
000001b0: 9284 e73e 723c af3e 131f 72be 3ada 6a3e
000001c0: 1d0f 15be efeb 9a3e f2a5 263f ddf5 90bd
000001d0: 9007 59be 7bb1 3bbe f521 47be 2a05 d9bd
000001e0: 15f1 0dbc df42 a53d d1a7 89be 309d cd3a
000001f0: 2913 05bf 9b6b 933c d37e b33d f094 08bf
00000200: c7a1 50be 6307 59bd d9ee a7be 3d59 21be
00000210: c163 5bbe 2adf 493e ace0 07be c5f2 59be
00000220: 8a9b aebe 6de9 7abe d6c0 083f 7114 a83d
00000230: 99a0 d13e 21db 363d 8cfd 41be 4595 99be
00000240: b6bf 84bc c5cc b13e fb50 58be 657a 033e
00000250: 1d3a 133e 5d2b b3bc 1f9b 7fbe 66f4 e9bd
00000260: edfa 123e e9bb a2be ce1b b23d db36 523e
00000270: c1bc 6f3d a154 86bd 9380 36be 5e82 a23e
00000280: 04e2 08bf 55ec c4be ed28 7bbe a62d f8bd
00000290: 45aa 3ebd 5c1b 213e c5cb 0abf e459 ad3e
000002a0: 7dab 6bbe 38a9 04bf 535a 03bf f2f5 8abe
000002b0: cae5 843d 952f 91be b0f4 debd 7b71 28bd
000002c0: 2274 ef3d ff6c 1ebf 0644 7f3e 3c05 38be
000002d0: cbbc 8cbe 416e 2f3e 550f a23c 46d2 993e
000002e0: 3462 923d b8d1 bd3c c2c8 f53d e3f3 e0be
000002f0: 8139 d63e 09ea 40bd cac4 0ebd a8cf d9bd
00000300: bfa4 5c3e a2c2 e53e b859 ac3e 0dce 9c3e
00000310: 9dbd 7a3e 9b91 e8bd 8760 203e 4d01 acbc
00000320: 9c5c ac3e ccf3 91be 68cc 1a3f ed9a 783d
00000330: ab3e b63e ff24 12be 4ec9 3a3e 84d9 24be
00000340: e58a 983d f1b7 36bd 0e6b 803b 05b0 fabc
00000350: 82e8 94bc 0921 a93e b1c9 f53e 5703 553e
00000360: dc32 b93d dcc5 dcbb b828 bc3d fd9a 4e3d
00000370: 35ae 56bd 292f 40bf b920 2abe 4c2d e8bd
00000380: 1c89 6d3d 466b 0f3f 2a9e 0bbe 1cb0 ab3e
00000390: fcf3 38be c8ce 443d 59a5 523e feda dbbe
000003a0: bb1f 2ebd e929 9fbe 845c 28be d3ee 39bd
000003b0: af26 b53e 550e 833d fa80 53bd 322b d13d
000003c0: cabf 3d3e fbda b3bd f3e7 053e 64ac bdbe
000003d0: 3da4 8abe 328b 38be 92bf 62bd fc0f 69be
000003e0: ab62 5f3d 658e 21bc df8f 923d eaf1 68be
000003f0: dca9 9abe c894 efbe 9e3e 713e d8d5 3d3d

fc3.bias f4 [53]
-0.1676853 -0.22568913 0.23236997 -0.21842705 -0.026168115 0.13593538 -0.027911179 -0.015990015
-0.026896507 0.010200905 -0.034498952 -0.005664236 0.084432445 -0.040915187 0.25341752 -0.057198644
-0.1635263 -0.017884918 0.18356778 0.07178056 -0.0235001 -0.21970275 -0.06973519 0.041932855
-0.14226396 -0.1673284 0.037900396 -0.124861285 0.14367826 0.14418538 0.18743359 0.0323393
0.08857732 0.04673533 0.12772946 -0.09172015 -0.10268595 0.056243613 0.14121263 -0.0077698575
0.0964428 -0.14252393 -0.02479329 -0.34028754 -0.07367777 -0.023323264 0.16532435 -0.23275116
0.007131239 -0.12895651 0.052585457 -0.026635462 0.094651766
00000000: b2b5 2bbe 0d1b 67be 65f2 6d3e 57ab 5fbe
00000010: 845e d6bc a532 0b3e fca5 e4bc 7efd 82bc
00000020: 1056 dcbc b221 273c c64e 0dbd 0e9b b9bb
00000030: ebea ac3d af96 27bd f1bf 813e 2049 6abd
00000040: 7073 27be 6483 92bc 31f9 3b3e b001 933d
00000050: 4883 c0bc c2f9 60be 53d1 8ebd c9c1 2b3d
00000060: a5ad 11be 2358 2bbe 723d 1b3d 46b7 ffbd
00000070: 6520 133e 55a5 133e 97ee 3f3e 3776 043d
00000080: 0768 b53d 8c6d 3f3d 83cb 023e c6d7 bbbd
00000090: 034d d2bd b45f 663d 0b9a 103e 4a9a febb
000000a0: cd83 c53d cbf1 11be 4c1b cbbc 2b3a aebe
000000b0: 5fe4 96bd 6e10 bfbc c94a 293e 5256 6ebe
000000c0: 2bad e93b 2d0d 04be d963 573d 9d32 dabc
000000d0: c9d8 c13d
