card_recognition/model.pth (torch, 326826 bytes, 18 tensors)

conv1.weight f4 [32, 3, 5, 5]
000000 23 cd 7a 3e 43 a7 90 3e c3 07 c7 3d bb 1c 0b 3e
       0.24492316 0.2825261 0.09718277 0.13585179
000010 1d ac 9b 3d f0 2e b2 3e 9f 06 40 3e 74 81 30 3e
       0.076011874 0.34801435 0.18752526 0.17236882
000020 14 67 12 3e d1 09 2f 3e 56 c6 4a 3e 4f e4 0a 3e
       0.14297134 0.17093588 0.19802222 0.13563655
000030 57 70 10 3e a2 dd 18 3e d4 5e 2b 3e 13 ae 1c 3e
       0.14105354 0.14928296 0.16735393 0.15300779
000040 66 36 23 3e dd a8 a6 bd 4a b9 85 3d bf bf d0 bd
       0.1593872 -0.08137677 0.06529482 -0.10192823
000050 5f 7f 96 3d 36 29 4d 3d f7 7e 99 bd a5 65 ff 3d
       0.07348513 0.05008813 -0.0749492 0.12470559
000060 b1 f1 66 bc 6a cd ea 3d e1 00 1d be 19 ab 73 be
       -0.01409571 0.11464961 -0.15332367 -0.23795737
000070 ea 7b 6c be 77 47 42 be bd 88 26 3d 01 26 69 bc
       -0.23094144 -0.18972574 0.040657748 -0.014230252
000080 f0 45 1a bd 45 44 34 bc 53 e1 8d 3c a1 da 0a be
       -0.037664354 -0.011002605 0.017319357 -0.13559963
000090 d6 27 29 be 24 3d b5 bd 17 3c 92 bc c2 69 b1 bd
       -0.16519102 -0.08849552 -0.017850919 -0.0866275
0000a0 b2 97 9f bd a6 a3 b4 bc cf 38 73 be 86 63 04 bc
       -0.077926055 -0.02205069 -0.2375214 -0.008080369
0000b0 4f 15 11 be 83 92 9c bb a9 28 44 3d 76 b6 29 be
       -0.14168285 -0.0047782077 0.04789034 -0.1657351
0000c0 f3 8a b4 bd 78 c1 92 be 3f b4 ab bc 9e 42 2b bd
       -0.08815565 -0.2866323 -0.020959971 -0.041811578
0000d0 76 43 5a be ce 85 3a be 1a a9 0e be 69 17 15 bd
       -0.21314797 -0.18215105 -0.13931695 -0.03639928
0000e0 06 93 0e 3c 11 8c b2 bd fc 43 e3 bd cd 1d 8f bd
       0.008702045 -0.08718122 -0.11096951 -0.06988106
0000f0 c5 04 5c bd 00 aa 47 be 4a 00 a2 bd 2e e6 17 be
       -0.053715486 -0.19498444 -0.079102114 -0.148339
000100 af 1b 2e bd 4e cf fd bd 82 ab ae bb f6 42 20 be
       -0.04250687 -0.12393056 -0.005330504 -0.15650544
000110 c4 67 86 bd 8e 38 0b be a4 90 09 be c6 bc 8f bd
       -0.065627605 -0.13595793 -0.13434082 -0.070184276
000120 09 0f 3f be 1d 5f ba bd 6b cb 38 be 22 c6 df bd
       -0.18658079 -0.09100173 -0.18046348 -0.10926463
000130 55 67 ba bd 91 a7 9c bd 92 20 25 3d 22 02 17 bd
       -0.0910174 -0.07649148 0.040314265 -0.03686727
000140 96 6c 76 be b6 f3 58 be c1 a8 3f 3d ce d3 ee 3c
       -0.2406486 -0.21186718 0.046791796 0.02915373
000150 37 85 2d 3d 22 19 5a be 26 36 3e be 40 5d 1d 3c
       0.04236337 -0.2129865 -0.18575343 0.009604752
000160 84 b3 3b 3e 51 a9 20 3e 33 21 5a be 2a 28 ef bd
       0.18330199 0.15689589 -0.21301727 -0.116775826
000170 dd 2e 07 bd 3a 9b 61 3e 8b d5 6f 3e 6f 32 f5 bd
       -0.033003677 0.2203187 0.23421304 -0.1197251
000180 d4 92 db bc f5 05 8e bc 17 b9 ce 3d e3 d2 27 3e
       -0.026803412 -0.017336825 0.10093897 0.1638904
000190 24 de 97 be 65 0b fc bd 39 85 8f 3d 2d 91 8a 3d
       -0.29661667 -0.12306861 0.07007832 0.06765971
0001a0 53 0d 30 bd be 69 86 be 4c 9b 70 be c0 d7 5c 3c
       -0.042981457 -0.2625255 -0.23496741 0.013479173
0001b0 d8 f9 05 3e db d6 db 3c 88 3e 2b be ff 25 8d be
       0.13083589 0.02683585 -0.16723073 -0.2756805
0001c0 ab 2a 87 3c dc 5c 3c 3e bd a9 cf 3d 6f 84 33 be
       0.016499838 0.18394798 0.10139797 -0.17530988
0001d0 f3 d8 c9 bd 95 58 12 bd a3 2b b4 3d 8d 79 14 3e
       -0.09855833 -0.03572901 0.087973855 0.14499493
0001e0 00 f7 09 be 1d d2 8f bd 97 7f 1d be 68 88 20 bc
       -0.1347313 -0.07022498 -0.15380703 -0.009798147
0001f0 80 68 8b 3d 97 03 8a be 59 18 1c be 63 c8 67 3d
       0.06807041 -0.26955864 -0.15243663 0.056587588
000200 0c b8 9a 3d 73 b4 93 bc 1c 53 42 be 8d cc 41 be
       0.075546354 -0.01803038 -0.18977016 -0.18925686
000210 69 dd ef 3d 82 a0 61 3e ae 0d 62 bd 1e d0 11 be
       0.117121525 0.22033885 -0.055188827 -0.14239547
000220 a7 06 5e be 91 e7 cc bc e3 b2 23 3e 3d 6a f9 3b
       -0.21682225 -0.025012763 0.15986209 0.0076115415
000230 4a 3f 64 be 70 a0 8d be f6 d1 9f bd d7 0f 12 3e
       -0.22289768 -0.27661467 -0.07803719 0.14263855
000240 48 6b d1 3d 90 e1 de bd 10 11 69 be 4a 29 f6 bd
       0.102255404 -0.108828664 -0.22760415 -0.12019594
000250 d1 89 a2 bc 30 eb 96 3d 7e 18 40 be aa 56 9e be
       -0.019841107 0.07369077 -0.18759343 -0.30925494
000260 32 65 2a be 36 39 a0 be c7 b8 7f bd 76 52 27 3e
       -0.16640165 -0.31293648 -0.062432077 0.1634005
000270 69 61 3f 3e 95 c7 73 3c 19 69 19 be 33 29 4e be
       0.18689503 0.014879127 -0.14981498 -0.20132904
000280 19 ae 90 3e c1 98 ef 3d d4 38 66 3e b1 21 a2 3d
       0.28257826 0.11699057 0.22482616 0.079165824
000290 ab b3 42 bd b7 d2 a0 3d df 0a 75 3e 62 b3 87 3e
       -0.047534626 0.07852691 0.23929928 0.26504046
0002a0 a2 dc ae 3d 35 42 7f bd e6 27 b4 bd db 8f 89 3d
       0.08538176 -0.062319 -0.087966725 0.067168914
0002b0 0c 5d 03 3e a7 bb c6 3d e2 f6 9f bd 4d b3 40 be
       0.12828463 0.097037606 -0.07810761 -0.18818398
0002c0 e6 e0 77 be 86 20 01 be 5b fb 23 be ef 85 e7 3d
       -0.24206886 -0.12610063 -0.16013853 0.11304843
0002d0 93 6a 7e bb fc b6 33 bc cc 14 0e 3d 1a 48 4f be
       -0.0038820847 -0.01096892 0.034687802 -0.20242348
0002e0 10 be 4a be 15 9c f5 3d aa fc ca 3d 59 8e 38 3d
       -0.19799066 0.11992661 0.09911473 0.04505763
0002f0 8b 86 5d be 13 6d 94 be f4 79 37 bd 28 4b db 3c
       -0.21633355 -0.28989467 -0.044794038 0.026769236
000300 49 ce bb 3d a2 e7 1d 3d 7e d3 6e be 4e e3 2a ba
       0.09170205 0.03855098 -0.23322865 -0.00065188564
000310 a6 a9 1d be 17 e7 bb 3d 6f 71 f9 3c 56 eb b8 bd
       -0.15396747 0.09174936 0.030449597 -0.09029262
000320 fe 6b 14 bd 0b 6d 82 be 9e 07 f8 bd 67 a1 f8 bd
       -0.036235802 -0.25473818 -0.12110828 -0.1214016
000330 4d cb 9d bd ef 28 cd 3d 4a fd dd bd f4 67 2c bd
       -0.07704792 0.10017573 -0.10839327 -0.042091325
000340 7c 98 06 be 7c fd e6 bd 31 79 dd ba 67 6c 10 3e
       -0.13144106 -0.11278817 -0.001689708 0.14103852
000350 81 15 6f bd 13 05 c1 bd 03 fe 88 be 95 6e 91 bd
       -0.058370117 -0.09424796 -0.26756296 -0.0710117
000360 30 a0 22 bc 7e ab 79 3d 91 88 11 be 9e 78 6e be
       -0.009925887 0.060954563 -0.14212252 -0.232882
000370 1f 12 ad bd bb 08 60 3d 67 c0 fd 3d bb 9c 5d bd
       -0.08450722 0.054695826 0.123902135 -0.054104548
000380 d5 b0 cd bc 16 ca b0 3c 7d b1 1f be 5b a9 87 be
       -0.025108734 0.021580737 -0.1559505 -0.26496395
000390 52 a1 27 be 19 dd 70 be 39 53 39 3e f4 41 3e 3e
       -0.16370133 -0.23521842 0.18098153 0.18579847
0003a0 c4 e3 ed 3c 83 d5 06 3e ab cb b7 3d 84 27 17 3e
       0.029039271 0.13167386 0.089743935 0.14761168
0003b0 5b 75 af 3d 13 71 ea 3d e4 13 06 3e 5d a4 eb 3d
       0.08567306 0.114473484 0.13093525 0.11505959
0003c0 97 97 f9 bd e4 53 d4 3c 45 55 ba bd b7 0d 95 bd
       -0.121871166 0.025918908 -0.09098295 -0.072780065
0003d0 3a 72 c8 bc 42 41 4a bd 12 12 54 bd 1d be c4 bc
       -0.02446853 -0.04937864 -0.051775046 -0.024016434
0003e0 e4 c2 e9 bd bc 46 14 be e6 d9 39 be 2e 6c 9b be
       -0.114141256 -0.14480108 -0.18149528 -0.30355972
0003f0 33 f9 b4 be e2 3a 34 be 34 a3 97 be 64 c0 cb 3d
       -0.35346374 -0.17600587 -0.29616702 0.09948805

conv1.bias f4 [32]
000000 31 9d 39 b9 4a c1 8e b9 1b f6 d7 39 e9 44 a2 39
       -0.00017701533 -0.00027228362 0.00041191358 0.0003095039
000010 a7 85 87 b8 cd 3c 9e b9 5c 03 a5 ba f2 88 bc b8
       -6.462196e-05 -0.00030181409 -0.0012589502 -8.9900466e-05
000020 10 43 65 39 21 9d 20 3a 1b 71 8b b9 16 ed a0 b8
       0.00021864125 0.00061269297 -0.00026596416 -7.673555e-05
000030 3b a4 0c 3a 59 98 08 b9 c7 59 ae b9 b4 70 25 b7
       0.00053650484 -0.00013026725 -0.00033254756 -9.861007e-06
000040 b4 2b 51 b9 c2 ec 87 3a 74 f5 96 39 5b a3 11 3a
       -0.00019948074 0.0010370242 0.00028793106 0.0005555653
000050 64 d3 d4 39 c3 01 48 3a d7 8c fc 3a 3f 00 01 3a
       0.0004059329 0.0007629657 0.0019268048 0.0004920996
000060 f8 0f 71 3a fc 76 37 ba 9d c6 f9 b8 df f5 35 b9
       0.00091958 -0.0006998626 -0.0001191024 -0.00017353099
000070 93 42 44 39 7f c9 65 b8 ab 2b 5b 3a 6f 68 54 39
       0.00018716817 -5.4785512e-05 0.0008360694 0.000202568

bn1.weight f4 [32]
000000 c7 16 43 3f ca 96 a7 3f 16 82 6a 3f c2 2f 89 3f
       0.7620663 1.3092892 0.91604745 1.07177
000010 40 5b 7d 3f c8 45 5b 3f 59 47 66 3f c4 c4 98 3f
       0.9896736 0.8565335 0.8995262 1.1935048
000020 58 e2 89 3f 36 de 40 3f 70 f5 41 3f 6d 31 54 3f
       1.07722 0.75339067 0.7576513 0.8288792
000030 44 d8 9a 3f 27 49 7a 3f 8e 3f 66 3f d4 28 3b 3f
       1.2097249 0.9776787 0.89940727 0.73109174
000040 fe e8 16 3f 86 50 8a 3f 8e 9d 5b 3f f4 54 74 3f
       0.5894927 1.0805824 0.85787284 0.9544213
000050 98 60 76 3f 81 b2 3d 3f 1b bf 84 3f 76 1f 78 3f
       0.9624114 0.741005 1.0370821 0.96923006
000060 33 74 55 3f a1 82 2a 3f e5 6b 78 3f ff e2 88 3f
       0.8338043 0.66605574 0.97039634 1.0694274
000070 d2 b1 3d 3f 88 c7 05 3f 2a a6 89 3f 32 c3 2a 3f
       0.7409946 0.52257586 1.0753834 0.66704094

bn1.bias f4 [32]
000000 d3 03 6b 3d 82 1f 48 bd f9 c9 0c be da 48 5e be
       0.057376694 -0.048858173 -0.13748921 -0.21707478
000010 49 1d 2f be 89 63 b7 bd 1e 6b 39 bc 46 23 51 be
       -0.17101015 -0.08954532 -0.011317043 -0.20423612
000020 8f 25 88 be 98 6e f2 3d e9 46 f4 bd 9a f3 1c be
       -0.26591155 0.118375 -0.119275875 -0.15327302
000030 15 dc 18 3b 2d a8 98 be ad 6a 61 be 9b 0b f2 bc
       0.0023324538 -0.29815808 -0.2201335 -0.02954655
000040 b9 db da 3c be 4d 65 be 15 8e 21 be 9c 27 62 be
       0.0267161 -0.22392938 -0.15776856 -0.22085422
000050 03 ee e7 3d 8a 07 94 be 0b 74 56 be 25 57 52 be
       0.11324694 -0.28912002 -0.20942704 -0.20541056
000060 9c 1e e0 3c 86 a4 cc be 63 a8 d5 bc a6 77 76 be
       0.027358346 -0.3996927 -0.02608127 -0.2406908
000070 34 bf e8 be f3 38 8b bd 79 ce 87 be b8 a1 b7 be
       -0.45458376 -0.067979716 -0.26524714 -0.3586557

bn1.running_mean f4 [32]
000000 a6 09 2f be 1f be 92 be d7 57 87 be 95 38 bd be
       -0.17093524 -0.28660676 -0.26434204 -0.3695723
000010 6c e0 ab be fa 2c 80 be cb 77 40 be 2a 32 95 be
       -0.33569658 -0.25034314 -0.18795697 -0.29139835
000020 c1 22 aa be d8 75 8e be e7 96 91 be dd 93 9c be
       -0.3322964 -0.27824283 -0.28435442 -0.3058156
000030 18 46 9e be 5f 7e b9 be 09 e8 b9 be 00 b1 82 be
       -0.30912852 -0.36229226 -0.3630984 -0.25525665
000040 82 e9 82 be 85 2b a9 be 91 88 9b be db a4 75 bd
       -0.25568777 -0.33041015 -0.3037763 -0.05997167
000050 ef a3 5e be 5a 73 c9 be e3 45 87 bd 3f 72 36 bf
       -0.21742223 -0.3934582 -0.06605127 -0.71268076
000060 bb ce 8c be a0 8b e9 3d 18 17 a7 be da 77 ba be
       -0.27501473 0.114035845 -0.32634807 -0.36419564
000070 3c 62 a1 be a5 64 7c be 37 69 b2 be c9 47 11 be
       -0.3152026 -0.24647768 -0.34845898 -0.1418754

bn1.running_var f4 [32]
000000 43 1e e3 3d 4b 14 c1 3e df f2 8b 3e 29 f5 e4 3e
       0.11089756 0.37710795 0.27333733 0.44718292
000010 15 79 c8 3e e7 1b 2b 3e 5a 87 0f 3e 35 54 92 3e
       0.39154878 0.16709863 0.14016476 0.2857987
000020 92 5f cc 3e 47 07 92 3e 0b 5a 84 3e cb 20 8c 3e
       0.39916664 0.28521177 0.25849947 0.2736877
000030 55 77 9f 3e 45 2a d1 3e 91 4e c6 3e ec 6d 44 3e
       0.3114573 0.40852562 0.38731816 0.19182557
000040 31 a2 51 3e 80 72 ba 3e 44 e7 76 3e 04 c8 1d 3c
       0.20472027 0.36415482 0.24111658 0.009630207
000050 b0 51 2b 3e 96 43 d3 3e d4 9d 89 3c 23 c4 4f 3f
       0.1673038 0.412625 0.016798891 0.81158656
000060 17 a5 91 3e 7b 78 d5 3d a5 48 c0 3e 3b b5 cc 3e
       0.28446266 0.104233705 0.37555423 0.39982018
000070 43 43 ad 3e bf 48 35 3e d3 a6 be 3e 0e 2d 78 3d
       0.3384038 0.17703532 0.37236652 0.060589842

conv2.weight f4 [64, 32, 5, 5]
000000 6a db cd 3c d7 d4 47 3b 2d 59 85 3c 91 0b 17 3d
       0.025129039 0.0030491853 0.016277874 0.036876265
000010 68 50 10 ba 48 01 88 bd 5e e9 76 bd 14 98 89 bd
       -0.00055051455 -0.066408694 -0.06028115 -0.0671846
000020 39 4e aa bd 92 56 05 be 49 8e 52 bd 63 d3 4c bc
       -0.08315701 -0.13021305 -0.051405225 -0.01250157
000030 c4 5a 5f bd e8 6e ea bd 57 e0 14 be 0d 1d 3b be
       -0.05452992 -0.11446935 -0.14538704 -0.182728
000040 67 c2 bd bd bf 47 8b bc 90 da d3 3d be 73 0b 3e
       -0.09265595 -0.017001985 0.10344422 0.13618371
000050 d4 1d a6 bd 91 98 dc bc 89 0b e8 bc 5c c8 53 3c
       -0.08111158 -0.026928218 -0.028325813 0.012926187
000060 9e 00 f6 3d d0 e2 f4 3d 40 cc cd 3d 9e 30 e7 3d
       0.120118365 0.119573236 0.10048723 0.1128857
000070 b1 ee c0 3d 4c 9f fd 3c 50 96 21 bd 8a 3b e4 bd
       0.09420527 0.030959748 -0.03944999 -0.11144169
000080 16 e1 c2 bd 3c 0e 88 bc ad 79 99 3d f9 39 09 3d
       -0.09515588 -0.01660835 0.07493911 0.033502553
000090 2e 30 f9 bc 0a 50 18 be bc 51 26 be 89 91 9f bd
       -0.030418482 -0.14874282 -0.16242117 -0.077914305
0000a0 d1 8c 9b 3d 35 7d b0 3d 5a 5d 08 3d 31 9d e9 bd
       0.07595218 0.08617631 0.033292152 -0.11406935
0000b0 2e c8 49 be e6 9e aa 3d 55 80 88 3d 02 51 a5 3d
       -0.19705269 0.08331089 0.066651024 0.08072092
0000c0 9b ef c9 3d b9 04 91 3d 58 0d 81 be 3b f2 da bd
       0.09860154 0.07080979 -0.25205493 -0.10690733
0000d0 22 c2 0e 3c 60 d0 c1 3c 9f 09 21 3e 06 de 47 bd
       0.008713277 0.023658931 0.15726326 -0.048795722
0000e0 59 4c a3 bd 55 e5 88 bc 34 08 bc 3d d8 cf 16 3e
       -0.079735465 -0.016710917 0.09181252 0.14727724
0000f0 e2 cd b3 3d e0 f7 8d 3d b6 90 87 3d 72 66 a8 3d
       0.087795034 0.06932044 0.06619398 0.08222665
000100 7f 90 55 3d 64 9c a3 bd 74 d4 d5 bd 2a 77 fd bd
       0.052139755 -0.079888135 -0.10440913 -0.12376244
000110 1f 9a 08 be 86 ef 81 be 86 ce 90 bc 06 d8 cc bd
       -0.13340043 -0.25378054 -0.017676603 -0.10002141
000120 4b c4 2f be 0e a3 33 be d4 cc 48 be 65 f8 15 be
       -0.17164724 -0.17542669 -0.19609386 -0.14645536
000130 90 2f 20 be 79 69 2a be 78 e0 f7 bd 82 ab 1a be
       -0.15643144 -0.16641797 -0.12103361 -0.15104488
000140 6a cd 76 3e 41 53 29 3e 49 9f 2a 3c a8 7f ec bd
       0.24101797 0.16535665 0.010413953 -0.11547786
000150 22 1e 6d be fa b5 f1 3c 6e 22 4d 3d 19 f0 a5 3d
       -0.23156026 0.029505718 0.050081663 0.081024356
000160 f2 71 43 3d fa 13 c9 bc f9 84 92 be 19 e6 07 be
       0.04771609 -0.024545658 -0.28617075 -0.13271369
000170 c4 99 c8 bb 0c d1 bc 3d 93 a6 38 3e b2 c0 79 be
       -0.006121846 0.0921956 0.18032293 -0.24389914
000180 5c 52 47 be 19 8a 5c be 40 30 f5 bd 02 9a ff 3c
       -0.19465011 -0.21537055 -0.119720936 0.031201366
000190 01 70 5a be 99 fa 74 be f5 eb 5b be 45 cd 53 be
       -0.21331789 -0.2392372 -0.21476729 -0.20683773
0001a0 f1 77 81 be 30 08 ab 3c e4 64 69 3d 47 38 6b 3c
       -0.2528682 0.020877928 0.056980982 0.014356679
0001b0 81 58 ab bd 71 80 42 be b7 3b ef 3d 69 3e dd 3d
       -0.0836649 -0.18994309 0.116813116 0.108029194
0001c0 e5 f8 27 3e 21 d2 0c 3d 73 29 03 bd c9 17 d3 3c
       0.1640354 0.034380082 -0.03202195 0.025768178
0001d0 c7 cc d2 3d 83 56 5f 3e 08 5b 60 3e e6 7c 85 3e
       0.102929644 0.21810345 0.21909726 0.26071852
0001e0 b9 67 6b be 68 71 2f be bc c9 46 bd 17 9e 10 3d
       -0.22988786 -0.17133105 -0.048532233 0.035307016
0001f0 9e 1f e7 3d 52 2e 52 3c ad 7b 9c 3d 32 0d 49 3e
       0.112853274 0.012828426 0.07640777 0.1963394
000200 f4 29 55 3e 28 5e 26 3e f2 c4 cc bd 47 ac 22 be
       0.20816785 0.16246855 -0.09998502 -0.15886031
000210 eb 62 d6 bd e2 84 a6 bc f9 b4 62 3d d7 9a 5e bc
       -0.10468086 -0.020327035 0.05534837 -0.013586721
000220 06 d5 ba bd 7c 1b 12 be b1 60 39 be 7e 1e 1a be
       -0.09122662 -0.14268297 -0.18103291 -0.15050694
000230 0b ef f8 3d d7 42 9e 3d 0f 05 02 3d c9 d3 77 bd
       0.12154969 0.077275924 0.031743106 -0.06050471
000240 2e 8b 1d be 8f 43 69 3e 60 33 5e 3e 20 7d 42 3e
       -0.15385124 0.22779678 0.21699286 0.18993044
000250 ef a2 18 3e be d9 99 3d 97 70 15 be 4d e3 09 be
       0.14905904 0.07512234 -0.14593731 -0.13465615
000260 fb 01 1c be 73 64 1d be c0 f7 4b be a4 0d 0f be
       -0.1523513 -0.1537035 -0.19918728 -0.13970047
000270 44 ba 4c bd ce a4 2f bd ea 56 f7 bd 29 53 64 be
       -0.049982324 -0.04288178 -0.120771244 -0.22297348
000280 6b 42 74 bd 93 72 21 bd aa 68 12 3d c7 15 4e 3b
       -0.059633654 -0.039415907 0.035744347 0.0031446086
000290 8b f3 8b bc 51 24 0c 3d 90 e8 03 3d 42 c5 d6 3d
       -0.017083904 0.03421432 0.03220421 0.10486843
0002a0 fc 88 d6 3d 7c c4 30 3e 14 9f dd 3c 22 3f 69 3b
       0.104753464 0.17262453 0.027053393 0.0035590609
0002b0 f9 99 4b bc 29 71 78 3c 8e cb 6c 3d 67 cc 3b 3e
       -0.012426847 0.015163698 0.057811312 0.18339692
0002c0 7c 0a 62 3e 54 95 86 3e 35 61 10 3e 28 5d 81 3d
       0.22074312 0.26285803 0.14099582 0.06316596
0002d0 6c 38 00 be e7 ee 22 3d 8b ff 01 3e ce 92 d8 3d
       -0.12521523 0.039778616 0.12695138 0.10574876
0002e0 08 47 c1 3c 3f c2 f0 bd 74 a2 1a be 99 89 b9 bd
       0.02359344 -0.117557995 -0.15101033 -0.09059448
0002f0 27 fa 49 3d 4c 3a e2 3d 75 f6 ba 3d 5f c2 e9 3b
       0.04931083 0.110462755 0.09129039 0.0071337665
000300 e5 3c 0a be 70 b0 0e be 06 c5 ab 3c e8 ac 8d 3c
       -0.13499792 -0.13934493 0.020967972 0.017294362
000310 36 ab 09 3e ff 12 2f 3e 95 5e 24 3d 54 e6 c9 bc
       0.13444218 0.1709709 0.040129263 -0.024645962
000320 16 ee 4a 3d 09 39 ff 3d a9 9f 28 3e 46 61 69 3e
       0.049543463 0.124620505 0.16467156 0.22791013
000330 57 48 57 3e 60 c7 bc bc 65 67 95 3a 1a ae 6d 3d
       0.21023689 -0.023044288 0.0011398612 0.058027364
000340 cc f8 38 3e a4 3f 65 3e 53 7d 07 bd 89 14 be bd
       0.18063658 0.22387558 -0.033078503 -0.092812605
000350 4c f8 dd bd fa e2 88 bd 6e 4d 71 bc b6 25 4a 3c
       -0.108383745 -0.06683917 -0.014727933 0.012338093
000360 14 7a bd bd 10 cc 5d be 8f fb 82 be b7 5d 47 be
       -0.092518 -0.21659875 -0.2558255 -0.19469343
000370 8e 0b ae 3d cc ce a0 3d 5d 76 57 3d 0a df 15 3c
       0.08498298 0.078519434 0.052603114 0.009147415
000380 0f 85 6c 3c 1d 9f 51 3e 74 1b 0a 3e 70 51 4a 3d
       0.0144360205 0.20470853 0.13487035 0.04939407
000390 dc ae 24 bd fc 25 99 bd 0f 86 20 3e 1f 2c c6 3d
       -0.04020582 -0.07477948 0.1567614 0.09676384
0003a0 8f dc 42 3d 4d 95 46 bd 45 5e de bd 60 97 22 be
       0.047573622 -0.048482228 -0.10857824 -0.15878057
0003b0 b9 c3 b8 bd 48 ff b4 3c df d7 b2 3d ac 9f 14 3e
       -0.09021706 0.022094384 0.087325804 0.14514035
0003c0 2d c8 3d be 4e 1e cb bd f2 ad 8f 39 93 1e 83 3d
       -0.18533392 -0.099178895 0.00027404685 0.06402316
0003d0 35 24 2b 3e a6 f3 0f be 82 9b b7 bd 8b a2 01 be
       0.1671303 -0.14057788 -0.08965208 -0.12659661
0003e0 8a 69 60 be 1a a2 19 be 8a df ed bc a1 e3 a1 bd
       -0.2191526 -0.15003243 -0.029037256 -0.07904745
0003f0 f3 37 39 bd 27 1e 3b 3c 2f 86 c3 3c 08 57 0d 3e
       -0.045219373 0.011420763 0.023867695 0.13802731

conv2.bias f4 [64]
000000 83 f8 bc 37 cf 74 2b 38 c1 ab 31 39 0f c1 e8 37
       2.2527069e-05 4.0878364e-05 0.00016944019 2.7746455e-05
000010 cb 0c 0d b8 a8 a1 1c 37 5d 21 67 b8 7b 23 88 b8
       -3.3628934e-05 9.335963e-06 -5.5105764e-05 -6.491594e-05
000020 fa cc 1e 39 6b 5c de b8 3f 1e 1e b8 bb be a0 b7
       0.00015144414 -0.00010602999 -3.7698304e-05 -1.9162302e-05
000030 d7 1f fb 37 74 37 60 38 ce e7 07 b8 df fe 11 38
       2.9936358e-05 5.3457406e-05 -3.2402393e-05 3.480806e-05
000040 30 df 99 b6 b0 9d 2a b9 d4 76 6b 37 8d a9 fd b8
       -4.5857378e-06 -0.00016271207 1.4034758e-05 -0.000120955614
000050 1e 22 83 38 9d 04 24 b7 a2 1e 77 b8 5e 7b 08 b9
       6.2529216e-05 -9.776236e-06 -5.8917918e-05 -0.00013015929
000060 b6 2c 9e 38 fb 1a a3 b7 48 55 9f 37 17 f0 83 b8
       7.542355e-05 -1.9443678e-05 1.899399e-05 -6.291287e-05
000070 7f 40 11 38 ae 91 0a 38 6b f4 00 38 0e 6c 65 b7
       3.463076e-05 3.303744e-05 3.074521e-05 -1.3674622e-05
000080 df 61 84 b7 f2 8a 12 39 11 07 90 b9 4f 63 b8 38
       -1.5781201e-05 0.00013975406 -0.00027471085 8.7923014e-05
000090 f7 df 6d b8 5f 3c 80 b8 12 ec f9 b8 75 fa 38 b9
       -5.6713787e-05 -6.1147606e-05 -0.00011917217 -0.0001764091
0000a0 38 6d 4d 38 90 5a 67 b8 9c ea ea 36 b8 f5 f2 38
       4.8977527e-05 -5.5159035e-05 7.0010556e-06 0.00011585228
0000b0 0b d0 ba 38 f5 59 d4 38 bc 1d 91 38 5f b6 11 38
       8.907922e-05 0.000101257036 6.919677e-05 3.474054e-05
0000c0 97 2f 9b b8 d2 65 c5 b8 7b ee c6 b6 b3 c2 ab b8
       -7.39984e-05 -9.4126575e-05 -5.9286226e-06 -8.190181e-05
0000d0 aa f8 8b b8 6e b4 0f b8 52 b6 e5 35 2d 7d d0 38
       -6.674354e-05 -3.4261895e-05 1.7114892e-06 9.941529e-05
0000e0 64 2e 3e 37 08 3f 34 b5 a5 27 ea b8 c8 90 30 37
       1.1335684e-05 -6.714695e-07 -0.00011165374 1.0524127e-05
0000f0 f7 85 c8 36 ce 63 4d 39 90 86 89 b3 a8 ac 7e b8
       5.97606e-06 0.00019587504 -6.4040364e-08 -6.0719118e-05

bn2.weight f4 [64]
000000 35 42 86 3f d2 d7 86 3f 32 ce 4a 3f 40 b8 0d 3f
       1.0488955 1.0534613 0.7922088 0.5535927
000010 14 97 8f 3f 57 72 7f 3f 89 d1 72 3f e3 af 70 3f
       1.121798 0.99783844 0.94850975 0.9401838
000020 35 4a 8f 3f 61 eb 42 3f f9 55 70 3f a3 11 6d 3f
       1.1194521 0.7614041 0.93881184 0.92605036
000030 e4 3f 32 3f 90 d4 81 3f 18 3f 89 3f 36 1a 80 3f
       0.6962874 1.0142994 1.072238 1.0007999
000040 4b e1 61 3f ec 6b 86 3f 15 0d 87 3f 3b e9 92 3f
       0.88234395 1.0501685 1.0550867 1.1477426
000050 c0 33 64 3f 56 48 64 3f b9 04 7c 3f 33 d5 3c 3f
       0.89141464 0.89172876 0.98444706 0.73762816
000060 0b 7b 64 3f df ca 80 3f 2c 2b 8e 3f fa 43 1b 3f
       0.8925025 1.0061911 1.1106925 0.606506
000070 47 6b 7e 3f b7 17 25 3f 71 c4 20 3f 05 a0 0c 3f
       0.9938244 0.6448931 0.62799746 0.5493167
000080 9c e0 61 3f ee 6f 81 3f 79 89 8f 3f 36 b7 8a 3f
       0.8823335 1.0112283 1.1213828 1.0837162
000090 31 83 7d 3f b3 e4 72 3f 39 13 7a 3f 63 a1 87 3f
       0.9902831 0.9488022 0.9768558 1.0596126
0000a0 a4 0e 91 3f d4 2d 89 3f 35 23 9b 3f 41 af 87 3f
       1.1332593 1.0717111 1.2120119 1.0600358
0000b0 18 2a 9c 3f 93 78 23 3f f5 52 89 3f 5d 52 83 3f
       1.2200346 0.63855857 1.0728441 1.025951
0000c0 d5 d8 0d 3f 3a 3d 8e 3f cc cb 84 3f ab af a0 3f
       0.55408984 1.1112435 1.0374694 1.255361
0000d0 d3 db 81 3f 01 d9 69 3f ba cd 6f 3f e5 dc 7e 3f
       1.014521 0.91346747 0.9367329 0.9955581
0000e0 e4 d4 77 3f e4 d5 74 3f 5a f7 17 3f ee f7 8a 3f
       0.9680922 0.9563887 0.59361804 1.0856912
0000f0 0b 95 84 3f 46 d9 82 3f 1d 11 3c 3f a0 2b 93 3f
       1.0357984 1.0222557 0.7346361 1.1497688

bn2.bias f4 [64]
000000 b9 51 2e bf 85 7b 32 bf d5 6b 1e be ea 3d 5e be
       -0.6809345 -0.69719726 -0.15470822 -0.21703306
000010 ee 64 a2 be a1 ff d1 be dc 39 9e be e9 7b e5 be
       -0.31717628 -0.41015342 -0.30903518 -0.44821098
000020 24 12 ec be e5 03 65 bd 13 12 0a bf e6 b0 fe be
       -0.4610759 -0.055911917 -0.5393383 -0.49744338
000030 ae dc 07 be 67 36 eb be 1a b7 c6 be cb a7 c1 be
       -0.13267776 -0.45939943 -0.3881157 -0.37823328
000040 d8 81 df be 5e 9f 1d bf 52 fb 0c bf fd 98 24 bf
       -0.4365375 -0.615713 -0.55070984 -0.6429594
000050 73 00 8d be 9f 58 41 be 74 92 b2 be d4 69 92 bd
       -0.27539405 -0.18881463 -0.3487736 -0.07149091
000060 2a 35 06 bf 3c 1f 01 bf 15 e0 4d bf 6c 5a 70 be
       -0.5242487 -0.50438285 -0.8042005 -0.23471993
000070 53 a2 de be c2 ef 9d be 15 a8 25 be af 65 cc be
       -0.4348322 -0.30846983 -0.161774 -0.39921328
000080 a4 c0 2f be 60 c0 30 bf ae 3c e2 be 84 e2 ca be
       -0.1716333 -0.6904354 -0.4418692 -0.39625943
000090 70 f0 1a bf b1 ef 1d bf d5 f8 e3 be 4c 09 ac be
       -0.6052313 -0.61693865 -0.4452578 -0.33600843
0000a0 ee f9 16 bf 33 6f ff be 33 e7 15 bf 68 8d 44 bf
       -0.5897511 -0.49889526 -0.58555907 -0.7677827
0000b0 8b 40 0e bf fa a3 30 be a3 49 1b bf 68 28 dc be
       -0.55567235 -0.17250052 -0.60659236 -0.42999578
0000c0 c3 e5 29 be fb 8b 11 bf e4 ac dd be e5 5f 32 bf
       -0.16591553 -0.5685422 -0.43295968 -0.69677573
0000d0 9b f8 0e bf 83 db a6 be 2d 27 f1 be 70 47 e9 be
       -0.5584809 -0.3258935 -0.471002 -0.45562315
0000e0 8a 7e 15 bf af e5 c7 be 5a be 55 be bf f7 1d bf
       -0.5839621 -0.39042422 -0.20873395 -0.61706156
0000f0 3c 2b ee be be b0 cb be 6d dd 96 be 1b 75 3c bf
       -0.4651736 -0.3978328 -0.2946581 -0.7361619

bn2.running_mean f4 [64]
000000 91 ae 4e bf 77 ad e7 bf 5f ce 8f bf 05 19 4c 3e
       -0.8073512 -1.8099812 -1.1234854 0.19931419
000010 76 be a7 3f 95 86 9f 3f cb 4d 83 3e af d3 e9 bf
       1.3104999 1.2462946 0.2564529 -1.8267726
000020 a9 d1 d6 bf 37 7b 8d 3f aa db 31 c0 a8 f7 c2 bf
       -1.6782733 1.1053227 -2.7790322 -1.5231829
000030 04 fa eb be 22 7b 75 3e be 81 c5 be f5 cb 02 c0
       -0.46089184 0.23972753 -0.38575548 -2.0436985
000040 c1 5d ad be 3f 63 58 3f 4a d8 35 bf 41 49 72 bf
       -0.3386059 0.8452644 -0.71033156 -0.94643027
000050 ec b5 11 bf 9d 7b 62 40 14 57 77 3f 10 e7 0d c0
       -0.56918216 3.5387948 0.96617246 -2.217228
000060 aa ce f1 bf 38 ef 13 3e cc 11 21 3f 17 67 5a 3f
       -1.8891194 0.14446723 0.6291778 0.8531355
000070 67 fc 9f 3f d3 39 ad c0 de eb f3 bf e2 8c 6a c0
       1.2498902 -5.4133086 -1.9056356 -3.6648488
000080 db f6 33 c0 32 0b 1f 40 58 60 f4 be f0 89 5b 3f
       -2.8119419 2.4850583 -0.47729754 0.8575735
000090 92 29 85 c0 a6 39 49 3e 83 c6 b3 bf 3c 8f e2 3e
       -4.1613245 0.19650897 -1.4044956 0.44249904
0000a0 a5 8e 91 bf 03 93 34 3f 16 7c f7 3d 0b f6 9d be
       -1.1371657 0.7053682 0.120842144 -0.30851778
0000b0 78 e7 85 bf a3 8b 08 c0 82 34 5d 3f b1 f3 94 bd
       -1.0461264 -2.1335227 0.86408246 -0.07273043
0000c0 63 af 9b c0 03 71 38 3f 57 e2 34 bf a4 df 2d ba
       -4.8651595 0.7204744 -0.7065787 -0.00066327513
0000d0 94 16 9e be f6 a3 45 40 86 de 03 c0 f5 7f b1 bf
       -0.308766 3.0881324 -2.0604568 -1.3867174
0000e0 72 0d 6d bf 1e 2f ab 40 52 10 da 3f 06 8a 2e c0
       -0.9259864 5.3495016 1.703623 -2.7271743
0000f0 4d 35 67 bf cb 9f 99 3e 47 e3 32 bf 68 9a 30 bf
       -0.90315706 0.30004725 -0.6987805 -0.68985605

bn2.running_var f4 [64]
000000 3e ea a8 40 e4 fa fa 40 b2 05 04 41 ec 8f 82 40
       5.278594 7.8431263 8.25139 4.0800686
000010 fc 50 bc 40 7f 14 be 40 af ff af 40 94 92 87 40
       5.884886 5.940002 5.4999614 4.236643
000020 78 9c ae 40 48 4c d9 40 8d 87 92 40 54 7d 73 40
       5.4566 6.7905617 4.5790467 3.8045244
000030 e0 ad d8 40 d5 ef bb 40 3b 70 75 40 a8 44 c5 40
       6.771225 5.8730264 3.834975 6.164631
000040 d1 0c e6 40 33 80 83 40 6a a8 67 40 27 93 8b 40
       7.1890645 4.1093993 3.6196542 4.361713
000050 43 c0 98 40 da f4 d8 40 a0 bc ae 40 9f 7d cb 40
       4.7734694 6.779889 5.4605255 6.3590846
000060 b6 61 a1 40 4f c7 b1 40 e5 51 74 40 3d 7b a2 40
       5.0431776 5.5555797 3.8174984 5.0775437
000070 0f 37 a7 40 f7 4d c9 40 ff a2 b5 40 93 38 8e 40
       5.225471 6.290767 5.676147 4.444406
000080 b4 23 c5 40 31 79 82 40 99 6e 94 40 5c e1 ad 40
       6.1606083 4.077294 4.6385007 5.4337597
000090 3c b4 a5 40 7c 9a af 40 dd f1 87 40 64 01 bf 40
       5.1782513 5.487608 4.2482743 5.9689198
0000a0 13 4e 76 40 54 04 76 40 d5 7b fb 40 6d 0c 7c 40
       3.8485153 3.8440142 7.858866 3.9382584
0000b0 b5 a8 a2 40 5d 9e e6 40 62 3f 97 40 e5 d6 80 40
       5.083094 7.2068315 4.726487 4.0262322
0000c0 b1 59 bc 40 a7 d5 6f 40 49 8b 9a 40 b8 33 04 41
       5.8859487 3.7474153 4.8295026 8.262627
0000d0 dd 84 56 40 11 96 f9 40 ef 2b 9b 40 6a 09 0a 41
       3.3518593 7.7995687 4.849113 8.627298
0000e0 41 15 99 40 6f 6f c9 40 aa f2 98 40 4e b3 ab 40
       4.7838445 6.2948527 4.779622 5.365638
0000f0 61 1d b6 40 b4 28 ef 40 cc e5 a3 40 63 c6 88 40
       5.6910863 7.4737186 5.1218014 4.274217

fc1.weight f4 [100, 64]
000000 cc 2a 41 b7 ca 33 18 b5 44 dc 49 b9 50 80 57 b0
       -1.1513661e-05 -5.6699776e-07 -0.00019250909 -7.839889e-10
000010 db 1e 87 ba 0e 30 93 b9 c0 71 88 ba d1 e9 00 ba
       -0.0010308878 -0.00028073828 -0.0010409877 -0.0004917654
000020 1f 19 4d b9 cc 0c bf b9 99 1b 32 b9 87 5a 8b b8
       -0.00019559682 -0.00036439893 -0.00016985684 -6.6448985e-05
000030 0d 00 04 b8 af ee 04 ba 63 b4 ae ba a9 a4 d8 b9
       -3.14713e-05 -0.0005070967 -0.0013328906 -0.00041321412
000040 72 53 11 b7 8a 2a 10 b9 f9 ce 9e ba 90 79 8f b7
       -8.662102e-06 -0.00013748757 -0.0012116126 -1.7103535e-05
000050 b6 72 02 bb 82 2e 29 ba 83 bd 02 b9 fd c2 b1 b8
       -0.0019904799 -0.00064537686 -0.00012468365 -8.476337e-05
000060 22 cd 5e b6 a8 65 29 b8 fd 2a 69 b6 4f d6 a7 ae
       -3.319998e-06 -4.0387415e-05 -3.4744728e-06 -7.6323496e-11
000070 0c 39 f1 ba 63 bc 4e b6 63 69 50 b6 82 2f 7f 1e
       -0.0018403842 -3.0806048e-06 -3.1055758e-06 1.3509412e-20
000080 fe c1 a9 b9 50 82 16 ba 70 ae 28 ba 23 ca 76 ba
       -0.00032378727 -0.0005741464 -0.00064346846 -0.0009414276
000090 bc 57 fa b9 78 c8 43 b6 0c ee 3b bb 56 8c 45 bb
       -0.00047749083 -2.9173952e-06 -0.0028675823 -0.0030143461
0000a0 9f cc c8 b9 b4 44 94 ba e7 43 22 b7 73 8a fe b6
       -0.00038299427 -0.0011311979 -9.671762e-06 -7.5859075e-06
0000b0 58 a4 22 b9 85 10 f2 b4 cd 07 13 b8 d6 09 8f ba
       -0.00015510747 -4.5088032e-07 -3.5054796e-05 -0.0010912966
0000c0 6a 92 12 b2 eb e6 ed b9 84 4b 9a ba 3c 9b cc b4
       -8.531609e-09 -0.0004537621 -0.0011771773 -3.811091e-07
0000d0 5f 58 85 ba aa 14 23 b9 8b 4d 45 b9 d1 52 b6 b9
       -0.0010173431 -0.0001555259 -0.00018816271 -0.00034775448
0000e0 c5 b0 c5 b6 72 ca 8e b9 fc 27 2f b4 5f f2 e3 b6
       -5.891636e-06 -0.00027235184 -1.6312691e-07 -6.793343e-06
0000f0 9e 5a 41 bb a6 b3 37 ba 4f 1b 93 b7 a3 95 31 b8
       -0.0029503475 -0.00070076657 -1.7536482e-05 -4.233945e-05
000100 15 96 f9 aa c2 86 f0 87 a8 78 c6 a6 ea 4f 97 a7
       -4.4335426e-13 -3.619039e-34 -1.3771714e-15 -4.1997562e-15
000110 4c 6d 83 b7 a3 8d c6 b7 37 b0 64 b5 f6 71 83 ab
       -1.5667312e-05 -2.3669394e-05 -8.5193045e-07 -9.33974e-13
000120 b2 e4 6a b0 63 78 a1 b3 0a 4f 88 b5 83 d3 6b b3
       -8.54537e-10 -7.519045e-08 -1.0155793e-06 -5.490757e-08
000130 4a 15 06 b1 85 7a 01 b3 6f 25 f9 b6 d3 1f 31 10
       -1.9511668e-09 -3.0146584e-08 -7.425136e-06 3.4931612e-29
000140 b9 92 9c b6 d3 9c 0d a5 59 46 68 b7 63 24 db ac
       -4.666243e-06 -1.2282935e-16 -1.3844657e-05 -6.228394e-12
000150 e5 91 61 b5 cf 94 c5 af 11 58 a7 b5 00 8e 4d af
       -8.4031336e-07 -3.5939826e-10 -1.24681e-06 -1.869509e-10
000160 36 bb e4 12 44 cb 76 a1 22 7a 17 aa c4 30 1c a6
       1.4434974e-27 -8.361706e-19 -1.3453867e-13 -5.418946e-16
000170 d4 03 e5 b6 07 01 4d 09 0a 27 2f b4 49 dd 72 0a
       -6.8251775e-06 2.467646e-33 -1.6312347e-07 1.1693495e-32
000180 39 8a 1d a3 00 22 99 b2 e5 5f 02 ad 36 16 95 b5
       -8.540257e-18 -1.7827006e-08 -7.410937e-12 -1.1107829e-06
000190 6e e7 62 b7 7a 18 27 a8 43 1c 01 b8 e0 b0 45 b8
       -1.3524534e-05 -9.27567e-15 -3.0782317e-05 -4.7133188e-05
0001a0 5e 2a aa b3 b2 6e 8b b4 e1 97 82 b3 d1 3a 94 a7
       -7.9239484e-08 -2.597131e-07 -6.081223e-08 -4.114202e-15
0001b0 ab c1 13 b5 55 40 9b a9 f2 81 8c b5 a1 0c 04 b6
       -5.504359e-07 -6.8945426e-14 -1.0468632e-06 -1.9676884e-06
0001c0 57 f1 f3 0a 83 02 31 ae 27 52 ee b7 32 e7 9b ab
       2.3490831e-32 -4.024737e-11 -2.8410066e-05 -1.1077582e-12
0001d0 dd e6 60 b5 72 d9 10 b6 e9 df ca 0a f9 15 52 b3
       -8.3782453e-07 -2.1584242e-06 1.9536118e-32 -4.891442e-08
0001e0 2b 3f 24 b1 3b a2 e5 ad b7 83 51 a6 fe 04 1d ab
       -2.3901048e-09 -2.610633e-11 -7.268995e-16 -5.5784533e-13
0001f0 dc 00 af b3 70 6c 79 b1 31 de 66 8a 05 08 2b b2
       -8.149229e-08 -3.6295909e-09 -1.1115887e-32 -9.9553334e-09
000200 92 3e 8a b9 12 c1 27 b9 69 54 a5 ba 06 63 1a b9
       -0.0002636803 -0.00015998285 -0.0012613657 -0.00014723474
000210 11 46 9d ba 05 32 79 ba fb 76 d7 ba 51 45 13 ba
       -0.0011999031 -0.00095060497 -0.0016438657 -0.0005617934
000220 aa 7a 0d bb d8 49 2f bb d3 2a 83 3a fa ae 55 39
       -0.0021588006 -0.0026746895 0.001000727 0.00020378447
000230 05 9b d2 ba a8 9d 15 bb 64 c6 33 ba fe 75 ff ba
       -0.0016067928 -0.0022829566 -0.00068578706 -0.001949012
000240 35 60 6f b8 24 dd e8 b9 2f 18 ce b8 84 5e df b9
       -5.707164e-05 -0.0004441525 -9.82735e-05 -0.00042604294
000250 33 b1 d7 b9 f1 d6 46 bb a5 b1 16 bb b9 93 2c bb
       -0.0004114002 -0.0030340517 -0.0022994068 -0.0026333167
000260 1e cb d8 b9 23 6c d1 ba dd 0b 2e ba 77 e6 9c b9
       -0.00041350065 -0.0015977662 -0.0006639341 -0.00029926348
000270 18 9a e9 39 5e 0f cb b9 4b e0 f7 b9 f7 59 f1 b6
       0.00044556032 -0.00038730627 -0.00047278623 -7.192833e-06
000280 51 1b 41 bb ed f7 87 ba 51 0e f4 ba 29 2e e6 ba
       -0.0029465745 -0.001037357 -0.0018619989 -0.0017561364
000290 57 1a 98 3a c0 f8 c1 b9 4a 4b 15 3a 33 74 4e ba
       0.001160453 -0.00036997162 0.0005695118 -0.00078755914
0002a0 af 7e b5 ba 54 00 59 ba 2a bb 3e ba e4 1b e6 ba
       -0.0013846959 -0.0008277942 -0.00072758144 -0.001755592
0002b0 39 01 c9 b9 97 2d 48 ba bf 29 be ba 14 9f 07 bb
       -0.00038338618 -0.0007636188 -0.0014508291 -0.0020694183
0002c0 dd 52 80 b9 e8 0f cd ba 76 3a 1b ba 6f d1 2c ba
       -0.000244758 -0.0015644999 -0.0005921492 -0.00065924873
0002d0 74 65 23 bb 36 52 2e ba 59 bc d9 b9 cf f3 7c b9
       -0.0024932297 -0.00066498236 -0.00041529795 -0.00024123419
0002e0 b1 4a af b7 bc 95 e3 ba 8d 4c 89 b9 07 94 96 39
       -2.0896407e-05 -0.001736335 -0.0002618771 0.00028720518
0002f0 7b 5b e9 39 4e 92 1d ba 81 cc 20 ba 8b 17 a6 b9
       0.0004450938 -0.0006010876 -0.0006133989 -0.00031679528
000300 bb 55 aa bc 42 19 61 3c a1 f2 7e bd 69 7c 1c bc
       -0.020792833 0.013738932 -0.062243108 -0.009551146
000310 56 06 5c 3c a8 1d d2 bc cc b9 69 bb b3 ca 9f bc
       0.013429245 -0.025648907 -0.0035663722 -0.019505834
000320 a0 1c 25 bc 04 51 23 bd 12 a1 31 bd 24 6b 43 ba
       -0.0100776255 -0.039872184 -0.0433665 -0.0007454625
000330 9b da 47 bd 55 b8 3a bc 53 0b 16 3c 6e bd 01 bd
       -0.048792463 -0.011396487 0.009157973 -0.031674795
000340 30 c7 81 bd 2d 92 32 3c 2f 53 d9 bc d5 d8 1f bc
       -0.0633682 0.010899109 -0.026528923 -0.009756287
000350 4c 78 12 bd 5a f0 3e bd 60 1e 5d bd 84 55 28 bd
       -0.035759255 -0.046615936 -0.053984046 -0.04109718
000360 03 c9 98 bb 26 f5 0d bc ce 60 e8 bc 79 c9 f0 bc
       -0.0046626343 -0.008664405 -0.028366473 -0.029392945
000370 2a c2 ac bc 94 7a 37 bd 94 42 d5 bc e5 a7 93 bb
       -0.021088678 -0.044794634 -0.026032723 -0.0045060986
000380 ee b6 2d bd b2 f1 56 bd c7 07 4f bc ea 0e a8 3c
       -0.042410783 -0.052476592 -0.012636132 0.020514924
000390 64 33 df bc 39 b2 24 3c df ba c9 bc 60 19 d9 bc
       -0.027246185 0.010052257 -0.02462524 -0.026501358
0003a0 5a 4b 49 3a 8e 7e 99 bc d2 ea 55 3b 26 df 96 bd
       0.000767877 -0.018737104 0.0032641185 -0.07366781
0003b0 cf 02 37 39 e6 cb e6 bc 81 10 9e bd 12 b0 53 bb
       0.00017453286 -0.028173398 -0.077179916 -0.003230099
0003c0 df 38 a2 3c b1 66 f7 bb ad f3 2b bc 69 fa cf bb
       0.019802509 -0.0075500836 -0.010495109 -0.00634699
0003d0 c4 1b c4 bc 4d 90 4d 3c e7 3b bc bb 3a 2b 7e bc
       -0.023939021 0.012546611 -0.0057444456 -0.015513236
0003e0 45 7d e0 bb 13 c1 91 bc 11 3e 0e 3d 74 32 93 3c
       -0.006850871 -0.01779226 0.03472716 0.017968394
0003f0 e3 ae 6b bc c5 b5 d4 bb bb 44 d0 3a 81 63 b1 bb
       -0.014384958 -0.006491395 0.0015889624 -0.005413473

fc1.bias f4 [100]
000000 9d 55 ec bb f3 7b e0 b9 27 44 2e bc c5 5b dc bc
       -0.0072123543 -0.0004281696 -0.010636366 -0.026899228
000010 5c 52 c4 3d 9f 99 1f bc 54 be a4 bc fc 01 b7 bb
       0.09586021 -0.009741216 -0.020110287 -0.0055849534
000020 84 43 15 3e 8b f7 f7 3d 56 ac 44 ae 82 57 53 bd
       0.14576536 0.12107762 -4.4718305e-11 -0.051597126
000030 4a 1a b6 bd 9a 27 0e 3e 6c b7 7f 3d 32 f7 00 a5
       -0.08891733 0.13882294 0.062430784 -1.1185983e-16
000040 5e 70 15 ac 0d b1 b7 bb f1 2a 21 ba 62 95 3b bb
       -2.123655e-12 -0.005605823 -0.00061480614 -0.0028622975
000050 f3 ea 21 bc 2b eb b0 87 7f e7 06 be c2 09 0c bc
       -0.009882676 -2.6619756e-34 -0.13174246 -0.008547248
000060 a5 14 48 bb 5e 4d 11 be 3b e9 a4 99 61 18 47 bd
       -0.0030529883 -0.1418967 -1.7051404e-23 -0.048607234
000070 aa cb d5 bd 61 e9 da 3d f9 dd 0d 3e 07 b2 0f b7
       -0.104392365 0.10689045 0.13854207 -8.564914e-06
000080 c5 da 41 bc de cc 4a 96 e3 64 bf 3c 84 ea ed 3c
       -0.011831944 -1.6382075e-25 0.023363536 0.02904249
000090 de 2b 62 bd 50 bf 9d 3d 3d ab 87 bd e8 60 81 bc
       -0.055217616 0.077025056 -0.06624458 -0.015793279
0000a0 bb cb 8d 3d 5c 19 70 bd 85 a4 b6 3d 31 2f 98 3d
       0.06923624 -0.058617935 0.08918098 0.07430876
0000b0 d2 cc 44 3e b2 ad 23 3c 1a 90 90 bd 50 62 18 3e
       0.19218758 0.009990143 -0.07058735 0.14881253
0000c0 cd 21 92 bc 3f 41 d9 bd cf 3b ca af a4 b0 fb b4
       -0.017838383 -0.10608148 -3.6786083e-10 -4.6880916e-07
0000d0 b7 17 26 bd 73 71 c3 97 09 21 32 3e 5d 7e cb bb
       -0.04054996 -1.2630218e-24 0.17395414 -0.006210132
0000e0 7a c5 2c 3c ea d4 e4 3c 19 18 ae ae 21 3d cf 3c
       0.010545129 0.027933557 -7.9168845e-11 0.025297703
0000f0 fa 8b e6 3a 5b af b8 bc 16 b0 df bd 1e dd bf 3d
       0.0017589324 -0.022544554 -0.109222576 0.09368347
000100 71 5a 8f 3d 67 5a 89 3c f6 92 ca 3d f3 c9 8b a6
       0.06999672 0.01676674 0.09891312 -9.699801e-16
000110 48 1a 61 b9 b4 91 32 bd d3 00 22 3d 9c f8 77 bd
       -0.00021467463 -0.043595985 0.039551567 -0.060539827
000120 98 e0 01 a3 e7 f9 7b 3d 4d 41 bd 3d 8b 7d 19 be
       -7.040664e-18 0.061517622 0.09240971 -0.14989297
000130 52 47 e2 3d cf 01 a4 bc 8a d2 80 bc 35 50 d5 3c
       0.110487595 -0.020020394 -0.015725393 0.026039222
000140 b8 fb 11 3e a7 9b 18 ba f3 bd b5 3d e9 54 83 3d
       0.1425618 -0.0005821534 0.088741206 0.0641268
000150 24 25 9d b9 01 77 13 3d d0 0f da bc 3c f5 3e b4
       -0.00029973045 0.036002163 -0.026618868 -1.7784345e-07
000160 01 4f 83 3d 17 c2 b9 3d f3 85 8d a3 7b ce 5e 3d
       0.06411553 0.09070223 -1.534398e-17 0.054396134
000170 8d af b8 bd 82 34 e7 bc 86 a4 c0 3b af a1 97 bc
       -0.09017859 -0.02822328 0.0058789877 -0.018509714
000180 cb ad 1e bc d9 e8 32 3e ab 61 2c be ed 40 21 bc
       -0.00968499 0.17471637 -0.16834132 -0.00984214

fc2.weight f4 [128, 100]
000000 63 01 93 23 c2 b9 c7 0a e9 0f 1f 3a ac d1 d1 3c
       1.593836e-17 1.9232877e-32 0.00060677395 0.025612675
000010 41 8a 8d 3e f3 7f ff bd 24 e2 ae b9 a3 35 69 3d
       0.27644542 -0.12475576 -0.00033356354 0.056935918
000020 f2 99 25 3d ea 79 30 bd f5 6a 00 00 44 ba 05 bf
       0.040430017 -0.043085016 3.8369e-41 -0.52237344
000030 40 63 a5 3d 5c 6e 93 3a e3 df b8 be f5 88 00 80
       0.08075571 0.00112481 -0.36108312 -4.9131e-41
000040 3b 8a 00 80 2d c8 80 ba 5f e5 28 ae 94 d1 4c b8
       -4.9588e-41 -0.0009825282 -3.84025e-11 -4.8832575e-05
000050 9a f3 c8 3b ad 89 00 80 5b 78 18 3d 74 68 66 b7
       0.006132555 -4.9389e-41 0.037224155 -1.3733388e-05
000060 20 4b 16 be 2c 8d 0a bf 9a 65 63 06 1c b2 79 3d
       -0.14677095 -0.5412166 4.27686e-35 0.060960874
000070 e5 09 95 3d 6a 7d 97 3e 74 a5 07 bd b1 b9 3b 1d
       0.07277278 0.2958787 -0.033116773 2.4845244e-21
000080 a8 56 b4 b7 b9 89 00 00 e1 a0 fa bc 11 1f 1d bd
       -2.1498025e-05 4.9406e-41 -0.030594291 -0.038359705
000090 4e ed b7 bc 88 e1 68 ba da 42 ac be 12 d3 1a 3c
       -0.022452023 -0.00088837044 -0.33644754 0.009449737
0000a0 09 8a 38 bd a8 89 45 3e b2 dd 20 be d2 5c 9b bd
       -0.045053516 0.19290793 -0.1570957 -0.075860634
0000b0 5d 77 e6 3d e3 09 ee be 30 b2 06 bb 09 0c df 3e
       0.112532355 -0.46491918 -0.0020552985 0.4356387
0000c0 c2 d8 93 be 0a ee cf be a2 89 00 00 3b d8 40 a7
       -0.2887631 -0.40611297 4.9373e-41 -2.6762571e-15
0000d0 e2 4d 24 bc b1 0c 4f 14 20 3a 12 3e 82 79 38 36
       -0.010028334 1.0453332e-26 0.14279985 2.7488863e-06
0000e0 90 ca bd bd a9 a8 8c be 4e a0 c1 16 7d 8f 01 be
       -0.09267151 -0.27472427 3.1281998e-25 -0.12652393
0000f0 73 d4 57 bd 42 2d 18 be 14 f5 88 be 75 75 b7 bd
       -0.05269284 -0.14861014 -0.2674948 -0.0895795
000100 41 02 31 3d 7a 74 21 3d 85 e7 94 3e 34 3e 8f 06
       0.04321504 0.03941772 0.29082885 5.388202e-35
000110 af c7 20 b4 df 13 1c bd e3 81 2c 3e 0e 9a 15 3d
       -1.4973806e-07 -0.038104888 0.16846423 0.03652387
000120 52 89 00 00 c1 a8 82 bd ce 1f 00 bd bf 09 2d be
       4.9261e-41 -0.063798435 -0.03128033 -0.16898249
000130 c5 f2 1f 3e 80 2a 4b be 93 f3 41 3b 5d 2d 76 bd
       0.15619953 -0.19840431 0.0029594644 -0.060101856
000140 a5 25 27 3e 3f 0a d3 9b d9 99 c4 bd 9a 40 e5 3b
       0.16322954 -3.4913643e-22 -0.095996566 0.0069962265
000150 f4 46 e9 b3 ef 78 30 3e 9e 57 6d bb 8b 89 00 00
       -1.0862814e-07 0.17233633 -0.0036215554 4.9341e-41
000160 8c 87 97 bd e5 10 ac bd c6 a7 00 00 f3 ae b8 3c
       -0.073989004 -0.0840166 6.0186e-41 0.02254436
000170 6e 1e ad 3c 09 67 91 3e de a1 9b bd ad 1f bc ba
       0.021132674 0.28398922 -0.07599233 -0.0014352702
000180 1b 3d 23 b9 b3 58 99 3e 1e 58 b5 bc aa 10 87 ba
       -0.00015567655 0.29950485 -0.022136744 -0.0010304649
000190 35 d0 f8 9c af 7d 86 88 6b eb cf 39 76 7a ae bc
       -1.6465084e-21 -8.09438e-34 0.00039657517 -0.021298628
0001a0 ba 84 f1 bd 2e bc c8 3e c9 b7 b2 aa d2 69 f7 3d
       -0.11792894 0.3920607 -3.1746678e-13 0.120807305
0001b0 4f 76 28 3e ae ad e4 3d f1 88 00 80 e3 c3 c7 3d
       0.16451381 0.11165939 -4.9125e-41 0.09754159
0001c0 4a 64 6f 3e 8b 8d 9c 3d 0e 43 78 3e 9b 8a 00 00
       0.23378101 0.07644185 0.2424433 4.9722e-41
0001d0 27 8a 00 80 87 40 41 3b 6c 5a 59 2f e0 dd bb 1f
       -4.956e-41 0.0029487924 1.976816e-10 7.956464e-20
0001e0 b5 15 19 3d 8f 89 00 80 fa aa 0c 3e 4b fd 86 ba
       0.037374217 -4.9347e-41 0.13737097 -0.0010298876
0001f0 7d a9 10 bd 4c 36 a3 3d 1e ea 2f 8a 33 2d d5 3d
       -0.035317887 0.07969341 -8.469976e-33 0.10409012
000200 a9 67 0c 3e 28 86 1e 3d 90 ca bc 3d bd 12 76 a3
       0.13711418 0.03870216 0.09218323 -1.3339655e-17
000210 a1 a1 47 38 57 89 00 80 12 9a fb 3d 91 7f 82 ba
       4.7595826e-05 -4.9268e-41 0.12285246 -0.0009956231
000220 e7 3c b0 bd 36 c6 83 3e 25 05 37 be 84 52 38 bc
       -0.08605366 0.2573716 -0.17873056 -0.011250142
000230 27 85 78 3e f7 42 3d be 8f a1 e6 bd 56 ea 1d 3e
       0.24269544 -0.18482576 -0.112612836 0.15421423
000240 49 ab 0f 3b 1d 21 f1 3d c5 37 7f 3e 9b be 7d be
       0.0021922162 0.11773894 0.24923618 -0.24779741
000250 a1 ee 6b bc 1f 43 ad 3d e4 88 00 80 66 a9 34 28
       -0.014400155 0.08460068 -4.9107e-41 1.002874e-14
000260 bc 8d 2e 3e 91 88 51 12 80 35 84 3b 95 13 e0 3a
       0.17046255 6.6117103e-28 0.004034698 0.001709568
000270 84 59 d7 3d 85 fb 91 3d 5f e9 24 8b a2 71 c9 bd
       0.105151206 0.07128052 -3.176082e-32 -0.09836127
000280 16 fc 1b 3e 79 58 f4 bd 2c 1c e8 bb fa 65 ed 3c
       0.15232882 -0.11930937 -0.0070834365 0.02897929
000290 4b 9f 26 3e 7a ed 52 3e af 6c 18 3e e9 89 00 00
       0.16271703 0.20598403 0.1488521 4.9473e-41
0002a0 2c 29 3c b5 d4 6c 22 bc 9a 7b 85 3d 97 40 43 3e
       -7.009537e-07 -0.009913642 0.06517716 0.19067608
0002b0 df 89 00 00 4e 9e b0 3d 7a fe ba 3c aa d5 92 3d
       4.9459e-41 0.08623944 0.022826422 0.071696594
0002c0 0f a0 14 3c 34 be af bb 28 d8 57 3d b1 e4 ad 3d
       0.009071364 -0.00536325 0.052696377 0.08490885
0002d0 09 d8 84 3c 88 c6 7d 1b eb 34 b2 3e ac 07 75 3e
       0.016216295 2.0991818e-22 0.34805998 0.23928708
0002e0 a5 be d1 b8 c5 0a 98 bd f9 34 77 3c cc 89 00 80
       -0.00010001407 -0.07423929 0.015088313 -4.9432e-41
0002f0 0f b5 6d bd d2 c0 13 3e 98 89 00 80 22 c1 20 3e
       -0.058034 0.14429024 -4.936e-41 0.15698674
000300 7e 96 9d bd 13 88 37 be 79 50 fd 3d 32 b3 ca 39
       -0.0769472 -0.17923002 0.123688646 0.00038661953
000310 f5 f6 5a 39 93 52 c0 b9 be 2a 0f 3e 18 96 35 3a
       0.00020882099 -0.00036682616 0.13981149 0.0006926968
000320 c9 0a 96 ae e5 d5 a0 8a cd 1f 66 bb d2 8f 83 bb
       -6.823126e-11 -1.5487898e-32 -0.003511417 -0.0040149475
000330 87 97 10 3e 80 f5 af 3d 70 02 15 b9 56 60 09 3d
       0.14120303 0.08591747 -0.00014210655 0.03353914
000340 68 0f 2d 3e 53 5b c7 3d 64 89 00 00 55 ff 79 be
       0.16900408 0.097342156 4.9286e-41 -0.24413808
000350 ed 66 87 bd 36 cb 85 3d 1d 07 29 be 1c 8b 00 00
       -0.066114284 0.065329 -0.1650662 4.9903e-41
000360 b4 8a 00 00 c9 ba d8 38 a6 fd ec ae 73 f7 27 b4
       4.9757e-41 0.00010334474 -1.07770945e-10 -1.5643108e-07
000370 c4 27 ae 3b e9 88 00 00 82 d5 93 3c 26 bd 07 37
       0.005314799 4.9114e-41 0.018046144 8.090667e-06
000380 11 c5 ef bd 34 90 f8 be 31 69 6e 97 54 d6 24 bc
       -0.11707509 -0.48547518 -7.703472e-25 -0.010060865
000390 cd 01 7d 3d aa e9 cb 3e fe aa b7 3c eb 88 00 00
       0.061769295 0.3982671 0.022420403 4.9117e-41
0003a0 9d 9f e9 b6 be 88 00 00 45 e6 f0 bb 96 33 ae 3c
       -6.9625225e-06 4.9054e-41 -0.007351669 0.021264832
0003b0 5e b1 57 be 0b 6a 67 3c bc 66 ba be 9b 98 63 bb
       -0.21063754 0.014124404 -0.36406505 -0.003472841
0003c0 57 38 4b 3e e3 73 8e 3d 96 e0 bc bd 55 14 b7 3d
       0.1984571 0.069556974 -0.09222524 0.08939425
0003d0 7d f3 75 3e ee c3 84 be e0 81 4c 3d 75 d9 52 3e
       0.24018665 -0.25930732 0.049928546 0.20590766
0003e0 e3 a6 1f be 77 cf 5e be 5c 89 00 00 00 21 7d 1f
       -0.15591006 -0.21758829 4.9275e-41 5.360213e-20
0003f0 2e a5 23 3d a6 b7 fb 94 1d a8 9f 3e 3c 5e a3 39
       0.03995245 -2.541696e-26 0.31182948 0.00031159993

fc2.bias f4 [128]
000000 ec bd 2f 3d 32 ce 71 be de fc 43 bd 0a 08 88 bb
       0.042905733 -0.23613814 -0.047848575 -0.004151349
000010 09 b9 0d 3e dc a5 db bd 0f 48 39 bc f5 60 ac bd
       0.13840117 -0.107249945 -0.011308684 -0.084169306
000020 4e f8 80 bd 9b e6 e1 bd f0 0e b4 bd 21 b0 2d 3e
       -0.0629736 -0.11030313 -0.087919116 0.16961719
000030 01 9c 07 3e a4 8b 58 bd 8f 0c cf 3d 3c fe 3a be
       0.13243105 -0.052867547 0.10109817 -0.18261045
000040 58 72 1a bd e4 b4 19 be 16 3c 16 b8 22 8a a7 3d
       -0.037706703 -0.1501041 -3.5818746e-05 0.081806436
000050 39 c6 3c 3d 0f 05 1a 3e 45 77 d9 3d a9 2d 84 bd
       0.046087477 0.15040992 0.10618452 -0.064540215
000060 23 f7 93 3d 9b ab 0f bd 2d 6f e3 bd 07 6c 72 3e
       0.07224872 -0.035075765 -0.111051895 0.23674022
000070 b9 50 41 3e 8f a1 38 3e b9 d5 fd bd f1 08 ab bd
       0.1887845 0.1803038 -0.1239428 -0.08351315
000080 23 87 25 bd b0 57 cb 3c ae 96 1e be fc b4 07 bb
       -0.04041208 0.024822086 -0.15487167 -0.002070724
000090 d3 aa b0 3d 09 a2 55 3e 81 5e 0c 3e 1c ba 64 3e
       0.08626332 0.20862593 0.13707925 0.2233662
0000a0 fb bf d8 bd da 56 92 3d 36 7f 04 3e ff a5 1a 3e
       -0.10583492 0.07145472 0.12939152 0.15102385
0000b0 9c 4f be 3c a5 cb 0e bc a5 ca 1b be aa 17 b5 be
       0.02323132 -0.008715545 -0.15214022 -0.35369617
0000c0 9a 92 03 bd 28 84 ff 3d d1 0a 26 be d4 f1 ee 3d
       -0.032122232 0.12476379 -0.16215064 0.11667219
0000d0 1b 81 67 bd 70 de 77 3d b8 19 4b 3c 7f 2d b0 bd
       -0.05651961 0.060514867 0.012396269 -0.08602428
0000e0 1c a3 1a 3c 09 ef b3 3c 58 b7 2e 3e 6b 4d 45 bd
       0.009438302 0.021964567 0.17062128 -0.048169535
0000f0 c6 47 25 3d ca a8 f5 3c c5 23 ff bd 6b 16 3f bd
       0.04035165 0.029987711 -0.12457994 -0.04665224
000100 11 c4 f3 bc 67 1a 37 bd e7 2d bc 3d 3c 2e 81 3d
       -0.029756578 -0.044702914 0.09188443 0.06307647
000110 8a 9e d9 bc 74 47 b8 3c 75 14 00 3b d2 21 9c bd
       -0.026564855 0.022495009 0.0019543443 -0.07623638
000120 43 c7 61 3d e1 f6 8f 3d 50 79 f4 bd d1 23 3f 3e
       0.05512167 0.0702951 -0.11937201 0.18666007
000130 0a 23 23 bc ac 08 77 3d 93 69 8e bd 32 8d 46 bd
       -0.009957084 0.060311005 -0.069537304 -0.048474498
000140 ba ae 2b 3e 7b 6e 35 bc 99 4e 0f be 9a 4a 0f 3e
       0.16765872 -0.011073704 -0.13994826 0.13993302
000150 04 02 c0 3d b5 79 7f bb 6a 56 cf bc 30 36 32 3e
       0.093753844 -0.0038982455 -0.02530976 0.17403483
000160 27 a9 9a 3d ab 16 e9 bc b6 85 e7 bd 19 eb cf bd
       0.075517945 -0.028453192 -0.113048 -0.10152263
000170 46 2e 4f bc 9d b9 13 3e b7 8b 86 3e 89 12 87 bb
       -0.01264531 0.14426275 0.2627847 -0.0041220826
000180 1b b3 22 bd 51 17 f4 bd 36 55 13 3e d0 c1 25 3e
       -0.03972159 -0.1191851 0.14387974 0.16187215
000190 4d 16 29 3d ac 8a 5a bd 23 b3 86 3e c7 1f 1a 3e
       0.041281033 -0.053354904 0.26308545 0.15051185
0001a0 8a ec 0c 3e 9e 60 b8 bd e0 2f eb 3d ab e1 25 3d
       0.13762107 -0.09002803 0.11483741 0.040498417
0001b0 c2 e0 8d bd b7 cf fd 3d e8 79 ac 3c 67 ef a1 bb
       -0.06927635 0.12393134 0.021054223 -0.004941869
0001c0 e7 56 40 bd 57 99 34 be 0a 26 dc bb 0c 74 40 bd
       -0.046957877 -0.1763662 -0.006718402 -0.04698567
0001d0 7e 66 13 be 4b 36 11 be 82 46 a3 3c e7 ae 3d 3c
       -0.14394566 -0.14180867 0.019931082 0.0115773445
0001e0 fa db 04 bd 17 eb 73 bd 84 7d 41 3d 6f 02 18 be
       -0.03243635 -0.05955037 0.04723884 -0.14844678
0001f0 73 71 95 bc 2e ae 06 3e 49 04 9c 3c c1 b8 a5 3d
       -0.018242573 0.13152382 0.019045012 0.0809188
