GRU/gru_model.pth (torch, 57372 bytes, 5 tensors)

gru.weight_ih_l0 f4 [192, 5]
000000 a4 fd 42 3d 37 36 8d 3d b3 20 29 3d 9a 67 ac bd
       0.04760517 0.06895106 0.04129095 -0.08418198
000010 76 48 73 bc 8f 68 f4 bc d8 8c c5 3d 6b 01 7e 3d
       -0.014848819 -0.029835014 0.096460044 0.06201307
000020 17 e0 fc bc c7 30 c6 3d c0 27 9f 3d 0a 09 8c 3c
       -0.030868573 0.09677272 0.077712536 0.017094154
000030 6e 90 08 bd d7 5c 7a bd 08 09 39 3d 4c 88 8b bc
       -0.033340864 -0.061123695 0.04517463 -0.017032765
000040 20 e8 43 3d 4e 10 18 3d 92 77 09 3e 6e a5 01 3e
       0.047828794 0.037124924 0.13424519 0.12660763
000050 ad ea d0 3d fc a4 bc 3d 2e f8 97 bc 6c 10 af 3b
       0.10201011 0.09211156 -0.018550958 0.005342534
000060 d6 6f 4b bd e4 40 96 bd f6 d3 6a 3d 92 19 a4 bc
       -0.049667202 -0.07336596 0.057331048 -0.020031724
000070 91 3b 9e bd 4f 35 cb bd e9 45 69 bc 23 ae 37 bd
       -0.07726205 -0.09922277 -0.014237859 -0.044843804
000080 d1 8e 03 be 65 89 72 bd 41 67 9b 3d db f7 9f 3a
       -0.12847449 -0.05921306 0.075880535 0.0012204604
000090 b3 dd 5b 3c be b7 ec bc 68 e8 bc bd 4e 01 2f 3d
       0.013419556 -0.028896209 -0.092240155 0.042725854
0000a0 72 98 01 3e 76 58 c5 bd af 1d 9f 3d 5b 5e c7 bd
       0.1265581 -0.09636013 0.077693336 -0.09734794
0000b0 11 3b d3 bd df 51 b8 bd bb f7 15 3e e9 10 fd 3d
       -0.103140004 -0.08999991 0.14645283 0.12356741
0000c0 50 05 c0 bb f8 48 ab 3d 5b 66 91 bd 80 f3 1b bc
       -0.0058600083 0.08363527 -0.07099601 -0.009518504
0000d0 a4 d1 0e 3d 57 e5 ba bd 44 b8 b0 bd 99 30 00 3e
       0.034867898 -0.09125774 -0.08628896 0.12518539
0000e0 78 4c dc bc fe 5d dd 3d c7 fb 31 bd 01 27 0f 3e
       -0.026891932 0.10808943 -0.043453004 0.13979723
0000f0 6e 7f 8a bd 17 13 33 3c 70 21 e4 bd 05 65 af 3c
       -0.067625865 0.010929844 -0.1113919 0.021410475
000100 2a 85 44 bd d6 2d 80 3d e5 7f 56 bd a4 9e 11 be
       -0.047978558 0.062587425 -0.052368063 -0.14220673
000110 c6 e9 d3 3d 5d 7b b8 3d 7b ce 11 bd 82 82 c9 bd
       0.10347323 0.09007905 -0.035597306 -0.098393455
000120 8e 91 82 3d e3 88 a0 bd 35 41 d8 3d 12 9b cd 3a
       0.063754186 -0.07838609 0.10559312 0.0015686473
000130 fc da cd bd 65 79 4b 3d 40 96 0e be 24 ac 1d 3d
       -0.100515336 0.049676318 -0.13924503 0.038494244
000140 38 93 13 bd a5 71 c1 bd d3 1b bc bd 9b 87 08 be
       -0.03602907 -0.09445504 -0.091849945 -0.1333298
000150 1b 33 3c bd 42 d6 a0 3d 43 a4 ff bd bc 69 11 bb
       -0.045947175 0.078533664 -0.12482502 -0.0022188267
000160 dc 75 3d bd d7 14 9f bd ba db f1 bd c3 af c8 bd
       -0.046254978 -0.07767647 -0.11809488 -0.09799149
000170 2f 78 d3 bd 18 b4 c3 ba 3b aa 93 bb 1e e2 85 bd
       -0.103256576 -0.0014930991 -0.004506377 -0.06537269
000180 17 bb d6 3d d9 60 99 3d f5 3e 78 3c b6 8b 99 3d
       0.10484903 0.07489175 0.015151729 0.07497351
000190 73 44 a3 3c 21 3d 68 bc d9 62 e1 bd a6 e8 e4 3d
       0.0199301 -0.0141747305 -0.11005182 0.11177187
0001a0 c2 d6 83 bd 94 cc d0 3c ed 0c bf 3d 7f 16 ab 3d
       -0.06437446 0.025488175 0.09328637 0.083539
0001b0 e0 ec 44 3c 6c b5 ea 3d 5c 38 1c 3d c8 97 57 3d
       0.012019366 0.11460385 0.038139686 0.052634984
0001c0 fe af a1 bd 41 6e 99 3d 76 0c 56 bd 67 17 1c 3e
       -0.07894896 0.074917324 -0.052257977 0.15243302
0001d0 81 eb 1b 3e 60 aa 2d bd 6e 14 a7 3c 09 1f 07 3e
       0.15226556 -0.04239881 0.020395484 0.13195433
0001e0 d7 8c d0 3d ca e1 7a 3c 30 79 92 bd 1d f4 25 3d
       0.10183113 0.015312621 -0.07152021 0.040516008
0001f0 19 0e d5 bd a9 d1 bc bd e7 7f a0 3d aa be 69 bd
       -0.104030795 -0.09219677 0.078368954 -0.057066597
000200 00 89 80 3c 90 71 b6 3c d8 a9 cb 3d ec ac 96 3d
       0.015690327 0.022270948 0.099445045 0.07357201
000210 6a 1f db ba 8f 0e 85 3c 2a 7e c7 bd 71 59 fc 3d
       -0.0016717736 0.016242294 -0.09740861 0.12321747
000220 b8 4f 27 3d 4c a1 ef bd 92 40 bf 3d 04 13 c3 3d
       0.04084751 -0.11700687 0.09338488 0.09525111
000230 a7 21 39 bd cf b3 36 3d 1f 2e 3f bd e0 7d 39 bd
       -0.04519811 0.044605073 -0.046674844 -0.04528606
000240 31 cf f9 3d 32 53 be 3d 27 51 ba bd 0d 1b 7a 3b
       0.12197722 0.09293212 -0.0909751 0.0038163096
000250 22 71 9d bd b9 db cf 3d d4 12 9a 3d 97 2d 3b bd
       -0.07687594 0.10149331 0.075231224 -0.045697775
000260 6d 58 03 3d e6 7b 97 3d 5e 1e c7 bd 24 99 0c bd
       0.03206675 0.073966786 -0.09722589 -0.034325734
000270 72 37 91 bd f2 13 72 bc c6 a5 09 3e 9c 09 c1 3d
       -0.070906535 -0.014775263 0.13442144 0.09425661
000280 98 36 2a 3b 5b 2b c5 bc b9 4c 80 bd 63 c3 a8 bd
       0.0025972482 -0.024068525 -0.06264634 -0.08240392
000290 e6 d2 9a bd d3 e7 d3 3d 39 92 c5 bd 3a 76 09 be
       -0.07559757 0.10346951 -0.096470304 -0.13424006
0002a0 ab e6 b3 bd c4 d1 aa 3b bb 3b 06 3d 40 de 00 be
       -0.08784231 0.0052129943 0.032771807 -0.12584782
0002b0 67 99 8b 3d 5b cb ba 3d 60 7b 9f 3d 16 c8 ab 3d
       0.068163686 0.09120818 0.07787204 0.08387773
0002c0 ca be 93 3a 53 dd 95 bd 81 d5 8b 3d 14 5f c3 3d
       0.001127207 -0.07317605 0.06827832 0.09539619
0002d0 f5 56 e0 3b a3 61 64 3d df 7a a4 3d 7b 01 b6 3d
       0.0068463036 0.055757176 0.08031248 0.08887001
0002e0 0a c7 8b 3d cb ff 80 bd 00 8e 52 bd 4c f6 ce bd
       0.06825073 -0.06298789 -0.051404953 -0.10105571
0002f0 6b b7 b5 3d 9c 53 68 3d 5a 49 98 bd a7 2f 68 3d
       0.08872875 0.05672036 -0.07435866 0.05668607
000300 79 0a a8 3c b9 2b e2 3d ee a0 c0 bd d9 52 39 bd
       0.020512806 0.11043496 -0.09405695 -0.045245025
000310 d5 31 1a bd c4 0e 42 bd e3 56 ac 3c a3 a1 e6 3d
       -0.03764518 -0.047377363 0.021037525 0.112612985
000320 74 23 94 bc 06 ad 21 bd 4e ef dc 3d f8 b6 03 be
       -0.018083312 -0.03947165 0.10787831 -0.12862766
000330 5d 87 fa 3b 15 a6 8a bc ec 93 06 3e b3 3f db bd
       0.007645531 -0.016924897 0.13142365 -0.10705509
000340 a4 a2 d5 3d cb 6d cc 3d ba db c1 3c 11 30 8a 3c
       0.10431412 0.09981879 0.023664344 0.016868623
000350 9d 5c df 3d aa 56 ec 3d b0 b2 33 bd dd 8c 32 3d
       0.109063365 0.11539967 -0.04387158 0.04359137
000360 cb 4c 17 bc 51 83 35 bd a1 14 d2 3d 6c 08 c8 3d
       -0.009234617 -0.044314686 0.10257841 0.09767231
000370 65 5a 4d bd 4c ac d5 bd fd 43 90 3d 3b e1 9e bd
       -0.050135035 -0.10433254 0.07044218 -0.07757803
000380 9b 93 0b bd 9f 52 2d bd 1a 84 c2 3d c5 f8 88 bd
       -0.034076314 -0.04231512 0.094978526 -0.06688074
000390 63 bd 40 3c e0 09 7d bc 5c e2 6d 3d 32 83 ef bc
       0.011763903 -0.015444249 0.0580772 -0.029237363
0003a0 b1 90 22 bd 3e c8 87 bd 19 89 35 bc c3 78 b2 bd
       -0.03968877 -0.0662999 -0.01108005 -0.0871444
0003b0 7f 1e a4 bd e4 ab 8a ba b7 33 e3 3c 84 ff 0b be
       -0.08013629 -0.0010579792 0.02773462 -0.1367169
0003c0 8b 69 f4 bc 5b dc bc bd 5f 92 22 bd 2f 8d 87 bd
       -0.029835483 -0.09221717 -0.03969037 -0.066187255
0003d0 85 03 c7 3d 84 d0 45 bd e8 2f 8d 3d ab 88 13 bd
       0.09717468 -0.04829456 0.06893903 -0.03601901
0003e0 29 12 a7 3d bf 67 ba 3d ea 1c c0 3d 24 37 5c 3d
       0.08157761 0.09101819 0.09380515 0.053763524
0003f0 42 dc 0b 3c 7c 43 51 3d 9c a5 b5 bc 5b ee ca 3d
       0.0085364 0.05108975 -0.022173695 0.09908744

gru.weight_hh_l0 f4 [192, 64]
000000 b1 36 20 bd 27 19 59 3a 21 54 07 3e a5 21 9e 3d
       -0.039114658 0.0008281641 0.13215686 0.07721261
000010 57 9a 4b bd 6d 89 83 bd d4 cf f0 3d 41 7f c4 3d
       -0.049707737 -0.06422696 0.1175839 0.09594584
000020 7d c4 fa 3d 79 fe 4b bc 70 c0 ab 3d ca f5 4f 3d
       0.122445084 -0.012450808 0.08386314 0.050771512
000030 a9 29 b6 bd 8f f4 76 3d 43 e1 36 3d 14 9c cd 3c
       -0.08894665 0.060291823 0.04464842 0.025098838
000040 b9 fe 0c be 78 7d 2a bc 5b 1c df bd c5 51 af bc
       -0.13769044 -0.010405891 -0.1089408 -0.021401295
000050 48 b6 f8 bd 8d 5c c5 bc 79 45 a3 bc 7a 50 30 bd
       -0.121441424 -0.024091983 -0.019930588 -0.0430455
000060 40 81 79 bd 89 ef b6 3d eb 29 8b bd 10 dd 1e bd
       -0.060914278 0.089324065 -0.067951046 -0.03878504
000070 c5 c3 a4 3c f4 00 a5 3d a3 60 2f 3c 91 51 94 bc
       0.020112881 0.080568224 0.010704192 -0.0181053
000080 e6 e9 b6 bc 86 e2 cb 3d 5e 75 98 3d 96 fb c0 bd
       -0.022328328 0.09955315 0.07444261 -0.09422986
000090 19 6d 2e 3c cb 84 28 3d 67 bd e2 3d 07 3e 10 be
       0.010646128 0.041142266 0.11071282 -0.14086162
0000a0 87 b4 d8 3b 21 07 dc 3d c5 4b fd bd fa a3 e8 bd
       0.0066133174 0.10743547 -0.123679675 -0.11359401
0000b0 b8 7d 1b be 53 33 84 3d 3d 9b b8 3d af 93 e9 3c
       -0.15184677 0.06455102 0.09013984 0.028512804
0000c0 00 2e cf bd f2 52 87 3d b0 b8 54 bd 50 48 eb 3d
       -0.10116196 0.066076174 -0.051933944 0.11488402
0000d0 15 1e 20 bc 9b 08 c0 3d 46 f1 fb 3b 11 0a e7 3d
       -0.009772797 0.09376641 0.007688674 0.11281217
0000e0 37 ad cf bd c3 6c 8c 3d 51 24 4b 3d 1e c7 12 3e
       -0.1014046 0.06856682 0.04959518 0.1433377
0000f0 1f 2a 0b 3e d1 53 fb 3d 25 8f ef 3d 8d f6 4f 3d
       0.13590287 0.12271846 0.116972245 0.05077224
000100 a9 a0 89 3c 72 c2 80 3d 28 82 e2 bd 4f a4 f2 3d
       0.016800242 0.062870875 -0.110599816 0.118477456
000110 c3 80 21 3d e2 4d ef bc 13 cb bb bd 60 b1 dd 3d
       0.039429437 -0.029211942 -0.09169593 0.10824847
000120 01 f7 d3 3c 8f 68 f7 bd 8b 40 24 bd 10 36 77 3d
       0.025874617 -0.1208049 -0.040100615 0.060354292
000130 6b 9f d4 ba c9 9a 92 bd 23 77 37 3d 68 f2 e9 3c
       -0.0016221827 -0.07158429 0.044791352 0.028557971
000140 ef dc e0 bd 15 be 36 3c d3 da a5 bd 90 c1 f3 bd
       -0.1097964 0.0111537175 -0.08098378 -0.119021535
000150 cb 7a 08 bd 63 30 86 bd 3d 02 77 bd 00 00 e5 3d
       -0.03332023 -0.06552198 -0.06030487 0.111816406
000160 22 d4 cc 3d 1e 5d 0a be e3 e0 02 3d 69 67 1e 3c
       0.100013986 -0.13512084 0.03195275 0.00966821
000170 3b bc 27 bd 32 3b e2 bd 4c 0f 83 3d a3 af d1 bd
       -0.040950995 -0.11046447 0.06399402 -0.10238578
000180 a7 62 72 bd 5c 5b fa 3d b0 b6 8d 3d f0 99 11 bc
       -0.059176113 0.12224457 0.069196105 -0.008886799
000190 ea 4e b6 3c 05 7c c4 3d 5a 7b 9e 3c a2 a2 ac 3d
       0.022254426 0.09593967 0.019345928 0.08429457
0001a0 3e c6 2b 3d 32 05 92 bd a0 aa 0e 3e 90 60 11 3e
       0.041937105 -0.07129897 0.13932276 0.14196992
0001b0 c1 f3 c1 3c 91 51 4f bd 20 32 16 3b 38 09 e9 bd
       0.023675801 -0.050614897 0.002291806 -0.113787115
0001c0 80 a0 99 3d 24 60 82 3d 9c f8 cc bc 08 b6 ed bc
       0.07501316 0.063659936 -0.02502089 -0.029017463
0001d0 ed 57 6b bd 25 c4 bf 3d 77 35 71 bb 96 24 4e bd
       -0.0574569 0.093635835 -0.003680555 -0.05032786
0001e0 50 c9 15 3d d8 2b d5 bc dc f5 a8 3d 9f 1e 5e 3d
       0.03656894 -0.026021883 0.08250019 0.05422842
0001f0 a5 5f 54 3d 42 39 d0 3d 8d 57 b4 bd 4e e7 d3 ba
       0.051849026 0.10167171 -0.088057615 -0.0016166957
000200 37 a0 ec 3d 3d 9d c6 3b 4a 52 48 bb 96 6d 78 bd
       0.11553996 0.0060612247 -0.0030566626 -0.060651384
000210 62 b4 1e 3b bf 22 c8 3d 19 5f 8b bd 93 91 05 3a
       0.0024216403 0.09772252 -0.06805248 0.00050952396
000220 ce 91 0c bd e4 87 3a 3b 7a fe fa bd a9 e1 a8 3c
       -0.034318738 0.0028462345 -0.12255569 0.020615416
000230 5e 27 a4 3d 9e d5 74 bc 08 91 99 3d d9 a6 ac 3d
       0.08015321 -0.014943508 0.07498366 0.08430261
000240 4d 59 e1 bd fb 41 1e 3d 6a 7a e9 3b db 67 91 3d
       -0.11003361 0.038637143 0.0071251886 0.07099887
000250 b2 63 71 bc c8 ee cd bb e4 a8 ff bc c2 fd 32 3c
       -0.014733242 -0.0062845685 -0.031208463 0.010924758
000260 40 71 18 3d 2b 78 6e bd b7 12 a1 3d 30 99 1c bd
       0.03721738 -0.05822007 0.07864898 -0.03823203
000270 19 fa cb bd b3 c2 e5 3c 40 93 75 bd a7 da 92 3d
       -0.09959812 0.028046941 -0.05995488 0.07170611
000280 51 a6 94 bd d6 17 d0 3d 3e 0e ea bd df a8 d2 3d
       -0.07258285 0.10160796 -0.11428498 0.10286116
000290 16 73 9d 3c 8f 08 fe bd 46 f8 12 3d 22 70 99 bc
       0.019219916 -0.12403976 0.035881303 -0.018730227
0002a0 86 81 02 bd 04 4b 0a 3d 23 d0 e6 3d 48 70 2d bd
       -0.031861804 0.033762947 0.11270168 -0.042343408
0002b0 7f 35 a5 bc b7 41 3e 3d be 42 7c 3d 55 64 dc bd
       -0.02016711 0.04644939 0.061587088 -0.10761324
0002c0 7a 19 74 3d bb da 20 bd ba 63 0d be 69 db eb 3d
       0.05959461 -0.039271098 -0.13807574 0.115164585
0002d0 f4 76 39 3c ee e4 a0 bd 91 27 a5 bd f3 df 90 3d
       0.011319865 -0.07856165 -0.08064187 0.07073965
0002e0 26 d0 b1 bd d7 ab 92 3d d4 e6 93 bc 83 b5 b7 3d
       -0.08682279 0.07161682 -0.018054403 0.089701675
0002f0 48 9a 01 be 29 55 10 bb 79 e8 ea 3d 20 1e 33 3d
       -0.1265651 -0.0022023416 0.11470122 0.0437299
000300 f6 94 6e 3c 39 27 65 3b 9d b7 f8 bd 81 35 3c 3d
       0.014561882 0.0034966005 -0.121443965 0.045949463
000310 6f 92 32 bd 3b 59 8f bd 00 7b 82 bd 48 6f e2 3d
       -0.04359668 -0.06999441 -0.06371117 0.110563815
000320 f4 6f 80 bd ef 60 8a 3d 6b c6 ba bc 67 48 9d 3d
       -0.06271353 0.0675677 -0.022799691 0.07679825
000330 48 cd 07 bb 0b f9 e8 bc fa 43 96 3b 29 bc 36 3b
       -0.0020721722 -0.028439065 0.00458574 0.0027883148
000340 08 ce af 3d b6 b7 8d 3d 77 a6 a2 3d 54 2a ab bd
       0.08584219 0.06919806 0.07941907 -0.08357683
000350 61 4f 2b bd f2 ca 9b bd d3 b2 53 3d a8 a7 94 3d
       -0.04182375 -0.07607068 0.051684212 0.072585404
000360 2c 8a c7 bd a2 68 8b bd 45 cd 61 bd 33 b2 f3 3c
       -0.09743151 -0.068070665 -0.0551274 0.029748058
000370 c0 76 01 3e ea 0d e3 3d 03 7b b0 3d 83 6b d5 bd
       0.12642956 0.11086638 0.086172126 -0.10420897
000380 0e 2e 4b 3c 56 a2 9e 3d 43 62 e9 ba 95 dd 4f bc
       0.012401117 0.07745807 -0.0017805774 -0.012687107
000390 6a 8a 09 3c 41 c5 be 3d 23 da 54 3d ad d5 60 bd
       0.008394817 0.09314967 0.051965844 -0.054891277
0003a0 ae ab 99 3c f2 91 c7 3d 1a bb c9 3d 95 7f c2 bc
       0.018758621 0.09744634 0.0985014 -0.023742476
0003b0 3b 45 9f bd 85 e9 d0 bb d4 ae 17 3c f7 ba c3 bd
       -0.077768765 -0.006375494 0.009257991 -0.09557145
0003c0 31 aa 02 be cb 14 6c 3d 85 8f e8 bd 25 72 ce bd
       -0.12760235 0.057637017 -0.11355499 -0.10080365
0003d0 de 9b b1 3d d9 9f d1 3d f7 f9 0d 3e 63 44 ae 3c
       0.086723074 0.10235567 0.13864885 0.021272844
0003e0 3f 31 79 bd d1 d6 36 bc e3 4b 1a 3c 31 9c 05 3e
       -0.06083798 -0.011159615 0.009417507 0.13047864
0003f0 88 93 a3 3d e4 d3 2c bc 59 40 9f 3c 2c 89 d7 ba
       0.07987124 -0.010548566 0.019439863 -0.0016444079

gru.bias_ih_l0 f4 [192]
000000 8c 1e 98 bc 8c 1c 30 3c d0 56 69 3d 16 9b b6 bd
       -0.018569253 0.010748994 0.056967556 -0.08916299
000010 07 14 c4 3d a7 58 b0 3d ed 2a 0a 3e 2d 95 06 3e
       0.095741324 0.08610659 0.13492937 0.13142844
000020 e8 f6 68 bd fa 3d bd bd 59 f0 87 bd b2 ff c6 3d
       -0.056876093 -0.09240337 -0.066376396 0.09716739
000030 ba 8c bc 3d e6 af d6 3d 6f a6 c1 3d 3e 92 9a 3d
       0.09206529 0.10482769 0.09455573 0.07547425
000040 1b 86 87 bd 54 55 d6 bd f9 33 2b bd 7b 07 77 3d
       -0.066173755 -0.10465494 -0.04179761 0.06030987
000050 ca 5d 7e bb c8 3e 83 3d dd 0b 37 3d 64 a0 e5 3d
       -0.0038813227 0.06408459 0.044689048 0.11212233
000060 19 21 90 3d d1 20 a8 bc 81 0f 27 bd d0 88 46 bc
       0.07037563 -0.02052346 -0.04078627 -0.01211758
000070 08 48 9f 3d 09 6e fb 3c 62 e3 85 bc 49 16 f5 3d
       0.07777411 0.030692117 -0.016343776 0.11967141
000080 9f 11 8b bd 62 b5 1a be ad 81 f0 bb 91 13 4a 3d
       -0.0679047 -0.15108255 -0.0073396773 0.049335066
000090 09 7a d8 bd b3 cc e6 bd 08 e2 f7 3d 7e 73 ad 3c
       -0.10570151 -0.11269512 0.12103659 0.021173235
0000a0 59 0e 57 3d b5 59 88 bd f0 ff ae bd a5 12 6c bd
       0.052503917 -0.06657735 -0.0854491 -0.05763497
0000b0 e5 4b 08 bd 28 e7 82 bb 7d 5d b0 bc 48 29 48 bc
       -0.033275504 -0.003994841 -0.021528954 -0.0122168735
0000c0 b4 bf 26 3d a4 c7 c8 bd eb 53 be bd 59 f2 64 bd
       0.040710166 -0.098037034 -0.0929335 -0.055895183
0000d0 bd e5 92 3c 04 3c eb bd 14 0e ab bd 47 49 b1 bc
       0.017931813 -0.114860564 -0.083522946 -0.021641387
0000e0 1a 00 0a 3e e9 2d c4 bc a4 ed 56 3d dd 2a b8 bd
       0.13476601 -0.023947673 0.052472726 -0.089925505
0000f0 cf d3 7a bd 57 f4 cb bd 2f c2 c2 bd f0 64 53 bd
       -0.061237153 -0.099587135 -0.09509694 -0.051609933
000100 99 bb 9c bd eb dd bf bb 8b 5f 43 bd 0c d9 13 be
       -0.07652969 -0.005855312 -0.04769854 -0.14438266
000110 19 f4 19 bc c7 14 51 3d fe 5d 2d 3d 6c 3b 2a bb
       -0.009396576 0.051045205 0.042325966 -0.002597536
000120 9c 2d 1e 3e a5 8b 75 bd 5c bf be bc aa e2 1c be
       0.15447086 -0.05994763 -0.023284607 -0.1532084
000130 7e bb 93 bd 88 2e 96 bd 8d 7f 28 be 50 1b a2 bd
       -0.07213496 -0.07333094 -0.16454907 -0.07915366
000140 b1 c9 a1 3d 4a 68 e7 bd c4 be 1c be 33 51 2c be
       0.07899798 -0.112991884 -0.15307146 -0.1682785
000150 be f6 a0 bd 05 b2 a3 3d 17 94 b3 bd 73 6b f7 bd
       -0.07859562 0.07992939 -0.0876848 -0.12081041
000160 53 b7 65 3d dc 57 ed bb 08 83 04 be ab ce 0b 3e
       0.056083035 -0.0072431397 -0.1294061 0.13653056
000170 fb ee 0c 3d 44 79 d3 bc 26 fe 19 bd 37 e3 f3 bc
       0.034407597 -0.02581466 -0.03759589 -0.02977143
000180 0d f2 e6 ba ee 30 02 be b4 60 85 3c 53 fb 94 bc
       -0.0017619744 -0.12713978 0.016281463 -0.018186247
000190 3a 31 6c 3d 64 4c d2 bd 8a 16 03 3e da a6 a1 bd
       0.057664134 -0.102684766 0.12801567 -0.078931525
0001a0 86 d4 f1 bd ab b2 33 be 46 6e 2c be f3 c0 16 be
       -0.11808114 -0.17548625 -0.16838941 -0.14722042
0001b0 d1 1b 45 3c ec 7b 0b be f8 8b bc bc 38 3f 35 be
       0.012030558 -0.13621491 -0.023015961 -0.17699897
0001c0 f9 cf 18 bd 99 61 cc bd 32 de 54 bd 7e c9 93 bd
       -0.037307713 -0.09979553 -0.051969714 -0.07216166
0001d0 1c 90 7b 3d 90 4e 3f 3c 15 ed 45 bd 48 e6 14 bd
       0.06141673 0.011676446 -0.048321802 -0.036352426
0001e0 c1 fa 11 3c d1 e5 97 bd d0 89 14 be a5 26 00 3e
       0.008909882 -0.07416881 -0.14505696 0.12514742
0001f0 54 13 06 3e 27 e6 a3 bd 6a 07 8a bd b8 78 f9 b9
       0.1309331 -0.080028825 -0.06739695 -0.00047582923
000200 5d 93 2e 3d 27 7c 40 bd df 73 a6 bc 30 41 5d bd
       0.042621005 -0.0469934 -0.020318924 -0.054017246
000210 35 75 cf 3d 35 40 bb bc be 6f 6a bc 01 5d ee 3c
       0.10129777 -0.022857765 -0.014308868 0.029097082
000220 3a b6 02 be 5a 08 10 bc 0a 58 0f bd b7 fc fb 3d
       -0.12764826 -0.008791054 -0.03499607 0.12304061
000230 7a c5 a5 bd 81 71 f0 bd 0b ae d7 bc 2d c0 bb 3d
       -0.08094306 -0.11740399 -0.026328107 0.09167514
000240 02 50 1d bd 24 95 92 bc a3 c6 30 bc d8 ef a8 3d
       -0.03840638 -0.017893381 -0.010789546 0.082488716
000250 7a a0 ae 3d 9d 9f aa bd 5b 27 81 bd 59 8e e8 bc
       0.08526702 -0.08331225 -0.063063346 -0.02838819
000260 ca 1a 4d bd c7 39 8d bd cd a1 19 3c af 5c 38 3c
       -0.050074376 -0.06895786 0.009376955 0.011252566
000270 a3 f1 a5 3d 22 e0 3e bd bb 3e a5 3d 7a e3 a3 3d
       0.08102729 -0.04660047 0.080686055 0.08002372
000280 44 e4 ef 3d e9 3f 23 bc a3 e7 6d 3d 55 ea 22 3d
       0.1171346 -0.009963968 0.058082234 0.039774258
000290 bf 94 75 3d 6d da 34 bc 4f ef ca bc 63 3c 01 3e
       0.05995631 -0.011038405 -0.024772314 0.12620692
0002a0 8b 3c 26 3c e3 77 e9 bd 83 80 9b 3c 6f ba d3 3d
       0.0101462705 -0.1139982 0.018982178 0.10338294
0002b0 87 ca 11 bc 2a 61 fb bc 57 a4 4a 3d 67 08 05 ba
       -0.008898384 -0.03068598 0.049473133 -0.00050747994
0002c0 cf da 3e bd cf 55 04 3e da 51 8a 3c 79 14 04 bc
       -0.04659539 0.12923358 0.016884733 -0.008061522
0002d0 15 b1 d6 3d 03 4f 98 bd 9e 49 07 bd 35 86 81 bd
       0.104829945 -0.07436945 -0.03302919 -0.06324426
0002e0 96 9e 90 bd 43 ab 08 3e dc 89 dd 3c 7f 97 70 3c
       -0.07061498 0.13346581 0.027043276 0.014684557
0002f0 de 86 79 3d 80 d6 42 3d f1 56 a4 3d a7 2a 8d 3d
       0.060919635 0.047567844 0.08024395 0.06892901

gru.bias_hh_l0 f4 [192]
000000 14 92 9e 3d d3 2f 91 3d be e9 92 3d d7 9f da b7
       0.07742706 0.070892 0.07173489 -2.6062056e-05
000010 31 09 22 3d 23 e9 4e 3c 3b be 5a 3c e5 0f 95 bd
       0.039559547 0.012628826 0.013351019 -0.07278422
000020 69 76 92 3d 8d f6 56 bd 94 4f 90 3d b6 39 21 3d
       0.07151491 -0.052481223 0.07046428 0.039361678
000030 d3 3b a0 bd cd 28 2d 3d d7 f1 db bd 1e dd 9b bd
       -0.078239106 0.04227524 -0.10739487 -0.07610534
000040 f5 b9 d5 bd 42 31 85 3c b7 51 e4 bd 73 8b dd 3d
       -0.10435859 0.01625884 -0.11148398 0.108176135
000050 02 2d 2d 3d b8 db 77 bd 04 07 ee bc 28 ad b8 3d
       0.04227925 -0.060512275 -0.02905608 0.09017402
000060 3e 2d 23 bd 97 cb 10 3d 0f 16 db bd f4 d9 5f 3c
       -0.03983807 0.03535041 -0.10697567 0.013662804
000070 7e e2 46 bb 1e ce 27 bd c4 57 a7 bc 4a c7 96 bc
       -0.0030347402 -0.040968053 -0.020427592 -0.018405575
000080 12 90 8c 3c 62 e2 cb bc e9 23 a9 bb e8 f1 f8 bd
       0.017158542 -0.024888221 -0.0051617515 -0.12155515
000090 e5 e0 c9 3d 99 88 e9 bd 0d 8a 09 3e cb 8f f6 3d
       0.09857348 -0.11403007 0.13431568 0.12039145
0000a0 d0 10 54 bd c1 fb 52 3d fd b2 bf bd bc fd b0 3d
       -0.051773846 0.051509622 -0.09360311 0.08642146
0000b0 38 43 d9 3d 83 da 8a 3d aa 58 9e bd ca 4a c6 bc
       0.10608524 0.06779959 -0.07731755 -0.024205584
0000c0 ac 3c ed bd 49 46 b0 bc b9 14 e1 3d 37 79 ef bd
       -0.11583838 -0.02151789 0.10990281 -0.11693042
0000d0 36 0c 3e 3d f6 9b 83 bd e7 8c b1 bd f4 c1 62 3c
       0.046398364 -0.064262316 -0.08669453 0.013840187
0000e0 bf 10 9c bd 01 65 81 3d 0e 49 b2 3d 08 04 9c bc
       -0.076203816 0.06318093 0.0870534 -0.019044891
0000f0 5a 64 cf 3d a9 ff 5d bd 4e 08 43 bd 93 30 67 bd
       0.101265624 -0.054198895 -0.04761534 -0.05644281
000100 be 11 12 3d cc 65 04 be 04 d9 55 bc 76 fe 12 3b
       0.03566145 -0.12929457 -0.013052229 0.0022429503
000110 bb a4 9c bd 91 1b f5 3c 4f ae 81 3d 6f cd fe 3d
       -0.07648607 0.029920371 0.06332075 0.12441527
000120 62 34 19 3e a9 6e de 3c 38 07 de 3c bc 7e 13 be
       0.14961389 0.027152376 0.027103052 -0.14403814
000130 25 81 9c bd cc 1c 6e bd 70 1e b0 bb a9 b4 17 bd
       -0.0764182 -0.05813293 -0.005374722 -0.037037525
000140 2f 80 d4 3d 6d b6 50 3d d2 b4 72 bc 82 18 91 3b
       0.103760116 0.050955225 -0.014813619 0.0044279704
000150 59 b9 06 be c6 3e 9c 3b 2f 69 90 3c a1 d9 de bd
       -0.13156642 0.0047682254 0.01762828 -0.10881353
000160 fb 6b 46 3d 18 ac 1d 3d e9 b3 85 bd 0e 25 23 3e
       0.048442822 0.0384942 -0.06528456 0.15932104
000170 51 2f 69 bc f1 35 10 3d 43 e6 0b bd cd 1c 12 bc
       -0.0142324725 0.035207693 -0.03415514 -0.008917999
000180 59 a0 38 3c 68 24 03 be cc aa ce bd 03 dc 5b 3d
       0.011268699 -0.12806857 -0.10091171 0.053676616
000190 ab 45 59 bd f6 ec 45 bc be ad 10 3d d1 c0 32 be
       -0.053044956 -0.012080422 0.035321943 -0.17456366
0001a0 07 d9 47 bd 0d 12 09 be 11 d3 ff bc 2b 3f e4 bd
       -0.048790958 -0.13385792 -0.031228574 -0.11144861
0001b0 e2 1c 10 be e9 f4 0c 3d 58 e5 40 3d 84 6e 53 be
       -0.14073518 0.034413252 0.04709372 -0.20647627
0001c0 43 f9 ad 3c cf 00 d3 bc f5 b3 32 be 0e c5 e2 3d
       0.021237021 -0.025757222 -0.1745146 0.110727414
0001d0 eb 97 30 3d b4 9c 32 be 18 79 12 be a8 41 e6 3c
       0.04311363 -0.1744259 -0.14304006 0.02810748
0001e0 ff 5c 43 bc 98 40 4b be 84 db dc bc 77 d7 c6 3c
       -0.011924027 -0.1984886 -0.026960142 0.024272664
0001f0 19 99 12 3e e3 c4 d6 bd 47 43 c3 bd 6f 6b 90 3d
       0.14316215 -0.10486772 -0.095343165 0.07051741
000200 62 f4 3c 3d d0 73 b8 bd 9f 76 d4 bd 89 89 a7 3d
       0.0461315 -0.090064645 -0.10374188 0.081805296
000210 ff 1f 4a bc 56 53 84 3c cd f2 8a 3d df 86 9c 3d
       -0.01233673 0.016153019 0.06784592 0.07642912
000220 4c 3a 3a bd 6a 60 e6 ba 4f ea 87 bd 1d d8 38 bd
       -0.045465752 -0.0017576341 -0.06636488 -0.045127977
000230 9d 17 0c bd eb ba f1 bd 6c 35 c7 3d e6 47 30 3c
       -0.034202207 -0.1180323 0.09726986 0.010759329
000240 11 6f df 3d ed 02 a5 3b 47 92 25 3d 41 d2 23 bd
       0.10909856 0.005035749 0.040422704 -0.039995436
000250 f7 d8 0b 3c d3 a9 5f 3d 69 e4 e9 3d c8 b2 a6 3d
       0.008535615 0.054605316 0.11420519 0.081395686
000260 ce aa d4 3c cc 4b ea bd cb 41 fe bd 60 03 22 bd
       0.025960352 -0.11440238 -0.12414893 -0.039554
000270 53 38 e9 3d f1 9f 7d bd 2c f2 c8 3d 01 20 e5 bd
       0.11387696 -0.06192011 0.098118156 -0.11187745
000280 4f 97 c6 3d 0e ba 93 3d 23 c5 96 bd 79 06 a5 bd
       0.096968286 0.072132215 -0.073618196 -0.08057875
000290 7a f0 67 3d ed 0a cc 3b fd a7 7f 3c b4 62 9c bd
       0.05662582 0.0062268884 0.015604016 -0.076360136
0002a0 73 46 92 3d 23 32 33 3d 45 c9 81 3d 82 68 7f 3d
       0.07142343 0.043748986 0.06337217 0.062355526
0002b0 60 2c d6 bd 14 fd 10 3d 49 d5 19 bd 30 29 cd 3c
       -0.104576826 0.035397604 -0.03755692 0.025044054
0002c0 0a 4d cb bd dd de c2 3d f0 f7 a7 3c 53 f2 b2 3c
       -0.099268034 0.09515164 0.020503968 0.021844065
0002d0 5b 0f d0 bd 6e f4 aa bd 3a c7 6f 3d 42 55 b3 3d
       -0.10159179 -0.083474025 0.058539607 0.08756496
0002e0 54 76 80 bb f9 1a f5 bb 29 bb 80 bd b6 e3 ee bd
       -0.003920356 -0.007480022 -0.06285698 -0.11664526
0002f0 8d 5a 0d 3d 18 64 25 bd 81 10 13 bd c0 c3 d5 bd
       0.034510184 -0.04037866 -0.03590441 -0.10437727

fc.weight f4 [1, 64]
000000 e7 c3 ac 3d 81 e6 d0 3d 33 53 c7 3d f8 fb 14 3d
       0.08435803 0.10200215 0.09732666 0.03637311
000010 e9 de 67 3d ec 1f 71 3c a1 c0 6f bd 23 d9 3e 3b
       0.056609068 0.014717083 -0.058533315 0.0029121123
000020 1e 09 c8 3d b0 a1 3b 3d c5 8a bf bd 65 23 6e bd
       0.09767364 0.045808494 -0.0935264 -0.058139224
000030 f9 b5 7a bc 0a 7e 54 bd ca 26 3a 3d e5 0e 78 3d
       -0.015302175 -0.051878013 0.04544715 0.06056108
000040 b5 82 9e bd 00 5f 4e bd 84 40 89 bd 1b 43 06 3e
       -0.07739774 -0.050383568 -0.067017585 0.13111536
000050 18 15 16 be ef 2c a4 bd 3b 90 9d bd f7 60 17 3e
       -0.14656484 -0.08016383 -0.076935254 0.14783083
000060 18 9c 07 bc a4 b9 b1 bd f9 a9 2a bc f5 fc 08 be
       -0.008276962 -0.08677986 -0.010416501 -0.13377745
000070 30 69 55 3d 86 17 e1 3d f7 50 40 bd 92 3f 81 bb
       0.052102268 0.10990815 -0.046952214 -0.0039443457
000080 5c ab a9 3d 56 5b 1f 3d de 03 ff 3c b8 78 13 bd
       0.08284637 0.038905464 0.031129774 -0.0360038
000090 3f ed 0f bd 19 2e 08 3d dd 00 c1 3d 6d 89 b3 bd
       -0.035138365 0.033247087 0.09423993 -0.08766446
0000a0 68 41 56 bd 4d 2f 1b 3d b6 34 41 bd 14 e0 1b be
       -0.05230847 0.037886906 -0.04716941 -0.15222198
0000b0 44 ac 1a bd 47 3c d8 3d ba 52 0b 3e bf 79 84 3c
       -0.03776194 0.10558372 0.13605776 0.016171334
0000c0 b3 21 82 3d 30 47 a2 bc 85 49 f7 bd 0a b0 8c 3c
       0.06354084 -0.019809335 -0.120745696 0.017173786
0000d0 b9 91 0c 3e 44 b9 ac bd 00 8d 15 3e 1e fa ab 3c
       0.13727464 -0.08433774 0.14604568 0.020993289
0000e0 9f e5 a0 3c 50 49 a6 bc f4 11 04 bc 31 44 8d bc
       0.019640742 -0.02029863 -0.008060921 -0.01724443
0000f0 0e f3 80 bd 62 4f ce bb 9b dd c6 3d 2d 2d de bc
       -0.06296359 -0.0062960843 0.09710237 -0.02712115
